model/20240326-20-try1/cnn.pth (torch, 403956 bytes, 25 tensors)

conv.0.weight f4 [16, 6, 3, 3]
00000000: be34 92b8 9017 8839 dd72 f338 fe79 bbb9
00000010: 8d8a 14b9 da5f 1039 a222 0038 579e 27b8
00000020: c798 6538 5114 e6ba f491 d73a b0d5 1239
00000030: 09f5 8c3a 5964 15b9 3f8a 0cb8 eb5d 053a
00000040: 9128 12ba 6f48 2f39 59e7 c198 f67a 8016
00000050: 8abb 728d ba0b 3f8e a54c 0080 0c9e c28d
00000060: d3e2 9420 480a b814 5bbb f79e 1a97 6999
00000070: dbed 451d eadf 1300 60a4 c721 21e2 1d9d
00000080: ac6e 401e 516d a124 aedd faa1 26ba 3a22
00000090: 299f ca33 8b27 2d33 4655 9fb1 e760 a233
000000a0: 0feb 1bb3 e5b8 0cb2 642d 5c31 e58e fc33
000000b0: 89e6 0db4 c3fb 25ad 7fc8 10ad f738 87ad
000000c0: 7a69 5fa6 3401 5ea2 7781 f223 ef91 09a5
000000d0: 65b2 e824 a024 f720 29a9 833a 8774 d0ba
000000e0: e47d f9b9 c3ac ca3a c2dc 1ab9 1cb4 df3a
000000f0: 69b7 00ba 122c b338 a6e3 a3b9 eefe b1b8
00000100: f6df 12b7 d23b a6b8 0e00 fab8 52d8 a438
00000110: fcc4 1538 5122 2537 c878 3638 f7dd 0ab9
00000120: 89c0 9629 5595 90a5 f99c 9132 b52f aaa7
00000130: 7d59 85a9 af16 1e28 1013 9b24 713b 999f
00000140: b70c 39a2 9929 8ea3 7314 24a7 bd93 332a
00000150: c5fe 8123 3d6c 1a28 5123 289f e744 4fa0
00000160: 92f7 9125 c22a 6a25 229f f62e a481 112c
00000170: 1537 0632 7a72 2230 1977 77b1 8066 a4af
00000180: e25e 07ab c0ee c2ad 5f9b 41a9 facd aa32
00000190: 8133 3231 fcf4 2232 b148 e4b1 7f73 a1b1
000001a0: 77ba afb0 9527 dc34 3161 1a32 457b a032
000001b0: d5c9 f432 fa9c f6b0 c99d d434 de5e ffb4
000001c0: 02fa 2f33 ee56 8a33 59b9 27b4 11d4 65b5
000001d0: 50dc b433 8d21 dcb2 bf13 b534 2e4c 05b3
000001e0: c9c2 ceb1 41d0 bbb2 1373 b02f 6d62 a430
000001f0: 92b2 7730 9001 8b30 c58a 9d9e 8999 a79a
00000200: b300 8ea8 4ead 2fa3 a0d5 3716 f555 9820
00000210: 2834 7724 def0 a520 2c28 05a1 c3a9 eb1e
00000220: 400a ad1d 00d9 9d9c d14f e9a7 454e 401a
00000230: 31c1 5798 164d 8619 56c7 5d1d 86b0 6319
00000240: 3448 70af 954f 71ae b50b 7b2f 7814 582c
00000250: 7de8 df2c dd91 04ae a671 7226 56c1 a6ac
00000260: 6e97 542b 7bcc 942e 8f20 752f 4e75 342e
00000270: 265f 2b2d 2e32 adae 5b92 da2c 1cc9 51a4
00000280: 8419 61a6 e71a 2f2a 5663 47aa 8804 fda7
00000290: 0223 daa7 c0e1 5cb1 efee faaf 571d a3af
000002a0: 217f 7c31 878b da30 e9e3 f9b1 e136 f4ae
000002b0: e970 3a2f 8d9f 2730 6cfc aa32 e5c8 a22f
000002c0: b910 b8b1 7b2b c4b0 072f d830 2ffc d3ae
000002d0: 1496 0000 7089 0080 a789 0080 9f33 51a6
000002e0: 25fa 56a8 f9fe 3d25 c3db 7aa7 9ba6 d2a7
000002f0: d80b b1a9 f1b1 d783 62d8 8006 add3 6f02
00000300: 09ca 659c d810 8998 df37 e219 781f 421d
00000310: 73d1 c09d 1805 4820 5d89 0080 2f89 0000
00000320: c688 0080 a289 0080 cc88 0080 f688 0080
00000330: 92e5 0805 486b a206 07de ab14 9ed6 d305
00000340: 2b89 e786 8d1c 480a d0a0 0285 4383 ae04
00000350: c316 0000 b02d 3992 c098 a58e f632 bf8c
00000360: fa22 37b8 c1ca 1e37 8164 b836 0e36 50b6
00000370: 353e 1a36 3117 6db5 860c 07b5 cc48 64b6
00000380: 259e c934 4f78 30b8 34a9 1037 5270 9ab4
00000390: 89e8 e832 af7a 3137 b228 e437 0c73 2535
000003a0: 9f85 2ab4 c7b9 27b7 f588 0000 d9cf 149c
000003b0: c0a8 0000 5cc4 0000 790b c689 90c5 a491
000003c0: 5bb1 810a 7e89 0000 60cf 1995 a10d 8f0f
000003d0: 9e46 f693 a79e e986 f406 0896 0522 cd03
000003e0: e88a c110 575f c60e ba03 5292 b578 db11
000003f0: daba 699e 611d 539f 4b9d 42a8 b456 569b
-6.9716465e-05 0.00025957497 0.00011608538 -0.0003575831 -0.00014165994 0.00013768618 3.0549832e-05 -3.9963368e-05
5.474014e-05 -0.0017553662 0.0016446696 0.0001400325 0.0010754179 -0.0001424713 -3.3507353e-05 0.0005087542
-0.0005575503 0.00016716284 -5.0122932e-24 2.0757115e-25 -7.479775e-31 -2.3548214e-30 -2.7495e-41 -1.19942215e-30
2.5222275e-19 1.8583307e-26 -2.622963e-20 -1.2076332e-23 2.6195701e-21 1.8252e-39 1.3528274e-18 -2.0895683e-21
1.0187282e-20 7.000781e-17 -1.6999337e-18 2.5306247e-18 9.435309e-08 4.0315665e-08 -4.6372035e-09 7.561339e-08
-3.6302534e-08 -8.191113e-09 3.2040015e-09 1.1760657e-07 -1.3215517e-07 -9.4350664e-12 -8.229971e-12 -1.537302e-11
-7.7511614e-16 -3.0087247e-18 2.6292523e-17 -1.19323e-16 1.00916174e-16 4.1867664e-19 0.001004492 -0.0015903868
-0.00047586777 0.0015462864 -0.00014768823 0.0017067227 -0.0004910143 8.543594e-05 -0.00031259394 -8.487502e-05
-8.754423e-06 -7.926639e-05 -0.00011920939 7.860422e-05 3.5707824e-05 9.842756e-06 4.3504668e-05 -0.00013243394
6.694738e-14 -2.508121e-16 1.6951605e-08 -4.7236203e-15 -5.92191e-14 8.775681e-15 6.725283e-17 -6.489636e-20
-2.5078906e-18 -1.5413288e-17 -2.2770658e-15 1.5949651e-13 1.4094107e-17 8.572188e-15 -3.5604597e-20 -1.755638e-19
2.532125e-16 2.0310752e-16 1.12150525e-10 2.0677704e-12 7.812351e-09 5.909794e-10 -3.601093e-09 -2.9904257e-10
-4.809331e-13 -2.2161273e-11 -4.298937e-14 1.9884272e-08 2.5931686e-09 9.485344e-09 -6.6439374e-09 -4.698847e-09
-1.2785922e-09 4.1006993e-07 8.9860785e-09 1.8682508e-08 2.8497121e-08 -1.7943471e-09 3.960288e-07 -4.7566476e-07
4.0972743e-08 6.441938e-08 -1.5620516e-07 -8.5617745e-07 8.421978e-08 -2.5626628e-08 3.3728244e-07 -3.103576e-08
-6.0175336e-09 -2.1864368e-08 3.209598e-10 1.1960545e-09 9.011184e-10 1.0114025e-09 -1.6680415e-20 -6.931763e-23
-1.576547e-14 -9.523468e-18 1.485003e-25 2.5806683e-19 5.3603765e-17 2.811148e-19 -4.511532e-19 2.4951805e-20
4.5803317e-21 -1.0445482e-21 -6.475703e-15 3.9767895e-23 -2.7885635e-24 1.388641e-23 2.935216e-21 1.17712736e-23
-2.1853525e-10 -5.486774e-11 2.2832476e-10 3.0706809e-12 6.3638526e-12 -3.0142878e-11 8.411464e-16 -4.7394684e-12
7.552768e-13 6.766584e-11 2.2294187e-10 4.103145e-11 9.741352e-12 -7.876043e-11 6.2121814e-12 -4.5489997e-17
-7.8097137e-16 1.5552456e-13 -1.7709215e-13 -7.022652e-15 -6.054511e-15 -3.2142538e-09 -4.5644508e-10 -2.9670374e-10
3.674309e-09 1.5901244e-09 -7.272764e-09 -1.1105584e-10 1.6956715e-10 6.098098e-10 1.9905393e-08 2.9610372e-10
-5.357006e-09 -1.4273235e-09 1.5729434e-09 -9.639966e-11 5.3838e-41 -4.9303e-41 -4.938e-41 -7.25814e-16
-1.1933628e-14 1.6479525e-16 -3.4813603e-15 -5.8467343e-15 -7.8624336e-14 -1.2677418e-36 4.8466195e-35 1.7619695e-37
-7.603087e-22 -3.5430678e-24 2.3390418e-23 2.5691955e-21 -5.1038542e-21 1.6942344e-19 -4.9277e-41 4.9212e-41
-4.9065e-41 -4.9373e-41 -4.9073e-41 -4.9132e-41 6.436855e-36 6.109526e-35 1.7354162e-26 1.9921183e-35
-8.709409e-35 9.6350195e-33 -6.142107e-36 4.102775e-36 8.165e-42 -5.843202e-28 -4.0822733e-30 -2.945888e-31
-4.3663174e-05 9.464741e-06 5.4953275e-06 -3.102588e-06 2.2983997e-06 -8.832313e-07 -5.0309643e-07 -3.401702e-06
3.7554233e-07 -4.2073716e-05 8.6224645e-06 -2.876646e-07 2.71141e-08 1.0578587e-05 2.7198668e-05 6.1634705e-07
-1.5881095e-07 -9.99723e-06 4.9131e-41 -4.923773e-22 6.0536e-41 7.044e-41 -4.7677555e-33 -2.5996395e-28
1.2488962e-32 4.9323e-41 -3.1061694e-26 1.4106138e-29 -6.2168764e-27 -8.787798e-35 -1.0988187e-25 1.2056628e-36
7.6339096e-29 4.8902577e-30 -6.626891e-28 3.46265e-28 -1.2373557e-20 -4.470529e-20 -1.0803271e-14 -1.772968e-22

conv.0.bias f4 [16]
00000000: 69a5 0080 f88b 0080 4c8e 0000 cb88 0000
00000010: 138d 0080 fca6 0000 d390 0080 718a 0000
00000020: ed97 0080 8990 0080 a09a 0080 878e 0080
00000030: 6ca3 0000 2789 0080 8a9c 0080 9e90 0000
-5.9338e-41 -5.0211e-41 5.1047e-41 4.9072e-41 -5.0608e-41 5.9903e-41 -5.1953e-41 4.9663e-41
-5.4501e-41 -5.185e-41 -5.5469e-41 -5.1129e-41 5.8625e-41 -4.9201e-41 -5.6156e-41 5.1879e-41

conv.1.weight f4 [16]
00000000: 9104 4c20 65c5 5613 feeb 101f 9ae1 1b1f
00000010: 5428 421f 4740 8320 1dd6 2027 d736 1210
00000020: a283 da1a ee06 6b15 8d9b 4725 de0e 9819
00000030: 31a8 1c18 d4e9 8519 b6f9 3022 1328 c626
1.7280983e-19 2.710792e-27 3.0688394e-20 3.300914e-20 4.1114457e-20 2.2234798e-19 2.2320532e-15 2.883567e-29
9.037535e-23 4.746334e-26 1.7313201e-16 1.5722436e-23 2.0247442e-24 1.384632e-23 2.3984644e-18 1.3749872e-15

conv.1.bias f4 [16]
00000000: 2971 6695 1708 f29a e472 9089 658e a298
00000010: fc14 e099 e0de 2884 7347 101b 2399 1900
00000020: 935c a19b d91d 0d05 0b3f bf25 1289 0080
00000030: 008a 0080 bc33 4705 ba0d d0a0 f7b0 018d
-4.6537398e-26 -1.00101924e-22 -3.477478e-33 -4.20198e-24 -2.3169533e-23 -1.9850644e-36 1.1934487e-22 2.350823e-39
-2.669504e-22 6.63527e-36 3.3175938e-16 -4.9172e-41 -4.9505e-41 9.366437e-36 -3.5245654e-19 -3.996421e-31

conv.1.running_mean f4 [16]
00000000: 21dc cd39 3f3b 8139 cdf3 13b4 9921 9b31
00000010: 55f9 35b7 79dc 032b acd3 0126 ef15 6ca9
00000020: d332 8e37 0533 5ab8 78e8 21b8 5c93 a3b4
00000030: 1251 44b0 f719 af36 eb31 72af 1562 ca2c
0.00039264656 0.0002464894 -1.3779136e-07 4.5149133e-09 -1.0846493e-05 4.6846516e-13 4.5042735e-16 -5.242155e-14
1.6951386e-05 -5.2022766e-05 -3.8601895e-05 -3.0468334e-07 -7.141959e-10 5.218429e-06 -2.2027506e-10 5.7520746e-12

conv.1.running_var f4 [16]
00000000: 6a64 5233 b345 1534 d698 4f29 9d28 fd22
00000010: f740 c12e 32b8 5e16 b6a0 f40c a8cb 6912
00000020: 6d6f 7f2f 15da 8030 fb19 bf30 d51d 2a29
00000030: 2fa8 0321 4b55 bb2d 3025 681e 1aa5 3e1a
4.898576e-08 1.3902063e-07 4.6095797e-14 6.861879e-18 8.788164e-11 1.7991139e-25 3.7690877e-31 7.377286e-28
2.3231701e-10 9.375208e-10 1.3904463e-09 3.7773458e-14 4.4607116e-19 2.1297316e-11 1.2289668e-20 3.9424447e-23

conv2.0.weight f4 [32, 16, 3, 3]
00000000: 2845 830a 5748 4e0c 5c15 3304 bd89 0080
00000010: 0c0f 0000 6ce1 3e80 c732 bc19 d1a9 1394
00000020: 009d 9215 47ae 0080 7f85 7d85 7e6e 1980
00000030: 29e4 6e99 9d66 1b93 3473 0615 4619 e913
00000040: 2801 c71e 5466 4d16 f97c 8a04 b2ae 1285
00000050: f263 ac0f c5bb 3016 054f 929a 9cfa 5419
00000060: 55c5 8c1a c09c d496 8124 d89c 7e3e 8f19
00000070: 0de2 2716 2e60 cc13 4821 0300 f9ec 380b
00000080: 3f24 1911 36db 8500 2758 5680 7882 b185
00000090: 3689 0000 96bc 4a00 ea89 0000 c189 0000
000000a0: ff88 0000 4789 0080 3089 0080 f888 0080
000000b0: 7894 880e 7690 b39f 7e25 2721 74f0 7620
000000c0: fea7 2e9b 75e7 0f1b d409 bd1d 96e0 ec14
000000d0: 9d72 0517 5216 0911 7b7b 009e 7401 689b
000000e0: baaf c49c 5417 209d d15d 791c 5022 8c1c
000000f0: 09fe 3498 1d79 2199 4620 4197 1db9 0718
00000100: 0f32 849c dec4 a31a 08a8 cd92 36fe 3611
00000110: 26fb ed12 5e87 e30f 6254 968e ed0e 1310
00000120: bc50 fd80 3387 0000 faf2 0c82 7eb3 c000
00000130: ef89 0080 f589 0000 5a9c 5b01 e753 3a82
00000140: 468b b60a 7711 e990 12e8 d28d a796 450c
00000150: 0df1 4722 5b2b 8e21 4988 c81d 5078 6e95
00000160: b132 8713 35df af8e d5e9 04a1 f82c 9b1f
00000170: 67ee 1519 883e d21e 9501 c218 91b4 1618
00000180: f111 d614 1018 d18f dc37 8115 602e 281d
00000190: 48a7 7417 dc4e 069e b5d2 ac94 9b98 6714
000001a0: a3e2 db93 6c60 728f ae9d 1418 a562 1c18
000001b0: 862d 5211 5647 8191 e702 a28c dcbd 169a
000001c0: b0a5 1a1a 4d80 121f 82f4 df13 2db4 f895
000001d0: 057f 061b 02ef d39f d110 841c 03e1 f619
000001e0: c5f5 031f b26b 309c 1be3 3f95 7a9a 8598
000001f0: 6ba6 a595 81e8 949a 4189 0000 fd88 0000
00000200: 4689 0000 b921 0f0f 8aba ae14 9139 d191
00000210: b5a6 6c88 cbaf 840a a8dd 898d 9df7 1217
00000220: a482 5e1a fa2a 1520 25ec eb15 2b9e e413
00000230: 4d1c 6397 73b6 a79a 41f1 fd1c 71fe ab1b
00000240: 5f74 2286 694b 5712 a5f8 8490 46f1 bf05
00000250: 7389 0080 8c69 9688 e589 0080 8489 0080
00000260: d657 0080 6833 2192 97fe 1895 e6c9 ec0c
00000270: 846c ff17 76b6 6914 13d2 f784 ad43 0187
00000280: 4c2f 3e0b e6ef 950e fd12 c300 8489 0000
00000290: 4089 0000 0f98 7a86 c088 0080 0ab1 0000
000002a0: 240d ba20 cd92 1a21 350f 1c1f 9788 1f00
000002b0: 3c2d 0480 b289 0000 6cae 248b eb14 178b
000002c0: 1b4d 1a87 a14a 6d0a 6f51 818f ab79 050e
000002d0: 8c85 7413 6f34 af0b 51ee 7700 dd89 0000
000002e0: 6089 0000 d589 0000 d46d 0080 3189 0080
000002f0: af9e 0000 c1c6 3d10 3b60 c38c 6bef 0f94
00000300: 03ac 0b8b aadb 6209 ebed 0b80 8d64 0300
00000310: de09 0080 4bb6 2581 8f79 8a95 1db3 de14
00000320: c349 eb16 b9cd 5f1e 69ec fa1d 7f34 f49a
00000330: b606 2820 305e 6d20 6062 841f 4f0b 5204
00000340: 6d11 2d00 7823 1603 bb07 3a01 5f89 0080
00000350: 0b8a 0080 ca88 0000 e989 0080 fa89 0080
00000360: d988 0080 d788 0080 089e f505 1fa4 6d80
00000370: 5c89 0080 032f 0080 e989 911b 9f60 d117
00000380: 2b45 5512 cd1f 219d be69 0f18 db1a 640a
00000390: 6e69 681f 23bc b41b 842d 2021 84bc 1d9b
000003a0: e1ff 5b1c e1ab 2c98 5398 9511 90a2 ed0e
000003b0: 7b0f 8610 b293 130f 8047 4e0e 4d27 fa87
000003c0: 145f 1988 2935 2e93 22e0 b316 3ba0 1e0a
000003d0: 84bc 0580 be89 0080 f227 4a89 7896 300f
000003e0: ae69 0100 ba88 0080 a006 0000 7007 0080
000003f0: 9884 b78a 8693 8b0b a62e 480f e19f 188c
1.2640855e-32 1.5891432e-31 2.1051157e-36 -4.9411e-41 5.398e-42 -5.774667e-39 1.9459253e-23 -7.455094e-27
5.921663e-26 -6.2519e-41 -1.1920522e-35 -2.335525e-39 -1.2350388e-23 -1.9614343e-27 2.7151964e-26 5.884239e-27
2.1070423e-20 1.6592057e-25 3.2558413e-36 -6.8969735e-36 1.6999007e-29 1.4276416e-25 -6.051185e-23 1.1010753e-23
5.822145e-23 -3.434937e-25 -1.4303117e-21 1.4811094e-23 1.3561482e-25 5.159168e-27 2.87446e-40 3.561539e-32
1.2080741e-28 1.2292759e-38 -7.929476e-39 -1.6692927e-35 4.9222e-41 6.863479e-39 4.9474e-41 4.9417e-41
4.9145e-41 -4.9246e-41 -4.9214e-41 -4.9135e-41 3.366956e-30 -7.604844e-20 5.663142e-19 2.091657e-19
-1.4447224e-22 1.190347e-22 5.0038045e-21 2.3918494e-26 4.311928e-25 1.0814272e-28 -6.801799e-21 -1.919106e-22
-1.3015616e-21 -2.1187884e-21 8.2508444e-22 9.273292e-22 -2.339271e-24 -8.3479635e-24 -6.24024e-25 1.75418e-24
-8.747967e-22 6.7733276e-23 -1.2978742e-27 1.4435603e-28 1.5018716e-27 2.243607e-29 -3.7059113e-30 2.9002137e-29
-2.3263343e-38 4.85e-41 -1.0355306e-37 1.7696805e-38 -4.9481e-41 4.949e-41 4.0336124e-38 -1.3689201e-37
1.7578351e-32 -9.1929204e-29 -1.2998118e-30 1.5221663e-31 2.709714e-18 9.63377e-19 5.3080475e-21 -4.8158627e-26
3.4128777e-27 -4.335577e-30 -4.5032814e-19 6.571945e-20 7.7512644e-24 2.2260477e-20 5.0149422e-24 1.9478208e-24
2.1615555e-26 -2.061826e-29 5.2190816e-26 2.225859e-21 7.905179e-25 -7.110209e-21 -1.7450671e-26 1.1692616e-26
-5.5506853e-27 -1.1950091e-29 1.920816e-24 2.021233e-24 1.6580107e-28 -2.0396576e-28 -2.49618e-31 -3.117264e-23
3.1980295e-23 3.102283e-20 5.6534218e-27 -1.0045067e-25 1.1125262e-22 -8.975738e-20 8.739374e-22 2.5526685e-23
2.7943625e-20 -5.837271e-22 -3.8751297e-26 -3.4535676e-24 -6.690553e-26 -6.1586996e-23 4.9237e-41 4.9142e-41
4.9244e-41 7.056939e-30 1.7643087e-26 -3.3009864e-28 -7.121463e-34 1.2777264e-32 -8.496639e-31 4.7487676e-25
4.6014055e-23 1.2635011e-19 9.5288314e-26 5.7711257e-27 -7.3383376e-25 -6.9364344e-23 1.6804498e-21 2.8454006e-22
-3.055431e-35 6.793499e-28 -5.244792e-29 1.8050184e-35 -4.9307e-41 -9.052611e-34 -4.9467e-41 -4.9331e-41
-3.151e-41 -5.0866005e-28 -3.089699e-26 3.648307e-31 1.6506382e-24 1.1799478e-26 -5.8262344e-36 -9.72477e-35
3.662825e-32 3.696235e-30 1.7914733e-38 4.9331e-41 4.9236e-41 -4.713149e-35 -4.9057e-41 6.351e-41
3.1518321e-19 5.237152e-19 3.3046864e-20 2.8959e-39 -3.83569e-40 4.9396e-41 -3.1716472e-32 -2.909728e-32
-1.1608332e-34 1.1425171e-32 -1.2751749e-29 1.6452097e-30 3.0862973e-27 6.748644e-32 1.1013916e-38 4.9456e-41
4.9281e-41 4.9445e-41 -3.9399e-41 -4.9215e-41 5.6925e-41 3.7426792e-29 -3.0102424e-31 -7.266872e-27
-2.6899833e-32 2.7307046e-33 -1.09554e-39 3.11577e-40 -3.54e-42 -3.0436503e-38 -5.592954e-26 2.2486919e-26
3.8012848e-25 1.1848064e-20 6.641889e-21 -1.01000847e-22 1.4232374e-19 2.0105845e-19 5.606692e-20 2.4690574e-36
4.138849e-39 4.4121754e-37 3.416835e-38 -4.928e-41 -4.952e-41 4.907e-41 -4.9473e-41 -4.9497e-41
-4.9092e-41 -4.9089e-41 2.3097741e-35 -1.0068945e-38 -4.9275e-41 -1.6865e-41 2.407736e-22 1.3530699e-24
6.7296205e-28 -2.1324613e-21 1.8535703e-24 1.0982852e-32 4.921512e-20 2.9900083e-22 5.427035e-19 -1.3047648e-22
7.2791737e-22 -2.2317256e-24 2.3601932e-28 5.8581553e-30 5.287753e-29 7.276105e-30 2.5425886e-30 -3.7638918e-34
-4.6153527e-34 -2.1988098e-27 2.9060457e-25 7.637559e-33 -5.26804e-40 -4.9413e-41 -2.4333648e-33 8.706449e-30
1.29746e-40 -4.9048e-41 2.377e-42 -2.668e-42 -1.7672135e-32 5.376282e-32 9.8697455e-30 -1.1757766e-31

conv2.0.bias f4 [32]
00000000: c39d 0080 be9a 0080 4ed3 0200 0da9 0000
00000010: 1b8a 0000 c588 0000 0c9e 0000 078b 0080
00000020: dd90 0000 19a3 0080 60a8 0080 26ac 0080
00000030: 7196 0000 40aa 0000 d088 0000 aea4 0080
00000040: d388 0080 7c9f 0080 f899 0000 0b8b 0080
00000050: 0aa1 0080 c39e 0100 b0a4 0080 ee9c 0080
00000060: e388 0080 b695 0080 00a8 0080 57a1 0080
00000070: 186a 0080 699f 0080 0bac 0000 e888 0000
-5.6594e-41 -5.5511e-41 2.59473e-40 6.0644e-41 4.9543e-41 4.9064e-41 5.6697e-41 -4.9874e-41
5.1967e-41 -5.8508e-41 -6.0402e-41 -6.1755e-41 5.3968e-41 6.1074e-41 4.9079e-41 -5.9076e-41
-4.9083e-41 -5.7212e-41 5.5234e-41 -4.9879e-41 -5.777e-41 1.48788e-40 -5.9079e-41 -5.6296e-41
-4.9106e-41 -5.3706e-41 -6.0267e-41 -5.7878e-41 -3.8059e-41 -5.7186e-41 6.1717e-41 4.9113e-41

conv2.1.weight f4 [32]
00000000: b250 8d1e bca8 2711 ec70 1e03 abee 0180
00000010: 147a 0480 6258 0a83 985b b210 b089 0000
00000020: e189 0000 d388 0000 a7c7 1203 ac81 e715
00000030: 331b 0100 1668 c008 6de2 891f 8b89 0000
00000040: 3289 0000 514e 0000 0d89 0000 1a3e a584
00000050: 0889 0000 a9e6 2f86 0e8a 0000 608c 0b00
00000060: 3089 0000 c07c b687 8d89 0000 0ef8 0280
00000070: 6489 0000 1c8a 0000 ea1f 5f0c 7f89 0000
1.496233e-20 1.3225972e-28 4.6561655e-37 -1.77453e-40 -4.11135e-40 -4.0656014e-37 7.0349743e-29 4.9393e-41
4.9462e-41 4.9083e-41 4.3134733e-37 9.3504743e-26 1.01593e-40 1.158005e-33 5.839635e-20 4.9341e-41
4.9216e-41 2.8095e-41 4.9165e-41 -3.8848345e-36 4.9158e-41 -3.3083304e-35 4.9525e-41 1.060548e-39
4.9214e-41 -2.7457638e-34 4.9344e-41 -2.72656e-40 4.9286e-41 4.9544e-41 1.7188899e-31 4.9324e-41

conv2.1.bias f4 [32]
00000000: b989 0080 cc89 0080 d189 0000 b389 0080
00000010: 018a 0080 fc89 0080 d889 0000 bb89 0000
00000020: a789 0080 4889 0080 6d89 0080 8789 0000
00000030: b189 0000 6189 0000 c788 0000 bf88 0080
00000040: ef89 0080 f688 0080 0489 0000 9d4b 0500
00000050: 4b89 0000 5c89 0000 0189 0000 0c8a 0080
00000060: 1689 0080 f889 0000 a089 0000 7689 0080
00000070: 088a 0000 9289 0000 f009 240d d188 0000
-4.9406e-41 -4.9432e-41 4.9439e-41 -4.9397e-41 -4.9506e-41 -4.95e-41 4.9449e-41 4.9408e-41
-4.938e-41 -4.9247e-41 -4.9299e-41 4.9336e-41 4.9394e-41 4.9282e-41 4.9066e-41 -4.9055e-41
-4.9481e-41 -4.9132e-41 4.9152e-41 4.86302e-40 4.9251e-41 4.9275e-41 4.9148e-41 -4.9522e-41
-4.9177e-41 4.9494e-41 4.937e-41 -4.9312e-41 4.9516e-41 4.9351e-41 5.0548364e-31 4.908e-41

conv2.1.running_mean f4 [32]
00000000: 98b4 8287 3054 0200 9479 9314 850b 3296
00000010: acac 8090 e732 7c8f 9e32 0100 1fd0 9191
00000020: a1b9 ab84 3fd4 8205 db33 0200 3aa5 e817
00000030: 479c f20c 3a5d 0200 835c ba11 6123 a306
00000040: 73cf 0e12 c00f bb90 6256 2716 c5d7 9e95
00000050: 79e9 a296 771b a110 1cce 300e dc64 f486
00000060: 0a27 0014 35b2 0815 5a34 c20e d1bb 3412
00000070: 5d17 0f04 ea9d fb01 78c2 fb15 9241 1c0b
-1.966637e-34 2.13872e-40 1.4891161e-26 -1.438236e-25 -5.075314e-29 -1.2434363e-29 1.09994e-40 -2.300523e-28
-4.037238e-36 1.2303108e-35 2.02273e-40 1.5034358e-24 3.738006e-31 2.17114e-40 2.940264e-28 6.136577e-35
4.5063e-28 -7.378276e-29 1.351741e-25 -6.4156116e-26 -2.6319854e-25 6.354562e-29 2.1792913e-30 -9.19308e-35
6.470048e-27 2.7605562e-26 4.7875105e-30 5.7029487e-28 1.6820297e-36 9.2429434e-38 1.0168491e-25 3.0093837e-32

conv2.1.running_var f4 [32]
00000000: 0400 0000 0400 0000 0400 0000 0400 0000
00000010: 0400 0000 0400 0000 0400 0000 0400 0000
00000020: 0400 0000 0400 0000 0400 0000 0400 0000
00000030: 0400 0000 0400 0000 0400 0000 0400 0000
00000040: 0400 0000 0400 0000 0400 0000 0400 0000
00000050: 0400 0000 0400 0000 0400 0000 0400 0000
00000060: 0400 0000 0400 0000 0400 0000 0400 0000
00000070: 0400 0000 0400 0000 0400 0000 0400 0000
6e-45 6e-45 6e-45 6e-45 6e-45 6e-45 6e-45 6e-45
6e-45 6e-45 6e-45 6e-45 6e-45 6e-45 6e-45 6e-45
6e-45 6e-45 6e-45 6e-45 6e-45 6e-45 6e-45 6e-45
6e-45 6e-45 6e-45 6e-45 6e-45 6e-45 6e-45 6e-45

conv3.0.weight f4 [64, 32, 3, 3]
00000000: dd92 2185 1188 9280 1d66 0d00 b489 0000
00000010: bd88 0000 7789 0000 eb89 0080 8934 0000
00000020: 6189 0000 7b87 0080 6989 0000 be89 0000
00000030: fc88 0000 c189 0000 048a 0000 4a89 0080
00000040: 8b89 0000 e688 0000 6689 0080 7389 0000
00000050: 0c8a 0000 3489 0080 bd89 0000 5489 0080
00000060: ee89 0000 318a 0000 cd88 0000 fd88 0000
00000070: 7b9b 0000 5d89 0080 ea89 0000 b389 0080
00000080: 6889 0000 e788 0080 7e89 0000 1889 0000
00000090: 7389 0000 fb89 0000 ed89 0000 b389 0080
000000a0: 6089 0080 4389 0080 7789 0080 3d89 0000
000000b0: 84ab 0000 0b92 0080 7e89 0080 e388 0000
000000c0: d689 0080 f988 0000 f388 0080 c873 3c09
000000d0: e227 0700 2f8a 0000 53e2 9b90 2ee5 e310
000000e0: 6213 1586 fa42 dc85 11bc 6d80 be34 0a05
000000f0: 8392 7b04 9789 0000 220b 1183 f30c 9a05
00000100: 6830 fa85 89c5 a684 1089 0080 f988 0000
00000110: cf88 0080 fa93 d407 ea3e 9f84 1753 4884
00000120: 7289 0080 e388 0000 be88 0000 ab89 0080
00000130: cb89 0080 d088 0080 0589 0080 f888 0080
00000140: 5089 0000 df88 0080 d789 0080 f588 0080
00000150: 1989 0000 dd89 0000 e788 0080 8989 0080
00000160: b489 0080 b089 0080 4606 0080 9e89 0080
00000170: 8889 0080 c488 0000 2d89 0000 9d89 0080
00000180: ef88 0080 c189 0080 9815 0d00 5689 0000
00000190: 2089 0000 bd88 0000 0589 0000 098a 0080
000001a0: 008a 0080 4889 0080 ce89 0080 2498 0000
000001b0: 1c41 bc88 b47f 0000 2ba6 9586 5216 9d90
000001c0: f909 818d 70c5 c704 3453 0b98 4fe4 4c95
000001d0: 51f7 6211 bf03 ed00 2060 de85 59d1 5782
000001e0: 4be2 968b 57d0 ce07 d9da bd04 208f 0080
000001f0: 157f d883 387a 9811 90e4 a40d 1410 800d
00000200: 966a c80e cb89 0000 4789 0080 4165 c780
00000210: 5329 318d c5db 6601 3389 0080 f4a1 0000
00000220: 0f89 0080 a889 0000 038a 0000 8689 0080
00000230: a6a8 0000 cc88 0000 af89 0080 d188 0080
00000240: 5c89 0000 ea89 0080 1ca6 0000 8789 0080
00000250: df88 0080 a689 0000 be8c 0080 a4ae 0080
00000260: ad89 0000 5c89 0080 0289 0000 a389 0080
00000270: cd88 0000 3c89 0000 3989 0080 1989 0080
00000280: 1d89 0000 bf88 0000 0a96 0000 5899 0000
00000290: bc88 0080 155d 5900 278e c083 e889 0000
000002a0: ba88 0080 7827 0000 3ea1 0080 4289 0000
000002b0: c789 0080 fb89 0080 5e89 0080 e789 0000
000002c0: 2a89 0000 7a89 0080 df89 0080 3989 0080
000002d0: 5096 a713 8235 700f dc71 fd0a 3489 0000
000002e0: 1e99 0000 1389 0080 e689 0000 9389 0080
000002f0: 7889 0000 6489 0000 5e95 0000 f70d 0000
00000300: ef10 be8b df2d ea8a c77c 8605 fa88 0080
00000310: eb89 0000 2e89 0080 5e89 0000 b295 0080
00000320: 6289 0080 9489 0080 d789 0080 018a 0080
00000330: ea88 0000 cb88 0000 b389 0080 ca89 0000
00000340: 4b37 2a00 c788 0000 cb6e 0000 65b9 1880
00000350: 3f39 0000 0aad 0d81 a1bd 9b0c e8d4 8304
00000360: 018a 0080 ce89 0080 8e89 0000 ea88 0000
00000370: fbab 0000 c389 0000 038a 0080 9689 0080
00000380: a289 0000 ce89 0080 9c89 0000 e189 0000
00000390: a626 0400 4174 1880 c688 0080 bb89 0080
000003a0: 2789 0000 f688 0000 f589 0080 8a89 0000
000003b0: ca89 0000 e289 0080 cd88 0000 0989 0000
000003c0: df89 0000 e588 0000 e889 0080 5389 0080
000003d0: 2289 0080 5989 0080 138a 0000 c289 0000
000003e0: 0c89 0000 c489 0000 cf88 0000 4189 0000
000003f0: 1289 0000 ed88 0000 a589 0080 dbe1 5e00
-7.597158e-36 -1.3456794e-38 1.230493e-39 4.9399e-41 4.9052e-41 4.9313e-41 -4.9476e-41 1.8846e-41
4.9282e-41 -4.8601e-41 4.9293e-41 4.9413e-41 4.9141e-41 4.9417e-41 4.951e-41 -4.925e-41
4.9341e-41 4.911e-41 -4.9289e-41 4.9307e-41 4.9522e-41 -4.9219e-41 4.9411e-41 -4.9264e-41
4.948e-41 4.9574e-41 4.9075e-41 4.9142e-41 5.5776e-41 -4.9277e-41 4.9474e-41 -4.9397e-41
4.9292e-41 -4.9111e-41 4.9323e-41 4.918e-41 4.9307e-41 4.9498e-41 4.9478e-41 -4.9397e-41
-4.9281e-41 -4.924e-41 -4.9313e-41 4.9232e-41 6.1528e-41 -5.239e-41 -4.9323e-41 4.9106e-41
-4.9446e-41 4.9137e-41 -4.9128e-41 2.2684117e-33 6.57156e-40 4.9571e-41 -6.148543e-29 8.988882e-29
-2.8038026e-35 -2.0713304e-35 -1.0077535e-38 6.498416e-36 2.9572183e-36 4.9358e-41 -4.262445e-37 1.4486847e-35
-2.3527669e-35 -3.920782e-36 -4.9169e-41 4.9137e-41 -4.9078e-41 3.1985188e-34 -3.7438498e-36 -2.354804e-36
-4.9306e-41 4.9106e-41 4.9054e-41 -4.9386e-41 -4.9431e-41 -4.9079e-41 -4.9153e-41 -4.9135e-41
4.9258e-41 -4.91e-41 -4.9448e-41 -4.9131e-41 4.9181e-41 4.9456e-41 -4.9111e-41 -4.9338e-41
-4.9399e-41 -4.9393e-41 -2.25e-42 -4.9368e-41 -4.9337e-41 4.9062e-41 4.921e-41 -4.9366e-41
-4.9123e-41 -4.9417e-41 1.201608e-39 4.9267e-41 4.9191e-41 4.9052e-41 4.9153e-41 -4.9518e-41
-4.9505e-41 -4.9247e-41 -4.9435e-41 5.4578e-41 -1.1330146e-33 4.5811e-41 -5.629173e-35 -6.195997e-29
-7.95264e-31 4.6965993e-36 -1.8007336e-24 -4.1377576e-26 1.7904467e-28 2.1766356e-38 -2.091209e-35 -1.5855785e-37
-5.8118386e-32 3.1117886e-34 4.4634666e-36 -5.1344e-41 -1.2724516e-36 2.4056695e-28 1.0162305e-30 7.89248e-31
4.9406445e-30 4.9431e-41 -4.9246e-41 -1.8311587e-38 -5.459208e-31 4.2402005e-38 -4.9218e-41 5.8098e-41
-4.9167e-41 4.9382e-41 4.9509e-41 -4.9334e-41 6.05e-41 4.9073e-41 -4.9392e-41 -4.908e-41
4.9275e-41 -4.9474e-41 5.9589e-41 -4.9336e-41 -4.91e-41 4.9379e-41 -5.0489e-41 -6.2649e-41
4.9389e-41 -4.9275e-41 4.9149e-41 -4.9375e-41 4.9075e-41 4.923e-41 -4.9226e-41 -4.9181e-41
4.9187e-41 4.9055e-41 5.3824e-41 5.501e-41 -4.9051e-41 8.20675e-39 -1.1317382e-36 4.9471e-41
-4.9048e-41 1.4159e-41 -5.7843e-41 4.9239e-41 -4.9425e-41 -4.9498e-41 -4.9278e-41 4.947e-41
4.9205e-41 -4.9317e-41 -4.9459e-41 -4.9226e-41 4.2304946e-27 1.1843219e-29 2.4405843e-32 4.9219e-41
5.4928e-41 -4.9173e-41 4.9469e-41 -4.9352e-41 4.9314e-41 4.9286e-41 5.3583e-41 5.01e-42
-7.3210817e-32 -2.2550635e-32 1.2647135e-35 -4.9138e-41 4.9476e-41 -4.9211e-41 4.9278e-41 -5.37e-41
-4.9284e-41 -4.9354e-41 -4.9448e-41 -4.9506e-41 4.9116e-41 4.9072e-41 -4.9397e-41 4.943e-41
3.876926e-39 4.9066e-41 3.9745e-41 -2.270559e-39 2.0536e-41 -2.602176e-38 2.399566e-31 3.0993476e-36
-4.9506e-41 -4.9435e-41 4.9345e-41 4.9116e-41 6.1695e-41 4.942e-41 -4.9509e-41 -4.9357e-41
4.9373e-41 -4.9435e-41 4.9365e-41 4.9462e-41 3.81206e-40 -2.245756e-39 -4.9065e-41 -4.9408e-41
4.9201e-41 4.9132e-41 -4.949e-41 4.934e-41 4.943e-41 -4.9463e-41 4.9075e-41 4.9159e-41
4.9459e-41 4.9109e-41 -4.9471e-41 -4.9263e-41 -4.9194e-41 -4.9271e-41 4.9532e-41 4.9418e-41
4.9163e-41 4.9421e-41 4.9078e-41 4.9237e-41 4.9172e-41 4.912e-41 -4.9378e-41 8.713558e-39

conv3.0.bias f4 [64]
00000000: ca91 0000 dda8 0000 1ba7 0000 5d90 0080
00000010: d388 0000 d788 0080 e088 0080 3589 0000
00000020: f896 0000 cc88 0080 e59b 0180 cc88 0080
00000030: a69a 0080 f988 0000 c6f4 0180 6044 0080
00000040: 259b 0000 7d95 0080 1d89 0000 e295 0000
00000050: a989 0000 d58f 0080 75ac 0000 bea6 0080
00000060: 5c8d 0000 7191 0000 66a2 0080 e588 0080
00000070: 6ba4 0000 9597 0000 f9a4 0080 ea98 0080
00000080: 858f 0080 5789 0000 6891 0080 5490 0000
00000090: 13a2 0080 fb8a 0000 2b96 0080 3496 0000
000000a0: c58a 0080 138c 0080 0eac 0080 b8ad 0080
000000b0: ec99 0080 c19d 0080 298e 0080 cd88 0080
000000c0: be9a 0080 5393 0080 1996 0000 5796 0000
000000d0: 1775 0100 56a5 0080 2d98 0000 5d92 0080
000000e0: 5489 0080 1eab 0000 2b89 0080 2aad 0080
000000f0: f7a1 0000 198d 0080 ad8f 0000 df8f 0480
5.2299e-41 6.0577e-41 5.9946e-41 -5.1788e-41 4.9083e-41 -4.9089e-41 -4.9101e-41 4.922e-41
5.4157e-41 -4.9073e-41 -1.4776e-40 -4.9073e-41 -5.5477e-41 4.9137e-41 -1.79644e-40 -2.4528e-41
5.5655e-41 -5.3626e-41 4.9187e-41 5.3768e-41 4.9383e-41 -5.1597e-41 6.1866e-41 -5.9816e-41
5.071e-41 5.2175e-41 -5.8258e-41 -4.9109e-41 5.8982e-41 5.4377e-41 -5.9181e-41 -5.4855e-41
-5.1485e-41 4.9268e-41 -5.2162e-41 5.1775e-41 -5.8141e-41 4.9857e-41 -5.387e-41 5.3883e-41
-4.9781e-41 -5.0249e-41 -6.1722e-41 -6.2319e-41 -5.5217e-41 -5.6591e-41 -5.0997e-41 -4.9075e-41
-5.5511e-41 -5.285e-41 5.3845e-41 5.3932e-41 1.3384e-40 -5.9311e-41 5.459e-41 -5.2505e-41
-4.9264e-41 6.1385e-41 -4.9207e-41 -6.212e-41 5.8102e-41 -5.0616e-41 5.1541e-41 -4.18953e-40

conv3.1.weight f4 [64]
00000000: d088 0000 f775 0000 0e94 7a88 fa88 0000
00000010: c688 0000 c888 0000 1e8a 0000 0a8a 0000
00000020: 5a89 0000 ba88 0000 d989 0000 058a 0000
00000030: 5a51 fa09 8df6 b787 e088 0000 2fa8 a186
00000040: ca89 0000 0189 0000 295b 0000 4c7a 4d17
00000050: 3889 0000 cd89 0000 624d 0000 7389 0000
00000060: c389 0000 7d89 0000 e188 0000 741a 0080
00000070: 7689 0000 a63a df00 3089 0000 4998 7000
00000080: c188 0000 aa89 0000 f488 0000 9fce e90e
00000090: af89 0000 6789 0000 f788 0000 5e89 0000
000000a0: 1e9f 7d13 6287 0880 038a 0000 d088 0000
000000b0: 5689 0000 9e89 0000 bb65 0000 7389 0000
000000c0: ac89 0000 0789 0000 f689 0000 2f89 0000
000000d0: 4489 0000 e989 0000 c288 0000 ee89 0000
000000e0: b775 7186 5a89 0000 c788 0000 7089 0000
000000f0: cf44 2b16 1089 0000 6689 0000 d289 0000
4.9079e-41 4.2318e-41 -7.5405676e-34 4.9138e-41 4.9065e-41 4.9068e-41 4.9547e-41 4.9519e-41
4.9272e-41 4.9048e-41 4.945e-41 4.9512e-41 6.0261813e-33 -2.767969e-34 4.9101e-41 -6.080859e-35
4.943e-41 4.9148e-41 3.2702e-41 6.6393433e-25 4.9225e-41 4.9434e-41 2.776e-41 4.9307e-41
4.942e-41 4.9322e-41 4.9103e-41 -9.49e-42 4.9312e-41 2.0500355e-38 4.9214e-41 1.0340205e-38
4.9058e-41 4.9385e-41 4.913e-41 5.7637904e-30 4.9392e-41 4.929e-41 4.9134e-41 4.9278e-41
3.201154e-27 -7.8325e-40 4.9509e-41 4.9079e-41 4.9267e-41 4.9368e-41 3.6494e-41 4.9307e-41
4.9387e-41 4.9156e-41 4.9491e-41 4.9212e-41 4.9242e-41 4.9473e-41 4.906e-41 4.948e-41
-4.5413545e-35 4.9272e-41 4.9066e-41 4.9303e-41 1.3834982e-25 4.9169e-41 4.9289e-41 4.944e-41

conv3.1.bias f4 [64]
00000000: ec89 0000 c388 0000 c388 0080 e088 0000
00000010: 088a 0000 6589 0080 c989 0000 c989 0000
00000020: ab89 0080 6889 0000 c288 0080 b792 0000
00000030: 1f89 0000 d0c0 0100 3d89 0000 068a 0000
00000040: 7089 0080 9389 0000 ca89 0080 be89 0080
00000050: d688 0080 1789 0000 d289 0080 5589 0080
00000060: 9889 0000 a989 0080 178a 0080 fc88 0000
00000070: d488 0000 ea88 0000 de88 0000 0889 0080
00000080: bf89 0000 2d89 0080 ec88 0080 f889 0080
00000090: 6189 0000 7d89 0000 6489 0080 fc88 0080
000000a0: a489 0000 c288 0080 188a 0000 3289 0080
000000b0: c088 0080 3194 0000 bf9d 0080 3698 0080
000000c0: c788 0000 e688 0000 e489 0000 c489 0000
000000d0: 8e89 0080 f789 0080 3c89 0080 f689 0000
000000e0: 2b89 0000 6689 0000 ef89 0000 9089 0080
000000f0: 7b89 0080 5b89 0000 ec89 0080 8489 0000
4.9477e-41 4.9061e-41 -4.9061e-41 4.9101e-41 4.9516e-41 -4.9288e-41 4.9428e-41 4.9428e-41
-4.9386e-41 4.9292e-41 -4.906e-41 5.2631e-41 4.919e-41 1.61004e-40 4.9232e-41 4.9513e-41
-4.9303e-41 4.9352e-41 -4.943e-41 -4.9413e-41 -4.9087e-41 4.9179e-41 -4.944e-41 -4.9265e-41
4.936e-41 -4.9383e-41 -4.9537e-41 4.9141e-41 4.9085e-41 4.9116e-41 4.9099e-41 -4.9158e-41
4.9414e-41 -4.921e-41 -4.9118e-41 -4.9494e-41 4.9282e-41 4.9322e-41 -4.9286e-41 -4.9141e-41
4.9376e-41 -4.906e-41 4.9539e-41 -4.9216e-41 -4.9057e-41 5.3161e-41 -5.6589e-41 -5.4603e-41
4.9066e-41 4.911e-41 4.9466e-41 4.9421e-41 -4.9345e-41 -4.9492e-41 -4.923e-41 4.9491e-41
4.9207e-41 4.9289e-41 4.9481e-41 -4.9348e-41 -4.9319e-41 4.9274e-41 -4.9477e-41 4.9331e-41

conv3.1.running_mean f4 [64]
00000000: c391 0000 e2a8 0000 20a7 0000 5b90 0080
00000010: da88 0000 da88 0080 e488 0080 3589 0000
00000020: fe96 0000 c788 0080 f74b 0080 c788 0080
00000030: a19a 0080 0289 0000 764b 0080 7199 0080
00000040: 239b 0000 8295 0080 2089 0000 e695 0000
00000050: a389 0000 cf8f 0080 7aac 0000 c6a6 0080
00000060: 628d 0000 7291 0000 66a2 0080 e588 0080
00000070: 6ea4 0000 9e97 0000 f1a4 0080 f298 0080
00000080: 7f8f 0080 5389 0000 6891 0080 5a90 0000
00000090: 0da2 0080 f78a 0000 2396 0080 2d96 0000
000000a0: c58a 0080 188c 0080 16ac 0080 baad 0080
000000b0: ec99 0080 ca9d 0080 218e 0080 d088 0080
000000c0: be9a 0080 5393 0080 1996 0000 5e96 0000
000000d0: 0a02 0000 5ea5 0080 3498 0000 5992 0080
000000e0: 5c89 0080 1dab 0000 3489 0080 2ead 0080
000000f0: f8a1 0000 138d 0080 b08f 0000 3c12 0080
5.229e-41 6.0584e-41 5.9953e-41 -5.1785e-41 4.9093e-41 -4.9093e-41 -4.9107e-41 4.922e-41
5.4166e-41 -4.9066e-41 -2.7251e-41 -4.9066e-41 -5.547e-41 4.9149e-41 -2.707e-41 -5.5044e-41
5.5653e-41 -5.3633e-41 4.9191e-41 5.3773e-41 4.9375e-41 -5.1589e-41 6.1873e-41 -5.9827e-41
5.0719e-41 5.2176e-41 -5.8258e-41 -4.9109e-41 5.8986e-41 5.439e-41 -5.917e-41 -5.4866e-41
-5.1477e-41 4.9263e-41 -5.2162e-41 5.1784e-41 -5.8133e-41 4.9851e-41 -5.3859e-41 5.3873e-41
-4.9781e-41 -5.0256e-41 -6.1733e-41 -6.2321e-41 -5.5217e-41 -5.6604e-41 -5.0986e-41 -4.9079e-41
-5.5511e-41 -5.285e-41 5.3845e-41 5.3942e-41 7.31e-43 -5.9323e-41 5.46e-41 -5.25e-41
-4.9275e-41 6.1384e-41 -4.9219e-41 -6.2125e-41 5.8103e-41 -5.0608e-41 5.1545e-41 -6.541e-42

conv3.1.running_var f4 [64]
00000000: 0400 0000 0400 0000 0400 0000 0400 0000
00000010: 0400 0000 0400 0000 0400 0000 0400 0000
00000020: 0400 0000 0400 0000 0400 0000 0400 0000
00000030: 0400 0000 0400 0000 0400 0000 0400 0000
00000040: 0400 0000 0400 0000 0400 0000 0400 0000
00000050: 0400 0000 0400 0000 0400 0000 0400 0000
00000060: 0400 0000 0400 0000 0400 0000 0400 0000
00000070: 0400 0000 0400 0000 0400 0000 0400 0000
00000080: 0400 0000 0400 0000 0400 0000 0400 0000
00000090: 0400 0000 0400 0000 0400 0000 0400 0000
000000a0: 0400 0000 0400 0000 0400 0000 0400 0000
000000b0: 0400 0000 0400 0000 0400 0000 0400 0000
000000c0: 0400 0000 0400 0000 0400 0000 0400 0000
000000d0: 0400 0000 0400 0000 0400 0000 0400 0000
000000e0: 0400 0000 0400 0000 0400 0000 0400 0000
000000f0: 0400 0000 0400 0000 0400 0000 0400 0000
6e-45 6e-45 6e-45 6e-45 6e-45 6e-45 6e-45 6e-45
6e-45 6e-45 6e-45 6e-45 6e-45 6e-45 6e-45 6e-45
6e-45 6e-45 6e-45 6e-45 6e-45 6e-45 6e-45 6e-45
6e-45 6e-45 6e-45 6e-45 6e-45 6e-45 6e-45 6e-45
6e-45 6e-45 6e-45 6e-45 6e-45 6e-45 6e-45 6e-45
6e-45 6e-45 6e-45 6e-45 6e-45 6e-45 6e-45 6e-45
6e-45 6e-45 6e-45 6e-45 6e-45 6e-45 6e-45 6e-45
6e-45 6e-45 6e-45 6e-45 6e-45 6e-45 6e-45 6e-45

conv4.0.weight f4 [128, 64, 3, 3]
00000000: d889 0080 9c89 0000 cf88 0080 8389 0080
00000010: 7789 0000 3b89 0080 dd89 0080 b18c 0080
00000020: ed89 0000 5b89 0080 cd89 0080 3c89 0080
00000030: ff89 0000 c189 0080 3789 0080 0d89 0000
00000040: e389 0000 ea88 0080 2789 0080 5e89 0000
00000050: e688 0080 bd88 0000 078a 0000 2989 0000
00000060: edab 0000 1189 0080 d489 0080 5889 0080
00000070: cd88 0000 7e89 0000 448f 0080 2189 0000
00000080: d189 0000 d789 0080 6589 0080 0689 0000
00000090: 560e d204 4b7f 0300 eefa 6300 6d89 0080
000000a0: ef88 0080 9b89 0080 d689 0080 1889 0080
000000b0: 0f89 0000 3c89 0000 8f89 0080 8289 0080
000000c0: f289 0000 8789 0080 bf88 0000 b189 0080
000000d0: 0c8a 0080 8589 0080 048a 0000 bd89 0080
000000e0: 018a 0080 f088 0000 5189 0000 f689 0000
000000f0: c589 0080 ce88 0080 5389 0000 5a89 0000
00000100: 018a 0080 e088 0080 b689 0080 9b89 0080
00000110: 9289 0080 2e89 0000 c089 0080 d988 0000
00000120: e189 0000 3489 0080 0489 0000 fe89 0080
00000130: e189 0080 ef88 0000 3267 0080 9382 0080
00000140: ae89 0000 fa89 0080 ad8f 0080 f788 0080
00000150: 2089 0000 699e 0080 fe88 0080 d588 0000
00000160: 6897 0080 d888 0000 6689 0000 bd90 0000
00000170: 0089 0080 f688 0080 bf89 0000 4189 0000
00000180: db89 0000 6389 0000 158a 0000 1289 0080
00000190: d689 0000 b289 0000 ec88 0080 7c89 0000
000001a0: 3089 0080 e788 0000 fa89 0080 9c89 0000
000001b0: 4c89 0080 758a 0280 a357 0080 e688 0080
000001c0: b689 0000 cf89 0080 f789 0000 3289 0000
000001d0: 068a 0000 6389 0080 d388 0000 a889 0080
000001e0: 8889 0000 9289 0080 8889 0080 0289 0080
000001f0: c288 0000 4289 0080 7389 0080 8c89 0080
00000200: 3b89 0000 232a 0000 038a 0000 8789 0000
00000210: c588 0080 3a89 0000 6089 0000 2489 0000
00000220: 1889 0080 ae89 0000 0a89 0080 b389 0080
00000230: 8989 0080 f388 0080 b989 0080 d289 0000
00000240: 9289 0080 2089 0080 e789 0000 f088 0000
00000250: 8789 0080 d788 0080 f188 0080 1264 0000
00000260: ee88 0000 ec89 0080 7889 0080 6889 0080
00000270: ca88 0000 bc88 0080 8b89 0080 f789 0000
00000280: cd88 0080 d189 0080 0e89 0080 d789 0000
00000290: 8f89 0080 0489 0000 f388 0080 72ab 3b80
000002a0: fb88 0000 cf88 0080 bf88 0080 a389 0080
000002b0: c988 0080 3e89 0000 ae89 0000 0e89 0000
000002c0: 4889 0080 8c89 0080 2889 0080 d889 0080
000002d0: dc89 0080 f789 0080 6189 0000 bd88 0000
000002e0: 6c89 0000 4b89 0000 c489 0000 c788 0080
000002f0: 1c89 0000 0689 0080 8989 0080 0e89 0000
00000300: 088a 0080 a889 0080 9389 0080 3889 0000
00000310: 5589 0080 1089 0000 d388 0000 c088 0080
00000320: 5089 0000 c963 0000 797d 2507 b860 0080
00000330: 3050 0000 4d0e a107 190c 558f 8c89 0000
00000340: 3299 0080 d890 0080 9889 0000 8f89 0000
00000350: 7589 0000 148a 0000 3d98 0080 6189 0000
00000360: 1326 b385 6c89 0080 e689 0000 c489 0000
00000370: cc88 0080 7889 0080 f688 0000 f888 0000
00000380: 7689 0000 4089 0080 fb78 ab0d 9021 0d0a
00000390: 76d6 2285 448f 0288 b189 0080 f588 0000
000003a0: 0b89 0080 ff88 0000 6989 0000 c489 0080
000003b0: df88 0000 3b89 0080 1d89 0080 1c89 0080
000003c0: 9289 0080 c789 0080 a289 0000 d288 0080
000003d0: e289 0080 ff89 0000 af89 0000 0a8a 0000
000003e0: 0c89 0080 0089 0080 5a89 0080 2e89 0000
000003f0: e088 0000 4289 0000 5389 0080 d7a1 0000
-4.9449e-41 4.9365e-41 -4.9078e-41 -4.933e-41 4.9313e-41 -4.9229e-41 -4.9456e-41 -5.047e-41
4.9478e-41 -4.9274e-41 -4.9434e-41 -4.923e-41 4.9504e-41 -4.9417e-41 -4.9223e-41 4.9165e-41
4.9464e-41 -4.9116e-41 -4.9201e-41 4.9278e-41 -4.911e-41 4.9052e-41 4.9515e-41 4.9204e-41
6.1675e-41 -4.917e-41 -4.9443e-41 -4.927e-41 4.9075e-41 4.9323e-41 -5.1394e-41 4.9193e-41
4.9439e-41 -4.9448e-41 -4.9288e-41 4.9155e-41 4.938393e-36 3.2117e-40 9.181731e-39 -4.9299e-41
-4.9123e-41 -4.9364e-41 -4.9446e-41 -4.918e-41 4.9167e-41 4.923e-41 -4.9347e-41 -4.9329e-41
4.9485e-41 -4.9336e-41 4.9055e-41 -4.9394e-41 -4.9522e-41 -4.9333e-41 4.951e-41 -4.9411e-41
-4.9506e-41 4.9124e-41 4.926e-41 4.9491e-41 -4.9422e-41 -4.9076e-41 4.9263e-41 4.9272e-41
-4.9506e-41 -4.9101e-41 -4.9401e-41 -4.9364e-41 -4.9351e-41 4.9211e-41 -4.9415e-41 4.9092e-41
4.9462e-41 -4.9219e-41 4.9152e-41 -4.9502e-41 -4.9462e-41 4.9123e-41 -3.702e-41 -4.6841e-41
4.939e-41 -4.9497e-41 -5.1541e-41 -4.9134e-41 4.9191e-41 -5.6827e-41 -4.9144e-41 4.9086e-41
-5.4314e-41 4.909e-41 4.9289e-41 5.1922e-41 -4.9146e-41 -4.9132e-41 4.9414e-41 4.9237e-41
4.9453e-41 4.9285e-41 4.9534e-41 -4.9172e-41 4.9446e-41 4.9396e-41 -4.9118e-41 4.932e-41
-4.9214e-41 4.9111e-41 -4.9497e-41 4.9365e-41 -4.9253e-41 -2.3334e-40 -3.1438e-41 -4.911e-41
4.9401e-41 -4.9436e-41 4.9492e-41 4.9216e-41 4.9513e-41 -4.9285e-41 4.9083e-41 -4.9382e-41
4.9337e-41 -4.9351e-41 -4.9337e-41 -4.9149e-41 4.906e-41 -4.9239e-41 -4.9307e-41 -4.9343e-41
4.9229e-41 1.5116e-41 4.9509e-41 4.9336e-41 -4.9064e-41 4.9228e-41 4.9281e-41 4.9197e-41
-4.918e-41 4.939e-41 -4.916e-41 -4.9397e-41 -4.9338e-41 -4.9128e-41 -4.9406e-41 4.944e-41
-4.9351e-41 -4.9191e-41 4.947e-41 4.9124e-41 -4.9336e-41 -4.9089e-41 -4.9125e-41 3.5898e-41
4.9121e-41 -4.9477e-41 -4.9314e-41 -4.9292e-41 4.907e-41 -4.9051e-41 -4.9341e-41 4.9492e-41
-4.9075e-41 -4.9439e-41 -4.9166e-41 4.9448e-41 -4.9347e-41 4.9152e-41 -4.9128e-41 -5.479797e-39
4.914e-41 -4.9078e-41 -4.9055e-41 -4.9375e-41 -4.9069e-41 4.9233e-41 4.939e-41 4.9166e-41
-4.9247e-41 -4.9343e-41 -4.9202e-41 -4.9449e-41 -4.9455e-41 -4.9492e-41 4.9282e-41 4.9052e-41
4.9298e-41 4.9251e-41 4.9421e-41 -4.9066e-41 4.9186e-41 -4.9155e-41 -4.9338e-41 4.9166e-41
-4.9516e-41 -4.9382e-41 -4.9352e-41 4.9225e-41 -4.9265e-41 4.9169e-41 4.9083e-41 -4.9057e-41
4.9258e-41 3.5796e-41 1.2450093e-34 -3.4696e-41 2.8766e-41 2.4232993e-34 -1.0504041e-29 4.9343e-41
-5.4956e-41 -5.196e-41 4.936e-41 4.9347e-41 4.931e-41 4.9533e-41 -5.4613e-41 4.9282e-41
-1.6847065e-35 -4.9298e-41 4.9469e-41 4.9421e-41 -4.9073e-41 -4.9314e-41 4.9132e-41 4.9135e-41
4.9312e-41 -4.9236e-41 1.0567814e-30 6.7952155e-33 -7.656594e-36 -3.928886e-34 -4.9394e-41 4.9131e-41
-4.9162e-41 4.9145e-41 4.9293e-41 -4.9421e-41 4.91e-41 -4.9229e-41 -4.9187e-41 -4.9186e-41
-4.9351e-41 -4.9425e-41 4.9373e-41 -4.9082e-41 -4.9463e-41 4.9504e-41 4.9392e-41 4.9519e-41
-4.9163e-41 -4.9146e-41 -4.9272e-41 4.9211e-41 4.9101e-41 4.9239e-41 -4.9263e-41 5.8057e-41

conv4.0.bias f4 [128]
00000000: 069a 0080 d988 0000 e088 0080 9b89 0000
00000010: a3a2 0000 8898 0080 c988 0080 06af 0080
00000020: de99 0180 0cae 0080 95a6 0080 0964 0480
00000030: d5a2 0000 7df7 0200 43a2 0000 4498 0100
00000040: f588 0000 87ac 0100 34cd 0280 aca7 0000
00000050: d7f2 0280 d888 0080 33b5 0100 6097 0080
00000060: e49e 0080 a49a 0080 5a90 0080 4089 0080
00000070: 4d94 0080 e388 0000 db88 0000 809d 0080
00000080: e608 0000 07a0 0000 236e 0180 269e 0080
00000090: d890 0080 78a2 0080 229f 0000 32aa 0000
000000a0: fa96 0080 769d 0080 699a 0080 df88 0080
000000b0: bd88 0080 eb88 0080 94a0 0080 6252 0180
000000c0: 61aa 0000 ac92 0080 b4a3 0000 b6ab 0100
000000d0: 3989 0080 9c9c 0000 14af 0080 5fae 0000
000000e0: 2c33 0300 c3a9 0480 7c99 0000 ac97 0000
000000f0: 5bb3 0100 188c 0000 e489 0080 c41f 0000
00000100: 8086 0100 e896 0080 4f9f 0080 c688 0000
00000110: ce93 0000 eae7 0200 ca88 0000 4d99 0000
00000120: 6797 0000 e799 0000 74a2 0080 ac8d 0000
00000130: 4da8 0080 8b70 0000 e993 0080 0e97 0080
00000140: 0789 0000 13a2 0000 d895 0000 8fa5 0000
00000150: 9ea4 0080 a29f 0080 6d9a 0080 4b93 0080
00000160: f2ac 0000 1ca8 0000 028f 0000 3199 0000
00000170: fc88 0080 a2a5 0080 be8f 0000 e6a6 0080
00000180: f08f 0080 e888 0080 447b 0180 de09 0200
00000190: f0ae 0080 7e57 0000 3a91 0080 d1a5 0180
000001a0: c888 0000 02af 0000 368c 0000 ad89 0000
000001b0: cd88 0080 ca88 0080 87a4 0080 6f89 0080
000001c0: cd9d 0000 ee93 0000 e09d 0080 4394 0000
000001d0: df88 0080 2a9d 0000 8c94 0000 df88 0080
000001e0: 409b 0000 0089 0000 5ffa 0100 e188 0000
000001f0: cb88 0080 6c9e 0080 3251 0180 6f90 0000
-5.5253e-41 4.9092e-41 -4.9101e-41 4.9364e-41 5.8343e-41 -5.4718e-41 -4.9069e-41 -6.2787e-41
-1.47033e-40 -6.2436e-41 -5.9758e-41 -4.03228e-40 5.8413e-41 2.72453e-40 5.8209e-41 1.46458e-40
4.9131e-41 1.53727e-40 -2.57284e-40 6.015e-41 -2.70786e-40 -4.909e-41 1.56838e-40 -5.4303e-41
-5.6999e-41 -5.5475e-41 -5.1784e-41 -4.9236e-41 -5.32e-41 4.9106e-41 4.9094e-41 -5.65e-41
3.192e-42 5.7407e-41 -1.31345e-40 -5.6733e-41 -5.196e-41 -5.8283e-41 5.7086e-41 6.1055e-41
-5.416e-41 -5.6486e-41 -5.5392e-41 -4.91e-41 -4.9052e-41 -4.9117e-41 -5.7605e-41 -1.21389e-40
6.112e-41 -5.2616e-41 5.8726e-41 1.53434e-40 -4.9226e-41 5.6181e-41 -6.2806e-41 6.2553e-41
2.93863e-40 -4.28241e-40 5.506e-41 5.441e-41 1.56176e-40 5.0256e-41 -4.9466e-41 1.1395e-41
1.40085e-40 -5.4135e-41 -5.7149e-41 4.9065e-41 5.3022e-41 2.66866e-40 4.907e-41 5.4994e-41
5.4313e-41 5.521e-41 -5.8277e-41 5.0822e-41 -6.0375e-41 4.0373e-41 -5.306e-41 -5.4188e-41
4.9156e-41 5.8141e-41 5.3754e-41 5.9391e-41 -5.9054e-41 -5.7265e-41 -5.5398e-41 -5.2839e-41
6.2041e-41 6.0306e-41 5.1302e-41 5.4955e-41 -4.9141e-41 -5.9418e-41 5.1565e-41 -5.9872e-41
-5.1635e-41 -4.9113e-41 -1.36055e-40 1.8721e-40 -6.2756e-41 3.1386e-41 -5.2097e-41 -1.51319e-40
4.9068e-41 6.2781e-41 5.0298e-41 4.9389e-41 -4.9075e-41 -4.907e-41 -5.9021e-41 -4.9302e-41
5.6608e-41 5.3067e-41 -5.6635e-41 5.3186e-41 -4.91e-41 5.638e-41 5.3289e-41 -4.91e-41
5.5693e-41 4.9146e-41 1.81652e-40 4.9103e-41 -4.9072e-41 -5.6831e-41 -1.20963e-40 5.1813e-41

conv4.1.weight f4 [128]
00000000: 8f3f 0000 5589 0000 e788 0000 168a 0000
00000010: b589 0000 c588 0000 154d 6621 eece 841d
00000020: 4c89 0000 1f89 0000 84fe 161b c089 0000
00000030: 9a89 0000 b311 bf10 d16d 2a18 d989 0000
00000040: 1789 0000 ef89 0000 bf89 0000 b789 0000
00000050: b289 0000 5e71 0480 9e89 0000 f788 0000
00000060: 1abb 2900 99f7 9110 3aed 8327 3772 e022
00000070: cd89 0000 1138 0021 ff88 0000 8713 0000
00000080: e188 0000 9389 0000 cb89 0000 e289 0000
00000090: ef89 0000 460f 6e14 f888 0000 b5d6 0b00
000000a0: bc83 bf1f 5589 0000 ec88 0000 ca62 0214
000000b0: 790c 8221 7589 0000 bd88 0000 ab89 0000
000000c0: 7d17 ed1a f388 0000 8e89 0000 1629 840d
000000d0: 75ff 1015 7f09 2212 48d0 3401 d169 0080
000000e0: 2fde 5d1e b06e 0826 088a 0000 c289 0000
000000f0: a389 0000 9e89 0000 2947 a516 be88 0000
00000100: c889 0000 9689 0000 e989 0000 ae89 a188
00000110: 2789 0000 eb88 0000 1b89 0000 f689 0000
00000120: 7089 0000 0e8a 0000 1c89 0000 e222 020f
00000130: 19ef 1014 b33b ac16 af89 0000 a289 0000
00000140: a6b8 0c16 f0b5 0080 db89 0000 f776 0f10
00000150: a778 630e 7789 0000 5389 0000 b189 0000
00000160: 6189 0000 cc88 0000 5f89 0000 ef88 0000
00000170: 138a 0000 1889 0000 ff88 0000 fc89 0000
00000180: d989 0000 f189 0000 da88 0000 4a89 0000
00000190: 9c02 8e11 0fd2 9617 c389 0000 9431 8182
000001a0: b963 0000 d7b8 5f11 0f89 0000 df30 d509
000001b0: 8e89 0000 2e89 0000 018f 8614 9d42 9b1d
000001c0: 1718 0887 f3e4 5e02 0f89 0000 76a4 3b1c
000001d0: 3c89 0000 c089 0000 6f89 0000 ecc8 9f01
000001e0: e279 0000 ede3 0680 3159 0000 5989 0000
000001f0: e388 0000 f5fd 8685 0c89 0000 148a 0000
2.28e-41 4.9265e-41 4.9111e-41 4.9536e-41 4.94e-41 4.9064e-41 7.802905e-19 3.515407e-21
4.9253e-41 4.919e-41 1.2489948e-22 4.9415e-41 4.9362e-41 7.5363486e-29 2.2027428e-24 4.945e-41
4.9179e-41 4.9481e-41 4.9414e-41 4.9403e-41 4.9396e-41 -4.0801e-40 4.9368e-41 4.9134e-41
3.832375e-39 5.75739e-29 3.6617006e-15 6.083625e-18 4.9434e-41 4.344229e-19 4.9145e-41 7.005e-42
4.9103e-41 4.9352e-41 4.9431e-41 4.9463e-41 4.9481e-41 1.20189415e-26 4.9135e-41 1.087213e-39
8.110958e-20 4.9265e-41 4.9118e-41 6.5828054e-27 8.812444e-19 4.931e-41 4.9052e-41 4.9386e-41
9.805885e-23 4.9128e-41 4.9345e-41 8.145019e-31 2.928209e-26 5.112989e-28 3.3210213e-38 -3.796e-41
1.1745589e-20 4.733449e-16 4.9516e-41 4.9418e-41 4.9375e-41 4.9368e-41 2.6702096e-25 4.9054e-41
4.9427e-41 4.9357e-41 4.9473e-41 -9.722203e-34 4.9201e-41 4.9117e-41 4.9184e-41 4.9491e-41
4.9303e-41 4.9525e-41 4.9186e-41 6.416213e-30 7.317296e-27 2.7825774e-25 4.9392e-41 4.9373e-41
1.1367375e-25 -6.5267e-41 4.9453e-41 2.8293425e-29 2.8038002e-30 4.9313e-41 4.9263e-41 4.9394e-41
4.9282e-41 4.9073e-41 4.928e-41 4.9123e-41 4.9532e-41 4.918e-41 4.9145e-41 4.95e-41
4.945e-41 4.9484e-41 4.9093e-41 4.925e-41 2.2405258e-28 9.746549e-25 4.942e-41 -1.8983303e-37
3.5774e-41 1.7648556e-28 4.9167e-41 5.1323843e-33 4.9345e-41 4.9211e-41 1.3586947e-26 4.1097035e-21
-1.0238582e-34 1.6375689e-37 4.9167e-41 6.208567e-22 4.923e-41 4.9415e-41 4.9302e-41 5.8695684e-38
4.3723e-41 -6.32777e-40 3.1996e-41 4.9271e-41 4.9106e-41 -1.2694589e-35 4.9163e-41 4.9533e-41

conv4.1.bias f4 [128]
00000000: 5889 0000 8b89 0000 a5af 0000 0c89 0000
00000010: 2389 0080 dc88 0000 153f e98b 205f 0b9b
00000020: d388 0080 f088 0000 3481 3c90 c288 0080
00000030: b288 0600 ed89 0000 1c0c 6c9c be88 0000
00000040: 6c89 0000 3689 0080 b1c1 2f80 4f89 0080
00000050: 038a 0080 94f0 a714 1a89 0080 6189 0000
00000060: e988 0080 876e 5308 670b b194 b667 8497
00000070: 8f89 0080 a83c cd0f 9789 0080 db89 0000
00000080: c589 0080 376c 7093 6689 0000 e589 0000
00000090: 296d 0b00 d67a fb85 0d89 0080 97d8 690c
000000a0: d354 1d05 8c89 0000 bb89 0000 6cb8 11a1
000000b0: a822 f99b 519b 0080 7d89 0080 c689 0080
000000c0: d5be 2ba2 6089 0000 0289 0080 c889 0000
000000d0: 8089 0000 8d89 0000 d065 941f f689 0080
000000e0: d8be 3f93 ff4b af9d 3c8a 0000 8489 0000
000000f0: 7289 0000 ad89 0000 9484 ff90 aa2c a680
00000100: e689 0000 72e8 4513 e288 0080 64de 0600
00000110: 6189 0000 7b89 0000 d9ab dd09 fb88 0000
00000120: 4f89 0080 d289 0000 1f8a 0000 2451 ce9a
00000130: 5743 c611 9fab cc98 3489 0080 ba88 0000
00000140: 44af 0011 391a 2886 7689 0000 8489 0080
00000150: 3c4f 7082 c189 0000 9389 0080 bb89 0000
00000160: 058a 0000 058a 0080 c088 0080 1289 0080
00000170: f320 150c fb89 0000 b689 0080 4c89 0000
00000180: 86db 0000 4b89 0080 2b8a 0080 e289 0000
00000190: b126 5810 fa88 0080 6789 0080 9cc8 1f80
000001a0: be4f 2d20 0705 ab95 ed89 0080 5489 0000
000001b0: fcc0 6a19 0655 0080 7387 f705 8e27 0000
000001c0: 3f89 0080 df89 0000 702e 1400 2061 4888
000001d0: eda9 0080 8389 0000 0489 0000 bd88 0080
000001e0: 797f 4305 8789 0080 c788 0080 188a 0080
000001f0: bb88 0000 5469 0000 ccb3 4b83 2489 0000
4.927e-41 4.9341e-41 6.301e-41 4.9163e-41 -4.9195e-41 4.9096e-41 -8.984325e-32 -1.1528547e-22
-4.9083e-41 4.9124e-41 -3.7175997e-29 -4.906e-41 6.0005e-40 4.9478e-41 -7.81015e-22 4.9054e-41
4.9298e-41 -4.9222e-41 -4.385752e-39 -4.9257e-41 -4.9509e-41 1.6957582e-26 -4.9183e-41 4.9282e-41
-4.9114e-41 6.3625427e-34 -1.787693e-26 -8.55648e-25 -4.9347e-41 2.0237925e-29 -4.9358e-41 4.9453e-41
-4.9422e-41 -3.0345613e-27 4.9289e-41 4.9467e-41 1.04935e-39 -2.364905e-35 -4.9165e-41 1.8014845e-31
7.397684e-36 4.9343e-41 4.9408e-41 -4.937199e-19 -4.121599e-22 -5.5717e-41 -4.9322e-41 -4.9424e-41
-2.3275847e-18 4.9281e-41 -4.9149e-41 4.9427e-41 4.9326e-41 4.9344e-41 6.284887e-20 -4.9491e-41
-2.4201682e-27 -4.6400692e-21 4.9589e-41 4.9331e-41 4.9306e-41 4.9389e-41 -1.00784034e-28 -1.5260715e-38
4.9469e-41 2.49795e-27 -4.9104e-41 6.30792e-40 4.9282e-41 4.9319e-41 5.336542e-33 4.914e-41
-4.9257e-41 4.944e-41 4.9549e-41 -8.533069e-23 3.1280393e-28 -5.2906057e-24 -4.9219e-41 4.9048e-41
1.0151427e-28 -3.1616554e-35 4.9312e-41 -4.9331e-41 -1.7655154e-37 4.9417e-41 -4.9352e-41 4.9408e-41
4.9512e-41 -4.9512e-41 -4.9057e-41 -4.9172e-41 1.1488458e-31 4.9498e-41 -4.9401e-41 4.9253e-41
7.875e-41 -4.9251e-41 -4.9565e-41 4.9463e-41 4.2628296e-29 -4.9138e-41 -4.929e-41 -2.918865e-39
1.4680054e-19 -6.907428e-26 -4.9478e-41 4.9264e-41 1.2136489e-23 -3.05e-41 2.3277525e-35 1.419e-41
-4.9235e-41 4.9459e-41 1.853369e-39 -6.029948e-34 -6.0958e-41 4.933e-41 4.9152e-41 -4.9052e-41
9.192269e-36 -4.9336e-41 -4.9066e-41 -4.9539e-41 4.905e-41 3.7785e-41 -5.9862735e-37 4.9197e-41
