model/20231221/cnn.pth (torch, 220135 bytes, 7 tensors)

conv.0.weight f4 [8, 8, 3, 3]
0.013039181 -0.08245836 -0.016002787 0.07474446 0.014812546 -0.0064540706 0.12606783 0.08075314
0.05468696 0.0769607 0.08403178 0.041290913 0.057342626 0.11814564 0.05740928 -0.018636977
0.12831566 0.11501723 0.012008035 -0.08232255 -0.07068933 0.02463992 0.11740544 0.100407474
-0.05223789 -0.09039187 -0.09545233 0.007900058 0.08843781 -0.010702764 -0.002514443 0.004162513
-0.07987909 0.10834016 0.05102899 -0.028156102 0.09259847 0.03360598 0.06864316 -0.000896046
-0.090543546 0.09043668 0.03898379 0.014545477 -0.010244874 0.105860844 0.0563534 -0.07863753
0.099345155 0.020202 -0.09273902 -0.0063467007 0.0131974025 0.042596105 0.07541903 -0.05307938
0.017761879 -0.016447812 -0.038638666 0.11937368 -0.011756087 0.08634962 -0.096861035 0.04111795
-0.0927159 0.1278962 0.007945753 -0.0001424435 0.10221901 0.115670696 0.04775408 -0.01676885
0.04750338 -0.099462084 0.04419074 -0.019773163 -0.02429997 -0.054409496 -0.033052355 0.10134419
0.110870995 -0.04921586 -0.020651648 0.048406325 0.098438814 -0.096231416 0.037479594 0.029725606
0.057928964 0.06727136 -0.09734088 0.09745218 0.10657055 -0.037287217 -0.0904789 -0.064373344
-0.01477699 0.010606149 -0.0041987305 0.04210216 -0.026739702 0.057680275 -0.10259765 0.010854116
0.024722133 -0.030662913 -0.0100252945 0.088684134 0.06451154 0.06917185 -0.08936452 -0.06080708
0.124964 -0.014220936 -0.061483484 0.00935739 -0.07533905 -0.004742888 0.11654828 0.10965114
-0.07016789 -0.059867274 -0.039675947 0.014379987 -0.02036906 0.058808006 -0.034331445 0.124812976
0.05286843 0.05647256 0.124263965 0.029955246 -0.050772697 -0.10325874 0.048074838 0.038191035
0.073957086 -0.043176033 -0.028346974 -0.10310387 -0.037067525 -0.10526154 -0.050389323 -0.089579135
-0.007794657 -0.010396229 0.12747276 -0.049345445 0.0059327716 0.078915946 0.10573217 -0.0016246086
0.112756886 0.06735619 -0.06165373 -0.08601469 0.053961817 -0.0688154 -0.07229545 -0.01454871
0.112604395 0.1191434 0.01731589 0.084063336 0.055661984 -0.017919118 0.055881623 0.13926002
-0.09286988 -0.056690462 0.0582354 0.044563238 0.080041505 -0.06975289 -0.06702032 0.07918303
0.083695866 0.09769362 0.07131441 0.09022621 0.010639901 -0.027468313 -0.022538189 0.023185885
0.03341074 0.13130304 -0.046842042 0.072894 0.077943064 -0.06339619 0.048021734 0.116705805
0.11606932 0.0010302395 -0.076052666 0.090256765 0.06284228 0.07378104 0.03377981 0.033288088
0.039399993 -0.06509005 -0.019845683 -0.052439343 -0.07504855 -0.07009021 0.031259235 -0.027993757
0.038550455 -0.05420584 -0.035980094 0.0046570264 0.044797793 0.12080582 -0.0077357264 0.038694248
-0.054015983 -0.065367006 0.0874812 -0.06594738 -0.0872249 0.033215623 0.119116955 -0.003663104
0.10756144 0.06620296 0.123993985 0.06170818 -0.03076048 0.074972615 0.1341571 -0.011385392
0.0027109417 -0.061423775 -0.031416617 0.12939374 0.05972248 0.021918986 0.11006332 -0.012207347
-0.0005668777 -0.07619282 0.03963588 0.08651913 -0.042975996 0.00043229226 0.08710654 -0.08735401
0.0743123 0.11263904 0.07334422 0.032498546 -0.019751716 0.13830432 0.12326276 0.10580001
00000000: 4aa2 553c eedf a8bd 4718 83bc a013 993d
00000010: 52b0 723c ab7c d3bb ed17 013e e761 a53d
00000020: 6fff 5f3d 929d 9d3d db18 ac3d a920 293d
00000030: 1ae0 6a3d 57f6 f13d fe25 6b3d 93ac 98bc
00000040: 2e65 033e 278e eb3d 59bd 443c ba98 a8bd
00000050: 91c5 90bd a8d9 c93c 4372 f03d 6fa2 cd3d
00000060: 66f7 55bd 5f1f b9bd 837c c3bd 3f6f 013c
00000070: e21e b53d a55a 2fbc 5ac9 24bb b165 883b
00000080: a697 a3bd 72e1 dd3d c603 513d a0a7 e6bc
00000090: 44a4 bd3d 6da6 093d c994 8c3d a1e4 6aba
000000a0: e56e b9bd de36 b93d 77ad 1f3d 2750 6e3c
000000b0: 1eda 27bc 92cd d83d d3d2 663d b70c a1bd
000000c0: 7975 cb3d aa7e a53c f5ed bdbd fcf7 cfbb
000000d0: eb39 583c 4179 2e3d 4b75 9a3d c469 59bd
000000e0: 5c81 913c 90bd 86bc 9443 1ebd 307a f43d
000000f0: 9a9c 40bc 12d8 b03d 145f c6bd 4c6b 283d
00000100: d5e1 bdbd 39f7 023e e72e 023c e35c 15b9
00000110: 3358 d13d c2e4 ec3d c899 433d d45e 89bc
00000120: e792 423d c7b2 cbbd 5901 353d 54fb a1bc
00000130: bb10 c7bc 7edc 5ebd e861 07bd 8b8d cf3d
00000140: 5510 e33d 9296 49bd a52d a9bc b645 463d
00000150: 4a9a c93d fa14 c5bd 3484 193d 1d83 f33c
00000160: ec46 6d3d 91c5 893d a85a c7bd 0295 c73d
00000170: a941 da3d 7bba 18bd 004d b9bd 2cd6 83bd
00000180: 301b 72bc 6ac5 2d3c 8195 89bb 5173 2c3d
00000190: 380d dbbc 2742 6c3d b71e d2bd 76d5 313c
000001a0: 1286 ca3c ca30 fbbc 2241 24bc 07a0 b53d
000001b0: a01e 843d f9a9 8d3d bf04 b7bd d810 79bd
000001c0: 20ed ff3d eefe 68bc 1bd6 7bbd bd4f 193c
000001d0: 5c4b 9abd 3a6a 9bbb ddb0 ee3d c790 e03d
000001e0: 2fb4 8fbd 6337 75bd 3f83 22bd 099a 6b3c
000001f0: 04dd a6bc aae0 703d 219f 0cbd f29d ff3d
00000200: 918c 583d c54f 673d 1b7e fe3d b464 f53c
00000210: 08f7 4fbd 5179 d3bd 1fea 443d 346e 1c3d
00000220: d076 973d 5ad9 30bd ea37 e8bc 1f28 d3bd
00000230: 1ed4 17bd 5d93 d7bd 0965 4ebd 4475 b7bd
00000240: 526a ffbb f254 2abc 3888 023e 731e 4abd
00000250: b267 c23b af9e a13d 1c8a d83d d2f0 d4ba
00000260: 15ed e63d 0bf2 893d 9f88 7cbd 7828 b0bd
00000270: 1107 5d3d 17ef 8cbd a30f 94bd b65d 6ebc
00000280: 229d e63d 7401 f43d 0eda 8d3c 6629 ac3d
00000290: d2fd 633d 1dcb 92bc 21e4 643d 2e9a 0e3e
000002a0: 9032 bebd 4234 68bd 3e88 6e3d f187 363d
000002b0: cdec a33d 9ada 8ebd f341 89bd b62a a23d
000002c0: bd68 ab3d 9813 c83d 4a0d 923d 85c8 b83d
000002d0: fb52 2e3c 3a05 e1bc 02a2 b8bc 53f0 bd3c
000002e0: b3d9 083d 4e74 063e 71dd 3fbd 7349 953d
000002f0: 9da0 9f3d ddd5 81bd 70b2 443d 7403 ef3d
00000300: c0b5 ed3d 1a09 873a 80c1 9bbd 8ad8 b83d
00000310: 74b3 803d 841a 973d b35c 0a3d 1759 083d
00000320: e361 213d ef4d 85bd 6a93 a2bc a3ca 56bd
00000330: 0eb3 99bd 758b 8fbd af09 003d 2a53 e5bc
00000340: 15e7 1d3d f106 5ebd dd5f 13bd f899 983b
00000350: e47d 373d 0b69 f73d fa7b fdbb dc7d 1e3d
00000360: dd3f 5dbd 23df 85bd 5829 b33d 6c0f 87bd
00000370: f8a2 b2bd 1b0d 083d 97f3 f33d b010 70bb
00000380: 2c49 dc3d 6b95 873d 8ff0 fd3d b7c1 7c3d
00000390: 67fd fbbc 3e8b 993d 7b60 093e cc89 3abc
000003a0: 0eaa 313b 7f97 7bbd b6ae 00bd cb7f 043e
000003b0: 8f9f 743d 728f b33c e168 e13d 5301 48bc
000003c0: 859a 14ba fb0a 9cbd 3c59 223d f130 b13d
000003d0: 9907 30bd 49a5 e239 ea64 b23d a9e6 b2bd
000003e0: 0c31 983d 4caf e63d 7f35 963d 321d 053d
000003f0: 5ace a1bc a69f 0d3e 3071 fc3d adad d83d

conv.0.bias f4 [8]
0.07070727 0.14131121 0.16209523 -0.013826732 0.033870257 0.12579636 0.11726309 -0.006052945
00000000: f9ce 903d e3b3 103e 4bfc 253e 8489 62bc
00000010: 8abb 0a3d c3d0 003e a227 f03d c857 c6bb

fc.0.weight f4 [512, 72]
0.100637935 0.059307624 0.030378168 0.037022885 0.056090582 0.11874153 -0.014152865 0.122450665
-0.07065018 0.0023318804 0.08621624 0.0037624866 0.08755469 -0.07786896 -0.068267435 0.04125632
0.029676298 0.10869648 0.02291728 0.13246526 0.1272435 0.030681161 0.11650409 0.0865036
0.003561881 0.14621493 0.084872454 0.052603938 0.07809844 -0.056843597 -0.039491486 -0.0022783333
-0.074058644 0.08253272 0.1213737 0.09283235 0.07082959 -0.0090725785 -0.035488084 0.091779865
-0.07087604 -0.059799545 0.06254735 -0.09461846 -0.06489592 0.11211266 -0.08581152 -0.046009272
0.03300437 -0.059360098 -0.03410878 0.06114776 0.13592666 0.01251681 0.113299124 -0.0084198695
-0.021700177 0.033501834 0.024173902 -0.09003039 0.025816735 0.009935122 0.112928055 0.107735455
-0.04285356 0.124127395 -0.06739567 0.101713896 0.10710774 -0.09329657 0.122880235 0.024762187
0.11813778 -0.07954886 -0.030262351 0.06414057 0.099222 -0.08220977 0.03725802 0.062007144
0.010242587 -0.058436822 -0.009650184 0.08753408 -0.040487066 0.09753737 0.05213153 -0.041385885
-0.081082806 0.0041113505 -0.07355046 0.005448432 0.14179811 0.053792022 0.028556261 -0.044876136
0.09836589 0.065032214 -0.03358404 -0.070628546 -0.015691074 -0.038284298 0.03272768 -0.03290184
0.0025702543 0.119476214 -0.08866422 0.008611922 0.0042314283 -0.066537976 0.007715156 -0.07061642
0.0090885665 0.07659998 -0.03147731 0.039099507 0.06340032 0.08644096 0.043296885 0.06825003
0.077460684 0.06950378 0.043257117 0.1018522 0.08766177 0.094838545 0.117507756 0.0035905316
0.02490696 0.08735694 0.10715154 0.09313051 -0.029883062 -0.018033214 -0.03084379 0.04479858
0.13330695 0.07648371 0.0064393105 -0.092085086 0.039352637 0.138805 -0.05017538 0.10467003
0.020285916 0.08146521 -0.009721729 0.054888785 0.07459008 -0.0030267457 -0.05289774 0.04856681
0.06876257 -0.0451443 -0.07184312 0.07961906 0.09681471 0.087486945 0.047054145 -0.046651945
-0.07099731 0.056160986 -0.02187963 0.11670079 0.038156413 0.0020591754 0.009873539 0.071870595
0.0034288028 0.10421451 -0.04184916 -0.030957114 0.043701097 0.12394687 -0.045068834 0.10874573
0.09935167 0.016530164 0.08576081 -0.02697026 -0.014467078 -0.109005876 -0.06631595 -0.06207685
0.090672046 -0.060718164 -0.08212327 0.10085748 0.06550559 0.0732619 -0.0007996687 -0.075707436
-0.051295914 0.043858334 0.0437184 0.10520557 0.00026829672 0.02643753 0.005451385 0.027244348
0.0030852607 0.0030877243 -0.038066275 0.07389982 -0.021651449 0.09975208 -0.01457775 0.09260328
0.08490391 -0.08540535 0.08607692 -0.103082545 0.008857362 0.016534273 0.015867319 0.050737206
-0.0010136277 -0.024699522 0.100425474 -0.09847508 -0.080327906 -0.010096344 -0.112033844 0.06703041
-0.04823148 0.042718362 -0.015544682 0.0111617325 0.022502858 0.076847054 -0.098195426 0.091113254
-0.019099567 0.06012435 0.029667221 -0.08265218 -0.075052075 -0.014968894 -0.113171354 -0.03058202
0.012333144 0.08072044 0.0014196109 0.0012856051 -0.08590059 0.068305306 0.003581807 -0.07728844
-0.00027368963 0.059135128 -0.064540945 -0.110953696 0.07064443 -0.051742896 -0.07543334 -0.115062974
00000000: 431b ce3d 8dec 723d a3db f83c 4fa5 173d
00000010: 3dbf 653d c22e f33d 6be1 67bc 6ac7 fa3d
00000020: 0bb1 90bd 76d2 183b 2492 b03d 0d94 763b
00000030: e04f b33d c379 9fbd cccf 8bbd 63fc 283d
00000040: b51b f33c 439c de3d 05bd bb3c f9a4 073e
00000050: 1f4c 023e 0f57 fb3c b299 ee3d cd28 b13d
00000060: 726e 693b 5eb9 153e 9cd1 ad3d 3a77 573d
00000070: 13f2 9f3d d5d4 68bd d3c1 21bd 1750 15bb
00000080: 0fac 97bd ea06 a93d c692 f83d e31e be3d
00000090: 1b0f 913d 27a5 14bc f45b 11bd 15f7 bb3d
000000a0: 7527 91bd 5ef0 74bd d318 803d 53c7 c1bd
000000b0: 27e8 84bd 539b e53d f3bd afbd 3874 3cbd
000000c0: 972f 073d 9323 73bd a6b5 0bbd 1376 7a3d
000000d0: 5c30 0b3e 4e13 4d3c 5f09 e83d 7ef3 09bc
000000e0: 92c4 b1bc 3839 093d 5908 c63c da61 b8bd
000000f0: 9e7d d33c ecc6 223c d346 e73d 68a4 dc3d
00000100: 3787 2fbd 8136 fe3d be06 8abd 604f d03d
00000110: 4e5b db3d 4612 bfbd a2a8 fb3d 12da ca3c
00000120: 38f2 f13d 83ea a2bd c0e8 f7bc 225c 833d
00000130: e734 cb3d 995d a8bd de9b 183d 34fb 7d3d
00000140: 86d0 273c 735b 6fbd ce1b 1ebc 1145 b33d
00000150: c4d5 25bd acc1 c73d df87 553d 3f84 29bd
00000160: be0e a6bd 82b8 863b a0a1 96bd c388 b23b
00000170: 8633 113e 0655 5c3d d2ee e93c 0ad0 37bd
00000180: 0e74 c93d 9c2f 853d 6b8f 09bd b3a5 90bd
00000190: 918a 80bc ffcf 1cbd 760d 063d 14c4 06bd
000001a0: b671 283b f2af f43d 9695 b5bd 0519 0d3c
000001b0: cba7 8a3b 1045 88bd 6bcf fc3b 579f 90bd
000001c0: 36e8 143c 73e0 9c3d 5aee 00bd ce26 203d
000001d0: 07d8 813d f507 b13d 1358 313d acc6 8b3d
000001e0: b5a3 9e3d ff57 8e3d 602e 313d e397 d03d
000001f0: 0488 b33d b63a c23d e8a7 f03d 204f 6b3b
00000200: ae09 cc3c 32e8 b23d 4472 db3d 35bb be3d
00000210: 53cd f4bc 64ba 93bc 1eac fcbc b77e 373d
00000220: 9e81 083e 7ea3 9c3d da00 d33b 1b97 bcbd
00000230: 3b30 213d e622 0e3e b384 4dbd 3e5d d63d
00000240: a62e a63c 3bd7 a63d e347 1fbc 10d3 603d
00000250: afc2 983d 5e5c 46bb 4dab 58bd feed 463d
00000260: 64d3 8c3d 3be9 38bd 7c22 93bd 510f a33d
00000270: ca46 c63d 5b2c b33d d9bb 403d 1c16 3fbd
00000280: 0a67 91bd 1009 663d e93c b3bc d300 ef3d
00000290: e649 1c3d 3bf3 063b a0c4 213c e430 933d
000002a0: c4b5 603b 6b6e d53d 066a 2bbd c699 fdbc
000002b0: ecff 323d dbd7 fd3d 199a 38bd 15b6 de3d
000002c0: e378 cb3d 446a 873c 5da3 af3d bcf0 dcbc
000002d0: 5307 6dbc 793e dfbd a8d0 87bd 4c44 7ebd
000002e0: 44b2 b93d 9cb3 78bd 3f30 a8bd 5e8e ce3d
000002f0: cb27 863d 560a 963d dca0 51ba 800c 9bbd
00000300: aa1b 52bd cca4 333d 1112 333d 0576 d73d
00000310: 2daa 8c39 8593 d83c 88a1 b23b 8a2f df3c
00000320: 1632 4a3b 6b5b 4a3b 62eb 1bbd ca58 973d
00000330: 615e b1bc d24a cc3d 84d7 6ebc caa6 bd3d
00000340: 1ae2 ad3d 00e9 aebd 1949 b03d f11c d3bd
00000350: 781e 113c e272 873c 2efc 813c d1d1 4f3d
00000360: b4db 84ba a756 cabc dfab cd3d 4ead c9bd
00000370: f582 a4bd 236b 25bc 0072 e5bd 3d47 893d
00000380: 5f8e 45bd 73f9 2e3d 1faf 7ebc b3df 363c
00000390: ea57 b83c fd61 9d3d af1a c9bd 9699 ba3d
000003a0: b276 9cbc f344 763d ac08 f33c 8c45 a9bd
000003b0: e7b4 99bd 1840 75bc 62c6 e7bd 2587 fabc
000003c0: f510 4a3c c250 a53d 3d12 ba3a c081 a83a
000003d0: a6ec afbd a7e3 8b3d c0bc 6a3b 6749 9ebd
000003e0: 007e 8fb9 ad37 723d 0b2e 84bd b13b e3bd
000003f0: 07ae 903d 5cf0 53bd cc7c 9abd 23a6 ebbd

fc.0.bias f4 [512]
-0.0071509983 0.09975127 0.05523199 -0.038143955 0.12717809 0.06280093 -0.07019942 -0.07018315
-0.005920455 0.046924062 0.02847525 0.019675158 -0.03236101 -0.024488773 0.12230111 -0.025789838
0.07307147 -0.05852149 0.06756206 -0.038564354 0.044033132 -0.1006708 0.1362325 -0.066188544
0.06293203 -0.021207081 -0.018659575 -0.09481434 -0.045020513 0.13304724 -0.053521145 0.12175022
0.05334742 0.06739714 0.04179466 0.06271055 -0.0006571505 -0.007557144 -0.07653974 0.007968276
0.09328337 -0.041564867 0.097264 -0.07311469 0.15066506 -0.12752491 0.062697776 -0.00032109735
0.110146664 0.1152871 0.014816756 -0.09213313 0.034351155 -0.013895847 0.07127748 0.105390824
0.11106302 0.03551304 -0.0035991233 0.08739093 -0.060410663 -0.026130106 0.10657719 0.13752587
0.058551632 0.089256294 -0.0066392845 -0.10273041 0.03350021 -0.05632833 0.06577257 0.002404236
-0.07115427 0.10198392 0.12214028 0.07435967 0.053781223 -0.04067689 0.039426073 0.0872914
0.11251693 -0.10451677 0.036836624 -0.11774372 -0.11324987 -0.111198604 -0.11238969 -0.0551648
0.03892778 0.06624647 0.019718314 0.07426803 -0.024174118 -0.0685354 0.0008009867 0.0413563
0.1288288 -0.11176135 0.02305133 0.07870299 -0.07673784 -0.001489923 0.09682721 -0.019147338
-0.082254894 0.095347814 0.11110628 0.047708485 0.13944918 -0.029678162 -0.06446729 -0.01865493
-0.09423326 0.116734385 0.14335865 0.019099109 0.068513006 0.043972727 0.043233547 0.025919445
0.010343226 0.07027121 0.0892375 -0.054504707 0.00041508846 -0.039822143 0.1248041 -0.06595657
0.050397187 0.02523659 -0.06277175 0.09409692 -0.03503925 0.07284309 0.026223611 0.07417678
-0.048179932 0.12294202 0.0510186 -0.0061520715 -0.0036445926 0.07871252 0.04710629 0.0066533242
-0.07604068 -0.053975377 -0.09412179 0.10881431 -0.10054363 0.012758808 -0.06852725 0.10163508
0.06163164 0.03801031 0.091323644 0.05737174 0.031481616 0.09389603 -0.08685439 -0.0465697
0.12420329 0.011696537 0.05363607 -0.07448785 -0.10484102 0.01940415 0.100686304 0.09801213
-0.042119276 0.09698448 -0.09209727 0.07585086 -0.02698506 -0.118456855 -0.040182505 -0.05846999
0.13841014 0.085864894 -0.008951366 -0.113254316 -0.008976066 0.098178424 0.04175795 0.045966484
-0.004152002 0.07399259 0.10208648 -0.038516626 0.098999456 0.08549513 -0.061444744 0.03492944
-0.015487162 0.086625494 -0.021515217 0.028199742 0.056706112 -0.09395454 0.11122772 -0.098421946
0.014760459 0.009906382 0.08080753 0.097704865 -0.108459786 -0.10552891 0.1156397 0.066258475
-0.0876953 0.13401327 -0.11386853 0.057601985 -0.032548614 0.04478983 -0.0058808248 -0.012538245
0.0047270306 0.02341991 -0.122370556 0.09001549 0.09970155 -0.12020355 -0.05420935 0.012792937
-0.08035959 0.019998517 0.06701741 0.056605484 0.034722827 0.1179603 0.027116524 0.09250131
-0.020922087 0.07824546 -0.032819707 0.004354428 -0.0791317 -0.06451571 0.12220895 0.03691209
0.08703758 -0.048132293 0.08638882 0.052587714 0.021115104 0.09441887 -0.09342024 0.0059088026
0.10840618 0.07482748 0.033543065 0.099769585 0.069897786 -0.057098992 -0.02406513 -0.02399549
00000000: ec52 eabb 654a cc3d f03a 623d d63c 1cbd
00000010: f93a 023e c69d 803d b7c4 8fbd 2fbc 8fbd
00000020: 6000 c2bb 7233 403d ed44 e93c cc2d a13c
00000030: fa8c 04bd ae9c c8bc 0179 fa3d 3645 d3bc
00000040: 7fa6 953d 3bb4 6fbd fa5d 8a3d a8f5 1dbd
00000050: 165c 343d 7e2c cebd 8880 0b3e dc8d 87bd
00000060: 82e2 803d 79ba adbc f7db 98bc 052e c2bd
00000070: 6e67 38bd 893d 083e fd38 5bbd 2e58 f93d
00000080: d382 5a3d 8307 8a3d e130 2b3d 646e 803d
00000090: a044 2cba eba1 f7bb dec0 9cbd 5f8d 023c
000000a0: 5a0b bf3d ec3f 2abd 5932 c73d 28bd 95bd
000000b0: f147 1a3e e495 02be b167 803d f558 a8b9
000000c0: 9394 e13d a51b ec3d fbc1 723c 4bb0 bcbd
000000d0: ccb3 0c3d 68ab 63bc edf9 913d 25d7 d73d
000000e0: 0275 e33d 1f76 113d 45df 6bbb 04fa b23d
000000f0: 2c71 77bd ce0e d6bc 2445 da3d 95d3 0c3e
00000100: d6d3 6f3d 01cc b63d 5b8e d9bb 5264 d2bd
00000110: 8437 093d 89b8 66bd c5b3 863d 6390 1d3b
00000120: 54b9 91bd f2dc d03d af24 fa3d e249 983d
00000130: b349 5c3d d09c 26bd 3c7d 213d d5c5 b23d
00000140: 476f e63d e30c d6bd 00e2 163d 9f23 f1bd
00000150: 8cef e7bd 18bc e3bd 912c e6bd 7cf4 61bd
00000160: bc72 1f3d 3bac 873d 4d88 a13c d619 983d
00000170: cd08 c6bc 4a5c 8cbd 4ff9 513a 3965 293d
00000180: b2eb 033e 22e3 e4bd 25d6 bc3c 092f a13d
00000190: bb28 9dbd 8549 c3ba 584d c63d e1da 9cbc
000001a0: 4175 a8bd b745 c33d b08b e33d f969 433d
000001b0: c4cb 0e3e 9e1f f3bc 6d07 84bd 39d2 98bc
000001c0: 5efd c0bd 7012 ef3d 9ccc 123e bc75 9c3c
000001d0: 8c50 8c3d bf1c 343d a915 313d 0455 d43c
000001e0: a276 293c 5aea 8f3d 27c2 b63d 5440 5fbd
000001f0: 3ba0 d939 8b1c 23bd 4b99 ff3d 3d14 87bd
00000200: 486d 4e3d f7bc ce3c 7a8e 80bd e3b5 c03d
00000210: 5185 0fbd c22e 953d e6d2 d63c ffe9 973d
00000220: 5258 45bd 07c9 fb3d e1f8 503d 5197 c9bb
00000230: 1eda 6ebb 0834 a13d 86f2 403d 2104 da3b
00000240: 37bb 9bbd 4915 5dbd edc2 c0bd 09da de3d
00000250: d2e9 cdbd 520a 513c 0458 8cbd 0e26 d03d
00000260: 7571 7c3d b3b0 1b3d e407 bb3d a1fe 6a3d
00000270: def2 003d 904c c03d b7e0 b1bd dfbf 3ebd
00000280: 4b5e fe3d d5a2 3f3c 7fb1 5b3d 168d 98bd
00000290: e4b6 d6bd 74f5 9e3c 9f34 ce3d 95ba c83d
000002a0: 4385 2cbd cd9f c63d 7e9d bcbd b257 9b3d
000002b0: c60f ddbc 8299 f2bd 6996 24bd 3a7e 6fbd
000002c0: 63bb 0d3e efd9 af3d c0a8 12bc e1f1 e7bd
000002d0: 5910 13bc c511 c93d 620a 2b3d 5a47 3c3d
000002e0: 840d 88bb 6d89 973d b712 d13d 9cc3 1dbd
000002f0: 3ac0 ca3d 1218 af3d 7cad 7bbd 2c12 0f3d
00000300: debd 7dbc b568 b13d ae40 b0bc 2503 e73c
00000310: ab44 683d 3d6b c0bd 5ccb e33d 7291 c9bd
00000320: dad5 713c 614e 223c 6b7e a53d 7d19 c83d
00000330: 2a20 debd 8b1f d8bd 82d4 ec3d 86b2 873d
00000340: 9899 b3bd c63a 093e e733 e9bd 0ff0 6b3d
00000350: b251 05bd 8a75 373d efb3 c0bb 366d 4dbc
00000360: 35e5 9a3b 1cdb bf3c 6a9d fabd 0b5a b83d
00000370: 5430 cc3d 472d f6bd a00a 5ebd 7899 513c
00000380: 9293 a4bd eed3 a33c 6d40 893d 27db 673d
00000390: 8639 0e3d 2b95 f13d 7923 de3c 5471 bd3d
000003a0: cc64 abbc 283f a03d f56d 06bd 97af 8e3b
000003b0: cd0f a2bd d020 84bd b048 fa3d 2231 173d
000003c0: c240 b23d 5e26 45bd 9fec b03d 3766 573d
000003d0: 95f9 ac3c ae5e c13d 1c53 bfbd a19e c13b
000003e0: 0f04 de3d 263f 993d 7464 093d ff53 cc3d
000003f0: 9226 8f3d a2e0 69bd 3c24 c5bc 3192 c4bc

fc2.0.weight f4 [32, 512]
0.010505837 -0.026429053 0.015104025 -0.016910128 0.0071442546 -0.03370075 -0.041925438 0.022664936
-0.01496448 0.013831758 0.031768087 -0.0065143853 0.022556197 0.0062745917 0.022698533 -0.02069584
-0.017471915 0.03618517 -0.007451372 -0.020542266 0.034633297 0.02558871 -0.046155818 0.022222374
0.023457551 0.009797968 0.027685668 0.026993012 -0.018531322 -0.016105982 -0.046513885 -0.03704047
0.018652063 -0.016139526 0.013081589 -0.016731892 -0.0021292656 -0.03702009 0.03096534 -0.0038190335
-0.041590318 -0.026832849 -0.031734724 -0.033426106 -0.02740527 0.014530035 -0.011334868 0.0060220663
0.02857582 -0.050502334 0.018279234 0.0165792 -0.017685585 -0.019724393 -0.040476754 -0.04456806
0.019674009 0.017834088 -0.038569894 -0.0111934235 -0.02592992 -0.044585843 0.029127682 -0.048537664
-0.045503642 -0.0420927 -0.0019218266 0.032752883 0.023125764 -0.034669872 -0.03736193 0.031108892
0.027790438 -0.044444766 -0.04257095 -0.0057899137 0.015982326 0.009278146 0.019619238 -0.027280284
-0.029407209 0.035990175 -0.026927924 -0.017763896 -0.0066691902 0.007429704 0.025661679 -0.016365051
-0.022827521 0.01769603 0.0144717805 0.011894257 0.017464317 0.014953893 -0.029630082 0.018117502
-0.009843982 -0.039732754 0.02915202 0.018577848 -0.038591214 -0.020827606 -0.028769597 -0.046035133
-0.025069125 -0.05019233 0.024405913 0.0023225772 0.008731872 0.018960489 -0.03230258 -0.03967771
0.032859687 0.008509455 -0.02049806 0.024977993 -0.038415596 -0.026364598 0.022450691 0.017702682
0.0022331174 -0.040187497 -0.034057338 0.024220122 -0.010915739 -0.0018893109 0.017607521 -0.0138013605
-0.0068532247 0.0287293 -0.02257942 0.02696821 0.018686486 -0.051106073 -0.01643422 0.004699877
-0.030838279 -0.001874046 -0.03961772 0.00993101 0.0024982174 0.009766849 0.008896779 0.009074722
-0.05205203 0.01633617 0.008224394 -0.013345321 0.033580903 -0.0074395565 -0.0031486712 0.016282769
0.027738964 0.011157923 -0.046955425 0.0020556115 -0.009087733 -0.020925146 -0.010449389 -0.019039735
0.008878487 -0.022347283 0.015107079 -0.02014101 -0.032186806 -0.0187179 -0.0013757632 -0.036819573
-0.05535354 -0.0076529486 -0.032767415 0.002037117 -0.032297518 -0.04099291 -0.052046917 0.018559102
0.014929922 0.00960683 0.006929115 -0.015760511 0.014053544 0.016090503 -0.01602976 -0.042617805
-0.01672423 0.011786245 -0.005339126 -0.0071513676 -0.021992324 0.030443763 -0.04965241 0.011738554
-0.00658609 0.03167579 0.009459893 -0.00025715542 -0.028504599 -0.03055304 -0.03474087 -0.045236237
-0.03285572 -0.027292054 -0.008997166 0.026426673 -0.029474512 -0.012406686 -0.0044149123 -0.04189324
-0.030512117 0.02530056 0.0035385825 -0.049186606 -0.00181039 -0.033632852 0.0074616843 -0.011353023
0.004312994 -0.013546208 0.01964454 -0.04867338 0.029182246 -0.039189145 0.004590839 0.022463504
-0.050286666 -0.005031165 0.016157413 0.017542224 -0.045441378 0.031254966 -0.0018043313 0.026473833
0.042279433 0.026629789 -0.020734102 -0.0027676227 -0.014261777 0.010203204 0.035332356 0.019676486
0.018544478 -0.024769582 -0.0067325784 -0.028817782 0.028666437 0.0190505 -0.03283022 0.010190828
0.01365879 0.020292994 -0.050120145 0.021965275 -0.045648064 -0.0385524 0.029373027 0.023470575
00000000: ad20 2c3c be81 d8bc df76 773c 1c87 8abc
00000010: 5a1a ea3b cc09 0abd 02ba 2bbd d1ab b93c
00000020: 942d 75bc 999e 623c 411f 023d a076 d5bb
00000030: c6c7 b83c 179b cd3b 46f2 b93c 528a a9bc
00000040: 4321 8fbc e736 143d a42a f4bb 4148 a8bc
00000050: a5db 0d3d 6a9f d13c e20d 3dbd b20b b63c
00000060: 0d2a c03c a887 203c 0ecd e23c 7320 dd3c
00000070: 00cf 97bc b1f0 83bc 5885 3ebd bfb7 17bd
00000080: 36cc 983c 0a37 84bc 2954 563c 5211 89bc
00000090: 268b 0bbb 61a2 17bd 06ab fd3c c048 7abb
000000a0: 9c5a 2abd 90d0 dbbc 45fc 01bd d0e9 08bd
000000b0: 0481 e0bc 620f 6e3c e2b5 39bc c154 c53b
000000c0: d717 ea3c 89db 4ebd 55be 953c 1ad1 873c
000000d0: 5ce1 90bc 0d95 a1bc f4ca 25bd 008d 36bd
000000e0: 632b a13c cb18 923c 77fb 1dbd 9f64 37bc
000000f0: fc6a d4bc a59f 36bd 2d9d ee3c 6ecf 46bd
00000100: 0762 3abd 6569 2cbd cde5 fbba e327 063d
00000110: 3e72 bd3c ff01 0ebd d308 19bd 13d8 fe3c
00000120: c6a8 e33c b70b 36bd e05e 2ebd 51b9 bdbb
00000130: 5eed 823c 5d03 183c 86b8 a03c e77a dfbc
00000140: 63e7 f0bc 6f6a 133d f397 dcbc 9785 91bc
00000150: 3989 dabb e074 f33b 7138 d23c 0010 86bc
00000160: c800 bbbc 44f7 903c 0c1b 6d3c 21e0 423c
00000170: 5411 8f3c 2c01 753c c9ba f2bc 286b 943c
00000180: a748 21bc d0be 22bd 38d0 ee3c 9230 983c
00000190: d211 1ebd a89e aabc 38ae ebbc 568f 3cbd
000001a0: c45d cdbc 7996 4dbd e9ee c73c 6136 183b
000001b0: 2010 0f3c 0753 9b3c b64f 04bd 1885 22bd
000001c0: e197 063d 3e6b 0b3c 8ceb a7bc a69e cc3c
000001d0: ac59 1dbd 92fa d7bc 83ea b73c 3705 913c
000001e0: 7e59 123b a59b 24bd b57f 0bbd 4769 c63c
000001f0: eed7 32bc c1a2 f7ba a63d 903c 1a1f 62bc
00000200: 0491 e0bb b559 eb3c 7af8 b8bc 6fec dc3c
00000210: 6714 993c 9a54 51bd 0fa1 86bc 6d01 9a3b
00000220: 8fa0 fcbc 8da2 f5ba 3146 22bd adb5 223c
00000230: 22b9 233b 2205 203c ccc3 113c 25ae 143c
00000240: 8234 55bd 6ed3 853c 9cbf 063c 55a6 5abc
00000250: 218c 093d 86c7 f3bb f059 4ebb 7163 853c
00000260: d33c e33c b9cf 363c 5554 40bd 70b7 063b
00000270: b7e4 14bc 366b abbc ea33 2bbc 38f9 9bbc
00000280: 1377 113c a611 b7bc af83 773c c2fe a4bc
00000290: 50d6 03bd 4856 99bc f452 b4ba 1fd0 16bd
000002a0: 65ba 62bd 96c5 fabb 2037 06bd 2781 053b
000002b0: 674a 04bd 2ee8 27bd 262f 55bd 4209 983c
000002c0: a29c 743c f765 1d3c a10d e33b 301c 81bc
000002d0: d640 663c 3bd0 833c d850 83bc 0290 2ebd
000002e0: 4101 89bc 181b 413c d6f3 aebb 0556 eabb
000002f0: 3f29 b4bc 3365 f93c 5360 4bbd 1053 403c
00000300: 21d0 d7bb 79be 013d abfd 1a3c d1d2 86b9
00000310: 7a82 e9bc 5e4a fabc 714c 0ebd a249 39bd
00000320: b893 06bd 9693 dfbc d968 13bc c07c d83c
00000330: 8874 f1bc 6a45 4bbc f8aa 90bb 3f98 2bbd
00000340: 8cf4 f9bc 1f43 cf3c 90e7 673b e577 49bd
00000350: 9c4a edba 9ac2 09bd 2581 f43b 0802 3abc
00000360: 0454 8d3b eaf0 5dbc 96ed a03c bd5d 47bd
00000370: 9b0f ef3c cc84 20bd c06e 963b 6205 b83c
00000380: 64f9 4dbd 79dc a4bb 8d5c 843c b6b4 8f3c
00000390: bd20 3abd 3505 003d 507f ecba a7df d83c
000003a0: 332d 2d3d b726 da3c 90da a9bc 0161 35bb
000003b0: 3aaa 69bc 572b 273c a9b8 103d 9530 a13c
000003c0: 97ea 973c 94e9 cabc f69c dcbb 4513 ecbc
000003d0: e0d5 ea3c cb0f 9c3c fb78 06bd 6ef7 263c
000003e0: 1ec9 5f3c 7e3d a63c c84a 4dbd 85f0 b33c
000003f0: 77f9 3abd 1fe9 1dbd b49f f03c 5d45 c03c

fc2.0.bias f4 [32]
-0.040050928 0.02351516 0.056033276 0.05517909 0.0006158306 0.0036725423 0.03760169 -0.04197249
0.05681658 0.0028012486 -0.019713696 -0.00014182636 0.030508004 -0.006073252 -0.013797119 -0.0042420877
-0.012373096 -0.015410916 -0.0039119157 0.0020414991 -0.022393003 -0.015390084 0.013006348 0.02301187
0.053753134 0.0064367475 0.018257998 0.015432039 -0.010513818 0.038805105 0.043551963 0.015819259
00000000: 710c 24bd dda2 c03c 2683 653d 7803 623d
00000010: b16f 213a 09af 703b 3b04 1a3d 58eb 2bbd
00000020: 81b8 683d 2795 373b 9e7e a1bc 39b7 14b9
00000030: eceb f93c 2102 c7bb 500d 62bc 3601 8bbb
00000040: 87b8 4abc 117e 7cbc 872f 80bb acca 053b
00000050: 8871 b7bc b126 7cbc 9418 553c 6483 bc3c
00000060: 3f2c 5c3d 5aeb d23b cc91 953c aad6 7c3c
00000070: 2642 2cbc 1af2 1e3d 8b63 323d 6497 813c

out.0.weight f4 [1, 32]
0.16118713 -0.14319788 -0.17321526 -0.036661174 -0.16415462 0.16184962 -0.031439412 0.15347506
-0.066696286 -0.18734147 -0.13116528 -0.1232111 -0.06348559 -0.055386405 -0.17161512 0.11481887
-0.0016640545 0.036994 -0.16471694 -0.04764389 0.03569784 -0.14698602 -0.0027118993 -0.0071137724
-0.1508774 0.066067465 -0.08803296 0.12399105 -0.083665304 -0.15619929 -0.10915369 0.13702016
00000000: 3d0e 253e 77a2 12be 575f 31be 072a 16bd
00000010: 2618 28be e8bb 253e 9dc6 00bd 9128 1d3e
00000020: 1098 88bd 71d6 3fbe 3150 06be 1a56 fcbd
00000030: bc04 82bd dbdc 62bd e0bb 2fbe 2826 eb3d
00000040: 671c daba 0587 173d 8fab 28be 3d26 43bd
00000050: e637 123d 8183 16be 1fba 31bb a61a e9bb
00000060: 9b7f 1abe 614e 873d a04a b4bd 05ef fd3d
00000070: b758 abbd b5f2 1fbe f88b dfbd 034f 0c3e
