model/20231221/cnn.pth (torch, 219559 bytes, 7 tensors)

conv.0.weight f4 [8, 6, 3, 3]
000000 38 33 8d be 4f e0 84 be d3 c9 e7 bd 35 e4 91 bd
       -0.2757814 -0.25952384 -0.11317792 -0.07123605
000010 bb bd 25 be df 90 30 3e 1f 73 d0 bd e8 ac a0 3e
       -0.16185658 0.17242764 -0.101782076 0.31381917
000020 2e e7 e4 3d 8f e7 4e 3e ff f5 e9 3d cb 25 c1 3d
       0.111769065 0.2020552 0.11423873 0.094310366
000030 50 a0 bd bd 45 bc 38 be d2 fb ec bc b7 94 01 3d
       -0.09259093 -0.18040569 -0.028928671 0.031635966
000040 fd 36 93 3d 75 76 73 be 74 6a 3a 3b 48 2e b4 be
       0.071882226 -0.23775657 0.0028444799 -0.3519156
000050 cd cc 19 be 0a a2 8e 3e ca 0b 03 ba 02 30 06 be
       -0.15019532 0.27858 -0.000499901 -0.13104251
000060 ef a8 82 be 38 ab 3a 3d d6 3f 90 be b0 6d dc be
       -0.2551951 0.045573443 -0.28173703 -0.43052435
000070 4b 24 d1 be cd 5e 83 bd dc a2 1b be 1f 76 a6 3e
       -0.40848002 -0.06414566 -0.15198845 0.32511994
000080 2d e1 05 3f 09 34 9c be c1 56 1f 3e 56 ba 72 3f
       0.52296716 -0.3050845 0.15560438 0.94815576
000090 79 6b 3f be ee 8e 18 3d ae 89 d0 bc ab 51 82 3e
       -0.18693341 0.037245683 -0.025456276 0.25452933
0000a0 0e 17 19 3d cc aa 77 3e 23 06 4a 3e 8a ed ce 3e
       0.037375502 0.24186248 0.19728903 0.40415603
0000b0 e5 fa c8 3e 65 8d 2f 3e a0 86 8d 3d d9 39 9f 3d
       0.39253917 0.17143781 0.06910443 0.077747054
0000c0 e6 ed da 3c f7 c4 40 3d 03 1f 78 bb 4e 53 36 3e
       0.026724767 0.04706284 -0.0037860281 0.17805216
0000d0 d1 a6 36 3e ac 8c 9a 3b 94 2a 93 3b 3e af d1 bd
       0.17837073 0.0047164764 0.0044911597 -0.10238503
0000e0 fe 04 94 3c f9 d0 4d be 93 ab 87 be 1d d1 8f be
       0.018068787 -0.20099248 -0.26498088 -0.28089228
0000f0 70 10 05 3e 1d b1 3a 3e 6e a6 83 3e a2 84 a7 ba
       0.12994552 0.18231626 0.25712913 -0.0012780617
000100 35 e7 2f bd fa 35 56 be 02 3f 69 bb 79 ea e7 bd
       -0.042945106 -0.20919028 -0.0035590534 -0.11324019
000110 3e 4d 28 bd d7 00 83 3e f7 fb 4c 3e d0 43 3b 3e
       -0.04108929 0.25586578 0.20017992 0.18287587
000120 7e 4a e9 bd a8 45 00 3c 64 80 10 3e a3 2c 23 bf
       -0.113911614 0.007829107 0.14111477 -0.63739985
000130 e8 8b 67 bf 78 60 3f bd 36 fc 04 bf 95 a3 f8 be
       -0.90447855 -0.04672286 -0.51947343 -0.48562303
000140 59 dd ad be 03 c5 a9 3e ac 8c 91 3e 04 97 d4 3d
       -0.33957937 0.3315812 0.28427637 0.103803664
000150 e6 ba 58 3e 2b bd 29 be 22 96 91 be 2c 24 7e 3e
       0.21165046 -0.16576068 -0.28434855 0.24818486
000160 d2 b3 6c 3e 2f aa a9 3e f6 91 8b be 4a 3f 0f bf
       0.23115471 0.33137652 -0.27259797 -0.55955946
000170 d7 ac 21 bf 14 f5 5d 3e dd 5e 3f 3d bd 3c da bd
       -0.6315436 0.21675521 0.046721328 -0.10656116
000180 dd a3 21 3e f1 8d a4 bc 9f 34 d4 3d 6b f1 3e be
       0.15785165 -0.020087214 0.10361599 -0.18646781
000190 4a 23 cb be f8 a3 84 be 3c 2b f5 bd f8 c2 53 3d
       -0.3967536 -0.25906348 -0.11971137 0.05169961
0001a0 e1 57 2e be 6a 8e de 3e d3 b2 60 bd 86 40 38 be
       -0.1702571 0.43468028 -0.05485804 -0.17993364
0001b0 09 4b 59 bd 5b e5 ea bc 56 45 53 3b 7f ff 84 be
       -0.053050075 -0.028673818 0.0032237372 -0.25976178
0001c0 c2 ac bb bd f9 13 76 3d f6 fc 12 3e 14 62 49 bd
       -0.0916381 0.06007764 0.1435431 -0.0491658
0001d0 29 30 29 3c 93 78 b8 3d b3 b4 41 bd bf 7a 43 3c
       0.010326424 0.09007373 -0.04729147 0.01193112
0001e0 0e 30 e0 3d 0b 8d 95 bc 3f 10 ea 3d b1 fd 1c bd
       0.10946666 -0.018255731 0.1142888 -0.038327876
0001f0 59 71 10 be 34 9c dd bd 1f 45 c6 be 06 b8 5c bb
       -0.14105739 -0.10820809 -0.3872461 -0.0033679022
000200 e4 3a da be 30 20 ad be ef 79 ba 3e 15 07 d3 3e
       -0.42623055 -0.3381362 0.36421153 0.4121634
000210 db 51 24 3f e9 3b 2b be 92 b8 cf 3a 9b e0 c9 3c
       0.641874 -0.16722073 0.0015847853 0.024643233
000220 cc 10 f9 be 57 27 21 3d f4 b4 3d be 8b 6f 1b be
       -0.48645627 0.039344158 -0.1852606 -0.15179269
000230 35 ac 3e bf 2e 87 54 3f 4d a4 58 3e 11 c2 24 3f
       -0.7448152 0.8301877 0.21156426 0.6435862
000240 0c 21 55 be 67 56 ba 3d d8 05 72 3e 6e ae 24 bf
       -0.20813388 0.09098511 0.23635042 -0.6432866
000250 da fa bc be 0d d6 c0 be a9 fe 8f 3e d1 e2 a8 3e
       -0.36910135 -0.37663308 0.28123978 0.32985547
000260 13 41 b9 3e aa a8 69 be 1d 37 df be 8b a6 74 be
       0.3618246 -0.22818246 -0.43596736 -0.23891656
000270 5c 04 6b 3e 9b b0 99 3e 5a 4c 62 3e 69 d5 db 3d
       0.22950882 0.30017552 0.22099438 0.10734064
000280 cc f2 c9 bd 11 50 44 be 25 a1 53 be 10 b0 8f 3c
       -0.09860763 -0.19171168 -0.2066694 0.017540008
000290 17 b5 1e 3d 36 36 10 be 9c da 67 3d 3d 58 ba 3e
       0.03874692 -0.1408318 0.056604967 0.36395445
0002a0 d3 e5 40 be c9 5e fe bd 7f 1f 00 bd fe 2f c3 bd
       -0.18837671 -0.124204226 -0.031280037 -0.09530638
0002b0 c7 d0 09 3d 45 92 45 3d 48 59 9d be f5 54 2e bc
       0.03364637 0.048235197 -0.3073218 -0.0106403725
0002c0 3b 4b 39 3e 38 65 9c 3d 06 3f 09 3c 89 15 6a bd
       0.18095104 0.076364934 0.008376842 -0.057149444
0002d0 88 71 40 bd 19 ac 37 3e 4d 14 77 be e2 6b f5 be
       -0.04698327 0.17936744 -0.24128838 -0.4793387
0002e0 50 e4 e6 3c c6 ac 99 be 9e 62 c5 be 2e a0 c3 be
       0.02818504 -0.30014628 -0.385518 -0.38208145
0002f0 b2 f6 66 be 3c e9 99 be f5 9e 90 be 30 75 d1 3e
       -0.22555044 -0.30060756 -0.28246275 0.4090972
000300 83 85 10 bf 74 11 9a 3d c5 63 63 3d fc e5 a7 be
       -0.5645372 0.0752286 0.05551507 -0.32792652
000310 9f c8 a7 3e 4b 38 26 bf 0a 33 8c bd 67 60 d9 3d
       0.3277025 -0.64929646 -0.068456724 0.106140904
000320 67 d1 f0 3d 39 0e 1c 3e ce 67 fb 3d e9 d8 44 3e
       0.1175869 0.152398 0.122756585 0.1922337
000330 6b 60 6a 3e 0d 50 bf 3d b9 ff aa 3e 04 f8 0f bd
       0.22888343 0.0934144 0.33398226 -0.035148636
000340 a4 67 a9 3e 2b 8d 5e 3e 68 28 f4 3d 4c b8 d8 3e
       0.33086884 0.21733539 0.119217694 0.42328107
000350 d9 83 15 3f 5a 47 87 be 71 8e 7d be dc 01 ac be
       0.5840431 -0.26421624 -0.24761368 -0.3359517
000360 28 ef 34 3d 92 b5 d9 3c 67 b1 52 3e df fe 64 3e
       0.04417339 0.026575837 0.20575486 0.2236285
000370 ce 91 0c be 19 52 2f bd 4d 77 00 3d 54 2c 93 bd
       -0.13727495 -0.042802904 0.031363774 -0.07186189
000380 1d 1e 96 be a8 77 55 bd fb 11 bb 3c 95 d0 ee bd
       -0.2931985 -0.052116066 0.022835722 -0.116608776
000390 55 39 2c 3d 25 79 e9 3d 35 23 7a 3d f0 10 7e be
       0.042046864 0.114000596 0.061068732 -0.24811149
0003a0 08 ce 0f 3e b0 c8 ac 3d 4f c9 95 be e0 3c 54 3e
       0.14043438 0.084367156 -0.2925515 0.20726347
0003b0 f8 b4 0e 3e 62 b7 64 bf 82 76 e8 be f3 32 e2 be
       0.13936222 -0.8934232 -0.45402914 -0.44179496
0003c0 b7 a4 9a be 71 ae 7a 3e c8 d0 00 bc 58 20 aa 3e
       -0.30203792 0.24480607 -0.007862277 0.332278
0003d0 b2 56 bc 3e 80 f7 59 3e ef 84 51 3d cb f4 83 3e
       0.36784893 0.2128582 0.051152166 0.257727
0003e0 d9 96 90 3e a0 cf 45 bf 19 d1 ea be e5 f5 57 3e
       0.28240088 -0.77269936 -0.45862654 0.21089895
0003f0 7b 0e 61 3d a3 d2 c5 3d 7e c5 34 be 6e 5f 16 be
       0.05494545 0.096593164 -0.17653462 -0.14684841

conv.0.bias f4 [8]
000000 9e a9 63 3d a8 9b 59 3c e3 61 a2 ba a1 a4 07 bc
       0.05558168 0.01328174 -0.0012388792 -0.008278997
000010 64 55 c6 3c 3c 0d b7 3d ed 11 f6 3d 95 02 5f 3c
       0.02421064 0.08938071 0.12015138 0.013611455

fc.0.weight f4 [512, 72]
000000 b7 da 62 3d ec c7 e5 3d 9c c5 96 3e 09 ae ea bd
       0.055384364 0.11219773 0.2944764 -0.11458976
000010 b2 67 0d bd fe 3f e5 3c 9b ca c1 bd ee 29 1b 3d
       -0.03452272 0.027984615 -0.09462472 0.037881784
000020 bb 71 6e 3e 52 f3 d9 bc b9 e9 1e be e0 9c 6c be
       0.23285572 -0.026605282 -0.15518846 -0.23106718
000030 21 47 19 be 05 4e 92 3a 49 09 a6 3d d9 09 95 3d
       -0.1496854 0.0011162168 0.0810724 0.07277269
000040 f2 12 f1 bd 0b 0d d2 bc c6 45 6b be 17 f9 97 3e
       -0.11771192 -0.025640985 -0.22975835 0.29682228
000050 85 2a 65 3e 05 6b b5 3d ff eb e1 be b2 cb 4b 3d
       0.22379501 0.08858303 -0.44125363 0.049754806
000060 25 67 e6 bc bc 86 ee be 3e 63 61 3f 16 42 db bd
       -0.028125355 -0.4658717 0.88042057 -0.10705964
000070 5f 31 95 3d a2 a3 85 3d 13 e0 20 3f f0 60 88 3f
       0.072848074 0.06525351 0.6284191 1.0654583
000080 b3 26 0a 3f 74 a7 41 be 4b 5c f6 bd 60 e9 b6 bd
       0.539653 -0.18911535 -0.12029322 -0.089312315
000090 61 e1 35 3e a6 53 72 3d 9a 59 95 bd 7a 31 c2 bd
       0.17761756 0.059161805 -0.07292481 -0.09482093
0000a0 17 c1 81 3d 56 29 65 bd bf 34 2c 3d 42 a7 02 be
       0.06335657 -0.055947624 0.04204249 -0.12759116
0000b0 34 9a 21 3e 44 1e b0 be eb e2 a3 be a6 2d 11 be
       0.1578148 -0.3439809 -0.32009062 -0.1417757
0000c0 f7 01 56 be 30 be 3e bd d1 2d e4 bd 3b e9 02 3e
       -0.20899187 -0.046568096 -0.11141551 0.12784283
0000d0 75 19 64 3d 74 19 84 be 9e 70 76 3e ad 91 93 3d
       0.05568834 -0.2580067 0.24066398 0.0720552
0000e0 bd 90 f9 3d e1 9b f5 be 3f c3 90 bd 8e 72 cb 3b
       0.1218581 -0.4797049 -0.0706849 0.0062087243
0000f0 84 03 91 be 8e 72 9c bd 22 25 20 bd 26 a6 b6 bd
       -0.28322995 -0.07639037 -0.039097913 -0.08918409
000100 6e 76 c9 bd 26 c4 f3 3d 37 bd 6b bd bc ba ee 3c
       -0.09837042 0.11902647 -0.057553496 0.029141776
000110 e1 d1 aa 3c c0 84 83 3e 01 d5 1d be 72 a4 37 3d
       0.020852031 0.25687218 -0.15413286 0.04483456
000120 f8 f6 30 3e 71 48 2d bd 91 31 a4 3c 8d bc ca be
       0.17281711 -0.042305414 0.020043166 -0.39596978
000130 3a 47 d6 bd 22 c2 c7 3c 25 e5 c4 be fe de 7b be
       -0.10462804 0.024384562 -0.38456073 -0.24596784
000140 2c fc 19 be c2 94 cd 3e b8 68 91 3e f6 5c d4 bc
       -0.15037602 0.40152556 0.28400207 -0.025923233
000150 5d d7 18 be 61 36 a4 3d 6c b7 90 be e5 45 e1 be
       -0.14925905 0.080181845 -0.2826494 -0.43998638
000160 b4 fd 89 be c2 bf 65 3c 32 f9 d7 be 1b 19 c3 be
       -0.26951373 0.014022769 -0.42182308 -0.3810509
000170 e9 cd 78 be 6a 9d 80 3d 4c 13 02 3d e4 72 b0 bc
       -0.24297298 0.06280024 0.031756684 -0.02153916
000180 e6 25 16 3f 3b c6 77 3c 9f 24 0c 3f 79 78 7e be
       0.5865158 0.015122945 0.5474338 -0.24850644
000190 00 e6 cd 3e 91 09 60 3d 07 58 75 bd f5 d9 18 bd
       0.4021454 0.054696623 -0.059898403 -0.037317235
0001a0 a3 cf e3 3e f3 05 9c be b3 4f c2 be 98 6b a7 3e
       0.44494352 -0.3047329 -0.3795143 0.32699275
0001b0 57 8b 3d be 7c f6 14 3e 09 ab c3 3d 83 82 50 bd
       -0.18510185 0.14547151 0.09554107 -0.050905716
0001c0 04 20 fa 3d c2 ba 4c 3e ca 1e 2b be 6e 90 b9 bd
       0.12213138 0.19993117 -0.16710964 -0.09060751
0001d0 3e ce ea 3d f6 ce e8 bd b2 58 b9 3d 4f e4 58 3d
       0.11465119 -0.113676 0.090501204 0.052952107
0001e0 85 d3 aa bc 8d d5 0e 3d 4d 90 ad 3e 85 52 9a bd
       -0.020852813 0.034871627 0.33899155 -0.075352706
0001f0 2f 83 03 be 33 95 74 3d 91 81 9f 3e 71 d3 39 3e
       -0.12843011 0.0597126 0.3115354 0.18147065
000200 e5 e3 63 be 57 d4 f0 bd bf c2 41 3d f4 01 26 3e
       -0.22254904 -0.117592506 0.047304865 0.16211683
000210 71 95 c7 3d cc 5b cd bd c9 4f 9c bc 47 53 98 bc
       0.097453006 -0.100272745 -0.019081013 -0.018594397
000220 f6 4c 3c 3e c8 92 8a bd 29 44 60 3e ee 3c c2 3d
       0.18388733 -0.067662776 0.21901001 0.09484278
000230 a4 d6 c5 be 3a e7 d2 3e f0 33 1c 3d c6 54 59 bd
       -0.3864032 0.41192037 0.03813547 -0.053059362
000240 8a ee 54 3c a7 75 5d bd cc 55 28 3e dd 6e be be
       0.012996325 -0.05406728 0.16438979 -0.37193957
000250 f0 7e 02 be 10 df 23 3d 12 f5 73 be 91 ca 28 bc
       -0.12743735 0.04000765 -0.23823956 -0.010302202
000260 18 41 fe 3d 97 bd 30 3d 7c a1 7a bc c5 16 2a 3e
       0.124147594 0.043149557 -0.01529729 0.16610248
000270 54 a6 8e be ab d6 a2 bd 6f 2f 38 3d a4 6b c1 bb
       -0.27861273 -0.07951101 0.04496711 -0.0059027243
000280 8b b6 3c 3d e5 71 d2 3c 4d f7 4b be 5b b1 02 3e
       0.046072524 0.025689075 -0.19918557 0.12762968
000290 6e 2a de 3d 25 37 36 3f c4 1e 05 bf d3 ee 19 3e
       0.108479366 0.71177894 -0.5200007 0.1503251
0002a0 2d 22 98 bd e7 0e 88 be 15 32 c8 3e 0f a6 89 bd
       -0.074283935 -0.2657387 0.3910071 -0.06721126
0002b0 68 13 a8 3e c3 af a7 bc 3c b3 4d 3e 9c 43 6a 3f
       0.32827306 -0.020469552 0.20087904 0.91509414
0002c0 35 f1 94 3e 5e 20 56 be f0 56 06 be 44 74 dc be
       0.29090276 -0.20910785 -0.13119102 -0.43057454
0002d0 7a 2e 22 be fb e8 d6 bd 46 21 73 be 59 2e 67 bd
       -0.15838042 -0.10493656 -0.23743162 -0.056440685
0002e0 be 17 bb bb 5e ff e0 3d a9 e8 17 3d df 4a 3d 3e
       -0.0057096174 0.109862074 0.037087116 0.18485592
0002f0 14 23 23 3e a8 69 34 be 4a d9 de bd 74 44 f9 3c
       0.1593135 -0.1761843 -0.10881288 0.030428149
000300 7f 22 30 3e bc fc 8f bb 80 b9 1e 3e 45 50 72 be
       0.17200659 -0.004394142 0.1550045 -0.23663433
000310 92 7b d5 be b6 99 3f be 36 26 95 bd 6a 91 8d bd
       -0.4169584 -0.1871098 -0.07282679 -0.06912501
000320 7d 5b 52 be c0 0a 5b 3e e9 5b 1a 3e 53 0e d7 3d
       -0.20542713 0.2139082 0.15074123 0.10500779
000330 57 5a 26 be 69 a3 cd bd aa a5 78 bd d4 21 61 3e
       -0.162454 -0.10040934 -0.060704865 0.2198556
000340 06 74 84 3e ba 4e 07 3e e4 89 94 bc 44 dc c6 bc
       0.2586977 0.13213626 -0.018132158 -0.024274953
000350 ca 3b 61 be 4d c2 00 3e c3 4c ce bc 8c 90 36 bc
       -0.21995464 0.1257412 -0.025183087 -0.011142861
000360 ac 6b 04 3e 97 f3 8a 3c 83 05 db bc 9d ab b3 3d
       0.12931699 0.016961856 -0.026736027 0.08772967
000370 03 46 58 be 4f 64 84 bd ff b3 f9 bd 2e 5e 84 be
       -0.21120457 -0.06464445 -0.12192535 -0.25853103
000380 35 1b 96 be d5 59 b9 be 0f 4f 15 bd 35 39 ea bd
       -0.29317632 -0.3620135 -0.03645235 -0.114366926
000390 98 75 09 bc 86 0f 8b bd e2 99 d4 3c 90 1d 0c 3e
       -0.008389853 -0.0679007 0.025952283 0.13683152
0003a0 8a 24 a7 3e a7 99 11 3c f9 b1 89 3e 61 7d f6 3d
       0.32645065 0.008886731 0.26893595 0.12035633
0003b0 3c 1d b6 3c 66 f6 ff be 62 1a 64 be cb e1 33 3e
       0.022230737 -0.49992675 -0.22275689 0.17566602
0003c0 9b c6 a0 3e f1 51 24 3f 3a 57 f1 3e 18 35 a5 bc
       0.31401524 0.6418753 0.4713686 -0.020166919
0003d0 94 10 5c be 9b 3f 8f 3e cd 9e 0b be d6 a7 bb bd
       -0.21490699 0.27978215 -0.13634796 -0.091628715
0003e0 ef b6 db be a9 97 d0 bd b8 f8 60 3e ea 5a b1 bc
       -0.42913005 -0.10185177 0.21969879 -0.021649797
0003f0 1b ef 8c bd 29 1b 4d 3d 3e b9 2f be b5 be 1d be
       -0.06881543 0.05007473 -0.17160508 -0.1540478

fc.0.bias f4 [512]
000000 41 71 96 3c d9 9f a5 bc c5 c0 ba bc 1b 61 17 bc
       0.01836455 -0.020217823 -0.022796998 -0.00923946
000010 7e ce cf bd ef 83 2d 3d 9f 70 33 3d d2 f9 bb 3c
       -0.10146807 0.04236215 0.043808576 0.022946272
000020 e6 79 74 bd 0a fe 99 3d 2b c1 bf 3c d1 17 92 3d
       -0.059686564 0.07519157 0.02340754 0.07133449
000030 05 b2 25 bd 46 c8 82 bd db c3 11 bd 4c 94 3b 3d
       -0.040452976 -0.063858554 -0.035587173 0.045795724
000040 78 3a 18 3c 7d 1f c3 ba 9d c5 9b 39 49 04 8b 3d
       0.009291284 -0.0014886704 0.00029711137 0.06787927
000050 16 be 36 3a 88 26 0b bd b6 87 20 3b 15 1e ae bd
       0.0006971074 -0.033972293 0.0024494953 -0.085018314
000060 62 20 92 bd 58 a4 1e 3c ff fe d3 38 64 8f 0b bd
       -0.07135083 0.009682737 0.00010108761 -0.034072295
000070 78 bf b6 3d d1 9d d6 bc c3 e8 0c bd 3c 9d 4b 39
       0.089232385 -0.0261983 -0.034401666 0.00019418163
000080 fa e9 7d 3d 24 c5 f2 bd a6 dd 4d bd 20 ad 85 bb
       0.061990716 -0.11854008 -0.05026021 -0.004079476
000090 0d a0 49 bd 9a ca d2 ba 4c 60 cb bb a5 14 b5 3c
       -0.049224902 -0.0016082108 -0.006206548 0.02210457
0000a0 dd 0e 28 3b 69 97 11 3d 2a c1 55 3d c1 a8 26 3d
       0.0025643625 0.035544787 0.05218617 0.04068828
0000b0 dc b3 82 bc c5 ff 5c bd 33 cb 70 3c 67 6e 79 bc
       -0.015954904 -0.05395486 0.014696884 -0.015224076
0000c0 37 c5 01 be db c8 be bd 58 bc a2 bd 6f 94 93 bc
       -0.12672888 -0.09315654 -0.0794608 -0.018015115
0000d0 a2 13 05 3c 42 51 a1 bc 0e 73 2f 3d 59 20 62 3d
       0.008122357 -0.019692067 0.042834334 0.05520663
0000e0 40 8d f2 bd 53 ce 76 3d b4 fa be bc aa ea 07 3c
       -0.118433475 0.06025536 -0.023312904 0.008295694
0000f0 da c3 42 3d ed f8 b3 bd 53 b9 2a be 92 d0 88 3c
       0.04755006 -0.08787713 -0.16672258 0.016701017
000100 92 23 95 bb 94 3a 05 3c 33 5a 96 3c 7f b3 48 bd
       -0.0045513595 0.008131642 0.018353557 -0.048999306
000110 51 23 8d bd 8c d1 09 bd dc 0b a4 3c 3f 17 25 bc
       -0.06891502 -0.033647105 0.020025186 -0.010076343
000120 fe 51 01 3d f3 e7 d6 bd 46 6d 64 bd 84 6d 14 3c
       0.031572334 -0.104934596 -0.055768274 0.009059314
000130 74 b9 be bd a9 ad 29 bd ee 51 52 3b 47 cb bb bd
       -0.09312716 -0.04142538 0.003209229 -0.091696315
000140 ef 7b 79 bc 2c 5b 71 bd 8f f9 1b bd 8f 5a ed bb
       -0.015227302 -0.05892484 -0.038079794 -0.0072434614
000150 72 61 ae 3b d5 5a 3b bc d6 de 32 bd 26 05 5d 3c
       0.005321675 -0.01143523 -0.043669544 0.013489997
000160 c6 e4 b1 3c 12 73 a3 bb bb 1f 12 3c 05 fb 5a be
       0.021715533 -0.0049880827 0.008918698 -0.21384819
000170 9b 0b 1d bd 98 28 a9 3c 6e 9e 95 3c 5e 63 fb 3c
       -0.038341146 0.02064924 0.018264022 0.03068703
000180 01 08 b6 bd 0e 0c 2a 3c f3 cb 40 3d fa 03 af bc
       -0.088882454 0.010378851 0.0470695 -0.0213642
000190 70 fd f7 bd 22 94 84 bd a6 1d e3 bc c6 65 5a bb
       -0.12108886 -0.064735666 -0.027724098 -0.0033324822
0001a0 d5 e5 4f be f2 31 85 bd 04 68 37 3d 15 e2 5a bc
       -0.20302518 -0.06503667 0.04477693 -0.013359566
0001b0 c3 d9 8b 3c bd 23 04 3d 74 f5 e9 bd fc 02 ea 3c
       0.01707161 0.032260645 -0.114237696 0.028565876
0001c0 0b 65 e6 3b b8 c4 c7 bd a6 3a ca 3c 90 b9 f0 bd
       0.007031088 -0.09754318 0.024686169 -0.11754143
0001d0 8e 66 11 bc 7d d2 80 bc 45 55 fa 3c 81 4f 86 3b
       -0.008874549 -0.015725369 0.030558238 0.004098833
0001e0 ce 81 bc 3c de bd c0 3b b8 16 ca bd 96 01 8a bb
       0.023011114 0.005882009 -0.098676145 -0.004211615
0001f0 ae bc b2 bd 00 a4 8b bc d8 81 1b 3c 82 7c 5f bb
       -0.08727394 -0.017045975 0.009491406 -0.0034101312
000200 67 3a aa bb c7 65 dc bc 5f a6 ee 3c 25 cf 05 bd
       -0.0051949504 -0.026904 0.029132066 -0.03266825
000210 ae 9c 08 bd 02 e0 2c 3d 74 5e 6d 3d fe cd 31 3d
       -0.033352546 0.042205818 0.057951406 0.04340934
000220 e6 b6 94 3c 2d 75 28 bd ec 4c b1 bb 60 97 c5 3c
       0.018153619 -0.041127373 -0.005410781 0.024120033
000230 b5 0b a0 bd 0d 5d 0e be 73 8d 7d bd d6 4b 5d bd
       -0.07814733 -0.13902684 -0.061902475 -0.0540274
000240 c9 02 91 bd f4 05 62 3d fb 7e 5d bd ea dd 2c 3c
       -0.07080609 0.05518146 -0.054076176 0.010550955
000250 04 fa 1c bc 64 06 2c 3b 3c 7c e2 bb 9e 81 0c 3c
       -0.009581093 0.0026248926 -0.0069117825 0.008575825
000260 74 5b dc bd 43 94 88 bb 51 1e 32 bd 89 e2 7f bd
       -0.10759631 -0.004168065 -0.043485943 -0.0624719
000270 91 4d 47 bd b9 24 05 3d 19 26 4f bd 8d df 83 3c
       -0.048657957 0.032505725 -0.050573442 0.016097808
000280 f5 b8 25 be 6b ee a5 3d 46 bd c1 ba 3a a4 53 3d
       -0.16183837 0.08102115 -0.0014781139 0.05167029
000290 8c e4 bf 3b 10 92 16 bd ba 32 18 bd 3b 96 34 bc
       0.0058561023 -0.03676039 -0.03715775 -0.011022146
0002a0 b6 70 79 bc 72 77 06 3d 6a b1 08 bd e3 da fa 3c
       -0.015224626 0.032828756 -0.03337232 0.030621951
0002b0 d5 eb dc bd 90 54 18 3d a1 84 6c bd 43 60 5d 3c
       -0.10787169 0.03719002 -0.057743672 0.01351172
0002c0 d6 30 59 bd a8 35 75 bd c1 e2 89 bd 53 c7 e9 3c
       -0.05302509 -0.059865624 -0.06732703 0.028537428
0002d0 b2 13 92 bd 4b 5e 8b 3d 44 8a 8d bd 91 17 80 3a
       -0.07132663 0.06805094 -0.06911138 0.0009772648
0002e0 c5 a8 82 3d 5d 3d 06 3d 5a 55 35 3d f5 06 fb 3c
       0.063798465 0.032773364 0.04427085 0.030642966
0002f0 c7 f5 ee 3c a5 46 3a bb 7c 31 05 be 8e a1 c0 bd
       0.02916993 -0.0028423455 -0.13007158 -0.09405814
000300 0b 3f 53 3c 56 a3 4f bd d5 a1 36 bd 5b 1e cc bd
       0.012893449 -0.05069288 -0.04458793 -0.09966727
000310 2c 83 af bc d5 ab 81 3c 8a ca cd bd d1 f4 20 3d
       -0.021424852 0.015829006 -0.10048397 0.039295975
000320 fe 50 19 bd 2d 90 c7 bd bb c0 0c be 31 b4 2a bc
       -0.037430756 -0.09744296 -0.13745396 -0.010418938
000330 2c 9e 1d 3d 7c 48 1e bd 20 5c 1d bd 49 d0 e9 3b
       0.038480923 -0.038643345 -0.038417935 0.007135425
000340 3f db f1 bd 6c 6f 5c 3d 9a e7 cc bd 64 b3 0b be
       -0.11809396 0.053817198 -0.10005112 -0.13642651
000350 59 9d dc bb f5 bc 96 bc 4e 8d 2c 3c ad 9f 69 be
       -0.0067326245 -0.018400649 0.010531737 -0.22814818
000360 3a 62 1c bc 84 99 24 3d 1b a5 a3 3c 76 6d bf 3c
       -0.009544903 0.040185466 0.01997619 0.023367625
000370 3a 37 b4 3b 6a 33 c5 bd 52 fc 3f bd 59 e4 71 3d
       0.0054997476 -0.09628947 -0.04687149 0.05905566
000380 0b 04 f0 bc 95 47 7c 3d 23 c8 b8 bd 42 73 50 3b
       -0.029298803 0.061591703 -0.09022548 0.003180698
000390 ef 18 fb 3c 52 bb 28 be cf a8 18 3d ab c1 15 be
       0.030651538 -0.16477707 0.037270363 -0.1462466
0003a0 af d8 0a 3d ac 32 8d 3d f5 a0 1d bd 4f dc ef 3c
       0.03389805 0.068944305 -0.03848358 0.029279856
0003b0 6e 0a 48 bb 4d ee 90 bb 6c 10 5e bc f3 5e 7e bd
       -0.0030523795 -0.004422939 -0.01355372 -0.06210227
0003c0 84 53 47 bd 0b db f4 3c ab e9 c6 bd 7a f3 16 3d
       -0.04866363 0.029889604 -0.097125374 0.03685329
0003d0 fb b4 8a bd be 0c d0 b9 93 e0 8d bd e5 0e 04 bc
       -0.067728005 -0.00039682345 -0.069276 -0.008060192
0003e0 83 52 aa 3d ff 93 68 bd 21 e6 10 be 5f ac c7 bc
       0.08316519 -0.056781765 -0.14150287 -0.024374185
0003f0 db 31 3c 3a b9 a3 60 3d 78 e7 8e 3a 39 2a 67 3d
       0.000717906 0.054843638 0.0010902723 0.05643675

fc2.0.weight f4 [32, 512]
000000 cc 35 ca 3e e3 3b d6 3e d4 54 7b 3e 52 40 45 be
       0.3949417 0.41842565 0.24544078 -0.19262818
000010 10 99 93 be 88 18 b0 3e 07 93 e9 3d c1 ac 17 be
       -0.28827715 0.34393716 0.11404996 -0.14811994
000020 4c 8b 30 3f 4b c3 15 3e cf 48 41 bc 0d 35 be bd
       0.6896255 0.1462528 -0.011797144 -0.092874624
000030 f0 23 dd 3e 6f eb 6c 3e 30 8a f4 3e 86 67 08 bd
       0.4319148 0.23136686 0.4776168 -0.033301853
000040 38 84 c1 3e 18 de dd 3e a0 4b 01 3f 10 14 8f be
       0.37796187 0.43333507 0.5050602 -0.27944994
000050 8d c1 9d 3e f2 eb b5 3e 24 9a 8e 3e 91 e3 d6 3e
       0.3081173 0.35531574 0.27851975 0.41970494
000060 2c 2b b1 3e ed 9b 6e 3d e1 16 ee 3c 2c 87 07 3f
       0.3460325 0.05825417 0.029063644 0.5294063
000070 de e3 97 3d 22 ce c9 ba 71 85 74 3e da fc 0a 3f
       0.07416509 -0.0015396515 0.23879029 0.5429207
000080 f4 29 d7 bc 2f 78 9a 3c a7 a7 eb 3e 0c f0 32 3e
       -0.026265122 0.018856136 0.46026346 0.17474383
000090 32 b5 3f 3d 57 ac f9 3e 08 44 e1 3e 88 ab 40 3e
       0.04680366 0.48764297 0.43997216 0.18815434
0000a0 ee 01 17 3d e9 c0 2f 3f f4 52 92 3e dd e2 1c 3e
       0.036867075 0.6865373 0.28578913 0.15320916
0000b0 04 a8 99 3f d0 66 64 3b 28 6d c8 3e 76 87 b0 3a
       1.2004399 0.003485132 0.3914578 0.0013468105
0000c0 fc 07 8a 3c f0 c2 35 3e c3 e3 43 3c 44 02 84 3d
       0.01684951 0.17750144 0.011956158 0.06445745
0000d0 cc dc 9a 3e 70 3c 33 3e ac 6c 5c be 35 1f 19 be
       0.3024658 0.17503524 -0.2152583 -0.14953311
0000e0 52 a7 e5 3e fb 70 8a be 25 b1 3e 3b 6b 87 13 3e
       0.44854218 -0.27039322 0.0029097286 0.14407127
0000f0 9f 88 5c 3f 2f 07 17 3c cb 55 f1 3d 8e 81 0b 3f
       0.8614597 0.009218021 0.11783942 0.5449456
000100 f7 27 bb 3e fc 2e c4 3d b6 45 49 bc 2f 4b ae 3d
       0.36553928 0.09579274 -0.012284687 0.08510434
000110 31 a4 70 3d 15 9e 7a bc 89 44 f9 bd f2 1e 36 3f
       0.058750335 -0.015296479 -0.12171275 0.7114097
000120 8c f8 12 3e b3 c6 11 bd 51 d0 b8 3e b3 b3 b5 3d
       0.14352626 -0.035589885 0.36096433 0.088721655
000130 92 e8 3a be fc cc e0 3e eb 62 dd 3e 04 53 a8 3e
       -0.18252781 0.4390639 0.4323953 0.32875836
000140 14 0d 29 3f 60 cf 6e be 5b 81 02 be 65 82 44 3e
       0.6603558 -0.23321295 -0.12744658 0.19190367
000150 f8 5c 42 3e e5 9e 0a 3e bc ef 5a bd 8d 8e e2 3e
       0.18980777 0.13537176 -0.053451285 0.44249383
000160 14 28 1c 3e 35 22 58 bd 4a 67 f9 3e 3c 5e 07 3e
       0.15249664 -0.052766997 0.48711616 0.13219541
000170 99 c9 16 be e5 8e 10 3f af fa 03 3e 32 45 a8 3e
       -0.14725341 0.5646804 0.12888597 0.32865292
000180 8c c1 53 3e d1 f5 2c 3e ae f2 99 be 6c 23 c3 3e
       0.20679301 0.16890647 -0.30067962 0.38112962
000190 a0 2a 34 3f ab d1 60 3e 50 84 2c 3f d8 05 8a 3e
       0.7037754 0.21954982 0.6738939 0.26957583
0001a0 01 a0 ca 3e f5 92 78 3e b7 b4 13 be fa b9 cb 3e
       0.39575198 0.2427481 -0.14424406 0.39790326
0001b0 f5 b9 8b 3e 04 21 dc 3e 6f b4 07 3d 69 0a 02 3f
       0.2729031 0.4299394 0.03313106 0.50797135
0001c0 c6 5f 20 3e 40 2a 5a 3d d2 f8 80 bd a0 03 12 3f
       0.15661535 0.05326295 -0.06297459 0.5703678
0001d0 10 4d 62 be 03 05 f2 3e 1e f9 1f 3e f9 9d 05 bc
       -0.2209971 0.4726945 0.15622374 -0.008155339
0001e0 a8 eb 17 3f 36 99 50 3e 93 6d ac 3b 86 b0 10 3f
       0.5934396 0.20370945 0.0052620857 0.56519353
0001f0 c8 8f d0 3e 75 a7 0b be a4 99 03 3e 42 60 ac 3e
       0.40734696 -0.13638099 0.12851578 0.3366719
000200 b6 90 39 3e 97 c5 17 3f 73 78 c9 bc c5 3d 85 3e
       0.18121609 0.59285873 -0.024593567 0.2602369
000210 f5 14 37 3f 6a e7 29 3d cf 8c 83 3e d5 c1 22 bc
       0.7151635 0.04148046 0.25693366 -0.0099339085
000220 eb ec 9b 3e eb 74 c1 3d e5 86 e3 3e 42 73 50 be
       0.30454192 0.094461285 0.44438854 -0.20356467
000230 bc 98 29 3e e0 18 ae 3e 3b ab 53 be 79 a0 2d bd
       0.1656217 0.34003353 -0.20670788 -0.042389367
000240 5c e7 8f 3e 29 56 d1 3e 4c b6 ae bd fd 2b 0c 3e
       0.281062 0.40886047 -0.08530864 0.13688655
000250 12 dd 5b 3f ec 26 84 3e c7 5e 0c be 78 66 0f 3e
       0.858842 0.25810945 -0.1370803 0.14003932
000260 20 08 2b bc eb f6 d0 3c 4a 1f ef 3c 6b 9e 20 3f
       -0.010438949 0.025508365 0.029189724 0.62741727
000270 47 b1 4f bb 6f 9a da 3e b3 f0 69 3e df 38 9e be
       -0.003169136 0.42695948 0.22845726 -0.30902764
000280 9d 57 29 3f 07 9c 9f bd 8c 35 93 3c 3b 94 79 3e
       0.6614931 -0.07793432 0.01796987 0.24372952
000290 bf fa cc 3e 15 97 61 3f a8 e3 02 3f b6 3b 53 3f
       0.40035054 0.8812116 0.51128626 0.82512987
0002a0 8f 35 bc 3e 9d 2c 16 3e 0b bc b7 3e e8 ed f7 3d
       0.36759612 0.14665456 0.35885653 0.12105924
0002b0 cf 32 27 3d 89 68 a4 3d 20 7e 10 be b3 9b b9 3e
       0.04081994 0.08027751 -0.14110613 0.36251602
0002c0 79 e8 a6 3e 53 6a 33 3f 27 d8 d7 3e b5 f6 bd 3e
       0.32599238 0.7008411 0.421571 0.37102285
0002d0 12 13 14 bc d2 e7 c3 bd e6 4e bc 3e 0a f9 29 3f
       -0.00903775 -0.095657006 0.36778945 0.6639563
0002e0 9a 6c ec 3e ea e8 0a bc e9 2e 94 3d b0 06 50 3e
       0.46176606 -0.008478383 0.0723551 0.20315051
0002f0 a5 8a 8b 3e 0e e0 f1 3e c7 14 2a 3d cf 7c 41 3f
       0.27254215 0.47241253 0.04152372 0.7558107
000300 24 5f f5 3d 09 89 23 be 30 e3 50 3f 70 ad 1c bd
       0.11981037 -0.15970244 0.8159666 -0.03825134
000310 12 cf 84 bd 19 85 0b bd 91 95 a8 3c 0d fa e0 3e
       -0.06484808 -0.03406248 0.020579131 0.43940774
000320 75 dc a2 3e 5d fe 52 3f 4c 84 cf 3a f7 f0 bf bd
       0.3180882 0.8241938 0.0015832274 -0.09372132
000330 49 10 0c be 21 fd 14 3f 6f 9e 56 3e 85 18 ac 3e
       -0.13678087 0.58198744 0.20958875 0.33612457
000340 32 b0 31 3d 15 84 44 bd 5f 7a d3 be 7c 25 8a 3d
       0.043380924 -0.047977526 -0.413043 0.06745431
000350 fd 86 bc 3e 25 e3 c8 3e 0b 6c d0 3d 88 97 b4 3e
       0.36821738 0.39235798 0.101768576 0.3527186
000360 31 f1 0a 3f cc 29 3c 3e fe 5b 01 3f 5d b1 86 3e
       0.5427428 0.18375319 0.50530994 0.26307192
000370 2b 76 9b 3e 02 09 56 3d 69 e2 9e bc 6b ad d5 bd
       0.30363593 0.052254684 -0.01939507 -0.104334675
000380 52 70 8e be 61 f1 31 3d 07 07 7c be cf 75 36 3f
       -0.2782007 0.043443087 -0.24612056 0.7127351
000390 28 b1 90 3e ad 6d dc 3e 58 1a 88 bd 40 61 3e 3f
       0.2826016 0.43052426 -0.0664565 0.7436714
0003a0 9e 3b 02 3e 48 71 21 3e 3c 96 ba 3e a0 98 2a 3f
       0.12718055 0.1576587 0.36442745 0.6663914
0003b0 c7 44 3b 3e aa a4 bc 3e a7 38 88 bd ed 22 ba 3c
       0.18287955 0.3684438 -0.066514306 0.022721732
0003c0 fd 67 93 3e 76 8f d8 3d 92 5b 9e 3c 3c c4 fa 3e
       0.28790274 0.10574238 0.019330774 0.4897784
0003d0 de 06 8f 3e 01 a0 91 3d 30 73 25 3f cf 57 02 3f
       0.27934927 0.071105964 0.6462889 0.50915235
0003e0 11 37 d4 3d de 1b b4 3e 66 20 e9 bb 61 c9 1d 3d
       0.103620656 0.3517751 -0.007114458 0.038522128
0003f0 ab 51 90 3e 3c 27 de 3e 4e 90 31 3d 06 18 52 3e
       0.28187308 0.43389308 0.04335051 0.20516977

fc2.0.bias f4 [32]
000000 77 7a 9b bd fd ff aa 3d 0f ba 1b bd 37 c2 84 3d
       -0.07591718 0.08349607 -0.038019236 0.06482356
000010 be 6c 8f bd 6d 90 ce bd af dd 86 bd 6c 9a 2d bd
       -0.07003163 -0.10086141 -0.065852515 -0.042383596
000020 aa 46 c5 bd 02 2e 8d bd 09 c2 98 bc 09 35 ae bd
       -0.09632619 -0.06893541 -0.01864721 -0.085062094
000030 82 f6 c0 3d ac 04 45 bd 64 22 62 bd 14 e3 71 bd
       0.09422018 -0.04810016 -0.05520858 -0.05905445
000040 0e db aa 3d a6 8f a9 bd 1d 96 94 3d c4 a9 33 bd
       0.083425626 -0.08279352 0.07255194 -0.043863073
000050 64 e3 7e bd b9 0e ce 3d 16 41 56 bc 32 9b c5 3d
       -0.062228575 0.10061402 -0.013077041 0.09648742
000060 01 31 d0 3d d4 e5 d6 bd 5e cf 8b 3d 04 cf b7 3d
       0.10165597 -0.10493055 0.068266615 0.08975032
000070 4b a0 9f 3d 5b 6f 93 bd f0 d8 86 bd 06 38 c7 3d
       0.07794245 -0.07198974 -0.06584346 0.097274825

out.0.weight f4 [1, 32]
000000 e0 f1 ce bf 21 9c 12 3f 7f 42 91 3d 20 41 4b 3f
       -1.6167564 0.57269484 0.07092761 0.7939625
000010 85 e9 a1 bf f0 12 99 bf f1 a4 ab bf 7d c4 48 bb
       -1.264939 -1.1958904 -1.3409711 -0.0030634694
000020 c2 9a a2 bf 06 36 ac bf 4b 92 fc 3d b0 17 94 bf
       -1.2703478 -1.3453987 0.12332591 -1.1569729
000030 be 89 80 3f ac dc b5 bf fb 82 81 3d 0b 86 18 3e
       1.0042036 -1.4207969 0.06323811 0.14894883
000040 41 41 18 3f f0 f8 a3 bf c3 45 13 3f aa 88 98 3d
       0.5947457 -1.2810345 0.5752832 0.074479416
000050 b8 db b4 bf 19 a6 59 3f 14 4e 0d 3d dd 22 4f 3f
       -1.4129553 0.8501907 0.03449829 0.8091257
000060 76 9d 61 3e 5e e3 93 bf 0d 9e 40 3f d2 48 32 3f
       0.22032723 -1.1553762 0.75241166 0.69642365
000070 0e 8b 8b 3f 28 7f 95 bf e6 bb 98 bf e5 c7 63 3f
       1.0901811 -1.167943 -1.1932342 0.8897689
