model/20240326-20-try2/cnn.pth (torch, 403956 bytes, 25 tensors)

conv.0.weight f4 [16, 6, 3, 3]
000000 3b 89 00 80 d6 89 00 80 31 91 00 80 70 89 00 80
       -4.9229e-41 -4.9446e-41 -5.2085e-41 -4.9303e-41
000010 39 89 00 80 ed 9a 00 00 f1 88 00 80 4e 89 00 80
       -4.9226e-41 5.5577e-41 -4.9125e-41 -4.9256e-41
000020 02 89 00 00 ee 89 00 80 ce 88 00 80 c8 92 00 80
       4.9149e-41 -4.948e-41 -4.9076e-41 -5.2655e-41
000030 d9 98 00 00 d0 a6 00 00 16 89 00 80 a1 89 00 00
       5.4831e-41 5.9841e-41 -4.9177e-41 4.9372e-41
000040 5c 89 00 00 d1 88 00 80 25 89 00 00 49 89 00 00
       4.9275e-41 -4.908e-41 4.9198e-41 4.9249e-41
000050 16 89 00 80 31 95 00 00 61 89 00 80 f5 89 00 00
       -4.9177e-41 5.352e-41 -4.9282e-41 4.949e-41
000060 ef 89 00 80 e4 88 00 00 7a 89 00 80 5a 89 00 00
       -4.9481e-41 4.9107e-41 -4.9317e-41 4.9272e-41
000070 32 89 00 80 54 a0 00 80 d0 89 00 00 43 89 00 80
       -4.9216e-41 -5.7515e-41 4.9438e-41 -4.924e-41
000080 27 8a 00 80 e2 89 00 00 52 89 00 80 67 89 00 00
       -4.956e-41 4.9463e-41 -4.9261e-41 4.929e-41
000090 d5 88 00 00 a0 89 00 80 9c 89 00 00 ca 88 00 80
       4.9086e-41 -4.937e-41 4.9365e-41 -4.907e-41
0000a0 bb 89 00 80 ce 89 00 00 c5 88 00 80 1d 89 00 80
       -4.9408e-41 4.9435e-41 -4.9064e-41 -4.9187e-41
0000b0 18 89 00 80 57 89 00 80 7e 89 00 00 a1 89 00 00
       -4.918e-41 -4.9268e-41 4.9323e-41 4.9372e-41
0000c0 f8 88 00 00 73 89 00 00 da 88 00 00 ad 89 00 00
       4.9135e-41 4.9307e-41 4.9093e-41 4.9389e-41
0000d0 ff 88 00 00 0d 89 00 80 cf 89 00 80 d3 89 00 80
       4.9145e-41 -4.9165e-41 -4.9436e-41 -4.9442e-41
0000e0 f2 89 00 80 52 89 00 80 27 a7 00 80 d5 88 00 00
       -4.9485e-41 -4.9261e-41 -5.9963e-41 4.9086e-41
0000f0 6e 89 00 80 da 89 00 00 c9 88 00 80 7f ae 00 00
       -4.93e-41 4.9452e-41 -4.9069e-41 6.2597e-41
000100 c5 89 00 80 bf 89 00 80 6f 89 00 00 ec 88 00 80
       -4.9422e-41 -4.9414e-41 4.9302e-41 -4.9118e-41
000110 10 8a 00 80 d4 89 00 00 00 8a 00 00 bd 88 00 00
       -4.9527e-41 4.9443e-41 4.9505e-41 4.9052e-41
000120 16 89 00 80 28 89 00 00 6f 89 00 00 72 89 00 00
       -4.9177e-41 4.9202e-41 4.9302e-41 4.9306e-41
000130 d0 89 00 80 4c 89 00 00 e6 94 00 00 0c 89 00 80
       -4.9438e-41 4.9253e-41 5.3415e-41 -4.9163e-41
000140 49 89 00 00 5e 89 00 00 06 89 00 00 8e 89 00 80
       4.9249e-41 4.9278e-41 4.9155e-41 -4.9345e-41
000150 d6 88 00 80 60 89 00 00 96 89 00 00 a9 89 00 00
       -4.9087e-41 4.9281e-41 4.9357e-41 4.9383e-41
000160 dc 88 00 00 c4 89 00 80 e5 88 00 00 a3 89 00 80
       4.9096e-41 -4.9421e-41 4.9109e-41 -4.9375e-41
000170 6c 89 00 00 99 89 00 00 33 89 00 00 ee 89 00 80
       4.9298e-41 4.9361e-41 4.9218e-41 -4.948e-41
000180 eb a4 00 80 c7 88 00 80 e8 9c 00 80 b8 89 00 00
       -5.9161e-41 -4.9066e-41 -5.6287e-41 4.9404e-41
000190 e9 88 00 00 8b 89 00 80 47 89 00 80 0c 9b 00 00
       4.9114e-41 -4.9341e-41 -4.9246e-41 5.562e-41
0001a0 f6 88 00 00 a9 89 00 00 43 89 00 80 ef 89 00 80
       4.9132e-41 4.9383e-41 -4.924e-41 -4.9481e-41
0001b0 e6 88 00 00 10 89 00 00 c3 88 00 00 1b 89 00 80
       4.911e-41 4.9169e-41 4.9061e-41 -4.9184e-41
0001c0 ea 88 00 80 13 89 00 80 e6 89 00 00 f9 99 00 80
       -4.9116e-41 -4.9173e-41 4.9469e-41 -5.5235e-41
0001d0 ca 89 00 00 f6 89 00 00 bf 89 00 80 2d 89 00 00
       4.943e-41 4.9491e-41 -4.9414e-41 4.921e-41
0001e0 42 89 00 80 0a 89 00 80 14 89 00 80 6a 99 00 00
       -4.9239e-41 -4.916e-41 -4.9174e-41 5.5035e-41
0001f0 c0 88 00 80 17 89 00 00 15 89 00 00 89 89 00 80
       -4.9057e-41 4.9179e-41 4.9176e-41 -4.9338e-41
000200 47 89 00 00 ce 89 00 00 f5 88 00 00 be 88 00 00
       4.9246e-41 4.9435e-41 4.9131e-41 4.9054e-41
000210 eb 89 00 00 7c 89 00 80 e9 89 00 00 f6 89 00 80
       4.9476e-41 -4.932e-41 4.9473e-41 -4.9491e-41
000220 21 89 00 80 09 89 00 00 78 89 00 00 16 89 00 80
       -4.9193e-41 4.9159e-41 4.9314e-41 -4.9177e-41
000230 52 97 00 00 91 89 00 00 ff 89 00 00 40 89 00 80
       5.4283e-41 4.935e-41 4.9504e-41 -4.9236e-41
000240 da 89 00 80 d8 89 00 80 f1 88 00 80 73 92 00 80
       -4.9452e-41 -4.9449e-41 -4.9125e-41 -5.2536e-41
000250 c0 88 00 80 00 8a 00 80 80 89 00 80 f4 89 00 80
       -4.9057e-41 -4.9505e-41 -4.9326e-41 -4.9488e-41
000260 69 89 00 80 f7 88 00 80 ef 99 00 80 44 89 00 00
       -4.9293e-41 -4.9134e-41 -5.5221e-41 4.9242e-41
000270 6e 89 00 80 a0 89 00 80 d3 88 00 00 8f 89 00 00
       -4.93e-41 -4.937e-41 4.9083e-41 4.9347e-41
000280 f4 ae 00 80 8e 89 00 00 3e 89 00 00 d1 89 00 00
       -6.2761e-41 4.9345e-41 4.9233e-41 4.9439e-41
000290 a3 89 00 00 47 89 00 80 96 89 00 80 be 96 00 80
       4.9375e-41 -4.9246e-41 -4.9357e-41 -5.4076e-41
0002a0 a2 91 00 80 73 89 00 80 7f 9f 00 00 da 89 00 80
       -5.2243e-41 -4.9307e-41 5.7216e-41 -4.9452e-41
0002b0 95 89 00 80 d1 88 00 80 08 8a 00 80 d9 a2 00 80
       -4.9355e-41 -4.908e-41 -4.9516e-41 -5.8419e-41
0002c0 1f 89 00 00 09 8a 00 80 5c 89 00 80 2f 89 00 00
       4.919e-41 -4.9518e-41 -4.9275e-41 4.9212e-41
0002d0 ea 89 00 80 5d 89 00 80 ed 89 00 00 2b 89 00 80
       -4.9474e-41 -4.9277e-41 4.9478e-41 -4.9207e-41
0002e0 79 89 00 80 42 89 00 00 f5 89 00 00 be 89 00 00
       -4.9316e-41 4.9239e-41 4.949e-41 4.9413e-41
0002f0 e5 89 00 80 5f 89 00 80 7b 89 00 80 49 89 00 80
       -4.9467e-41 -4.928e-41 -4.9319e-41 -4.9249e-41
000300 de 89 00 00 bc 88 00 00 4a 89 00 80 e8 88 00 00
       4.9457e-41 4.9051e-41 -4.925e-41 4.9113e-41
000310 64 89 00 00 93 89 00 00 d0 88 00 00 db 88 00 00
       4.9286e-41 4.9352e-41 4.9079e-41 4.9094e-41
000320 37 89 00 00 12 a6 00 80 dc 88 00 80 d3 89 00 80
       4.9223e-41 -5.9575e-41 -4.9096e-41 -4.9442e-41
000330 3c 89 00 00 bd 88 00 80 de 88 00 00 f3 88 00 00
       4.923e-41 -4.9052e-41 4.9099e-41 4.9128e-41
000340 f4 88 00 80 1d 89 00 00 d0 89 00 00 94 89 00 80
       -4.913e-41 4.9187e-41 4.9438e-41 -4.9354e-41
000350 f5 89 00 80 02 89 00 00 b2 89 00 80 93 89 00 80
       -4.949e-41 4.9149e-41 -4.9396e-41 -4.9352e-41
000360 58 89 00 00 5d a2 00 00 a8 89 00 00 aa 89 00 80
       4.927e-41 5.8245e-41 4.9382e-41 -4.9385e-41
000370 20 89 00 80 f8 89 00 80 e0 89 00 00 9c 89 00 80
       -4.9191e-41 -4.9494e-41 4.946e-41 -4.9365e-41
000380 9b 89 00 00 0b 8a 00 80 04 89 00 00 ef 89 00 00
       4.9364e-41 -4.952e-41 4.9152e-41 4.9481e-41
000390 a6 89 00 00 25 89 00 00 0c 89 00 80 42 89 00 00
       4.9379e-41 4.9198e-41 -4.9163e-41 4.9239e-41
0003a0 17 89 00 00 b8 89 00 80 91 af 00 80 cf 88 00 80
       4.9179e-41 -4.9404e-41 -6.2981e-41 -4.9078e-41
0003b0 af 89 00 80 0d 89 00 00 1f 89 00 00 fa 88 00 80
       -4.9392e-41 4.9165e-41 4.919e-41 -4.9138e-41
0003c0 0b 8a 00 00 c0 89 00 00 06 8a 00 00 0a 89 00 80
       4.952e-41 4.9415e-41 4.9513e-41 -4.916e-41
0003d0 30 89 00 80 77 89 00 80 e8 88 00 80 10 8a 00 00
       -4.9214e-41 -4.9313e-41 -4.9113e-41 4.9527e-41
0003e0 7b 89 00 00 ad 94 00 00 5a 89 00 00 5f 89 00 00
       4.9319e-41 5.3335e-41 4.9272e-41 4.928e-41
0003f0 7b 89 00 00 57 89 00 00 2a 89 00 80 be 89 00 80
       4.9319e-41 4.9268e-41 -4.9205e-41 -4.9413e-41

conv.0.bias f4 [16]
000000 90 97 00 80 b5 8f 00 00 de 91 00 00 19 8a 00 80
       -5.437e-41 5.1552e-41 5.2327e-41 -4.954e-41
000010 ac 8e 00 80 de 8c 00 80 58 8e 00 00 b5 8c 00 80
       -5.1181e-41 -5.0534e-41 5.1063e-41 -5.0476e-41
000020 89 97 00 00 99 8c 00 80 6a 38 03 00 54 98 00 80
       5.436e-41 -5.0437e-41 2.95744e-40 -5.4645e-41
000030 25 a8 00 00 6c a6 00 80 24 a7 00 80 ce 88 00 00
       6.0319e-41 -5.9701e-41 -5.9959e-41 4.9076e-41

conv.1.weight f4 [16]
000000 7d 89 00 00 ea 88 00 00 c1 89 00 00 12 8a 00 00
       4.9322e-41 4.9116e-41 4.9417e-41 4.953e-41
000010 cc 88 00 00 36 89 00 00 11 8a 00 00 49 89 00 00
       4.9073e-41 4.9222e-41 4.9529e-41 4.9249e-41
000020 74 89 00 00 12 89 00 00 82 89 00 00 74 89 00 00
       4.9309e-41 4.9172e-41 4.9329e-41 4.9309e-41
000030 a2 89 00 00 e4 88 00 00 e4 89 00 00 92 89 00 00
       4.9373e-41 4.9107e-41 4.9466e-41 4.9351e-41

conv.1.bias f4 [16]
000000 5c 89 00 00 e3 88 00 00 a4 89 00 80 33 89 00 80
       4.9275e-41 4.9106e-41 -4.9376e-41 -4.9218e-41
000010 da 89 00 00 9c 89 00 00 57 89 00 00 a7 89 00 00
       4.9452e-41 4.9365e-41 4.9268e-41 4.938e-41
000020 bb 88 00 80 22 89 00 80 e3 88 00 80 73 89 00 00
       -4.905e-41 -4.9194e-41 -4.9106e-41 4.9307e-41
000030 c2 88 00 00 ba 88 00 80 05 8a 00 80 bd 89 00 80
       4.906e-41 -4.9048e-41 -4.9512e-41 -4.9411e-41

conv.1.running_mean f4 [16]
000000 d1 69 01 80 4a 21 00 00 3b 69 00 00 3c b8 01 80
       -1.29795e-40 1.1942e-41 3.775e-41 -1.57926e-40
000010 13 2b 00 00 32 94 00 80 bd 04 01 00 9b 48 11 10
       1.5452e-41 -5.3162e-41 9.3535e-41 2.865214e-29
000020 63 ff 00 00 a9 57 58 05 f7 7d 00 80 29 46 01 80
       9.1615e-41 1.0172372e-35 -4.5188e-41 -1.17004e-40
000030 ea 71 00 00 eb 5e 01 80 33 62 00 80 1a 4a 00 00
       4.0865e-41 -1.25886e-40 -3.5227e-41 2.6583e-41

conv.1.running_var f4 [16]
000000 04 00 00 00 04 00 00 00 04 00 00 00 04 00 00 00
       6e-45 6e-45 6e-45 6e-45
000010 04 00 00 00 04 00 00 00 04 00 00 00 04 00 00 00
       6e-45 6e-45 6e-45 6e-45
000020 04 00 00 00 04 00 00 00 04 00 00 00 04 00 00 00
       6e-45 6e-45 6e-45 6e-45
000030 04 00 00 00 04 00 00 00 04 00 00 00 04 00 00 00
       6e-45 6e-45 6e-45 6e-45

conv2.0.weight f4 [32, 16, 3, 3]
000000 00 89 00 80 f6 89 00 00 bc 89 00 00 d1 88 00 80
       -4.9146e-41 4.9491e-41 4.941e-41 -4.908e-41
000010 19 89 00 00 c3 89 00 00 0f 89 00 80 ee 88 00 00
       4.9181e-41 4.942e-41 -4.9167e-41 4.9121e-41
000020 e5 89 00 80 fe 89 00 80 0e 89 00 00 d7 88 00 00
       -4.9467e-41 -4.9502e-41 4.9166e-41 4.9089e-41
000030 df 88 00 00 95 89 00 80 ff 88 00 80 39 89 00 00
       4.91e-41 -4.9355e-41 -4.9145e-41 4.9226e-41
000040 88 89 00 00 7e 89 00 00 5b 89 00 80 dd 8c 00 80
       4.9337e-41 4.9323e-41 -4.9274e-41 -5.0532e-41
000050 98 89 00 80 db 89 00 80 6b 89 00 00 3f 89 00 80
       -4.936e-41 -4.9453e-41 4.9296e-41 -4.9235e-41
000060 00 8a 00 00 2b 89 00 80 ca 88 00 80 f8 89 00 00
       4.9505e-41 -4.9207e-41 -4.907e-41 4.9494e-41
000070 aa 89 00 80 d2 89 00 80 ad 89 00 80 f0 89 00 80
       -4.9385e-41 -4.944e-41 -4.9389e-41 -4.9483e-41
000080 b9 89 00 80 d7 88 00 80 d8 88 00 00 d3 89 00 80
       -4.9406e-41 -4.9089e-41 4.909e-41 -4.9442e-41
000090 17 89 00 00 f2 89 00 80 d1 89 00 00 72 89 00 00
       4.9179e-41 -4.9485e-41 4.9439e-41 4.9306e-41
0000a0 1f 89 00 80 d1 88 00 00 c6 aa 00 00 22 89 00 80
       -4.919e-41 4.908e-41 6.1262e-41 -4.9194e-41
0000b0 da 88 00 80 b6 89 00 00 16 89 00 00 fc 88 00 80
       -4.9093e-41 4.9401e-41 4.9177e-41 -4.9141e-41
0000c0 c7 88 00 80 14 89 00 00 d9 89 00 00 9f 89 00 80
       -4.9066e-41 4.9174e-41 4.945e-41 -4.9369e-41
0000d0 02 89 00 00 f6 89 00 80 96 89 00 00 87 89 00 00
       4.9149e-41 -4.9491e-41 4.9357e-41 4.9336e-41
0000e0 ce 88 00 80 58 89 00 80 5e 89 00 80 fa 88 00 80
       -4.9076e-41 -4.927e-41 -4.9278e-41 -4.9138e-41
0000f0 d7 89 00 00 5a 89 00 80 99 89 00 00 99 89 00 00
       4.9448e-41 -4.9272e-41 4.9361e-41 4.9361e-41
000100 05 89 00 00 af 89 00 80 6c 89 00 00 08 8a 00 80
       4.9153e-41 -4.9392e-41 4.9298e-41 -4.9516e-41
000110 0b 89 00 00 05 89 00 00 f9 a3 00 80 83 89 00 00
       4.9162e-41 4.9153e-41 -5.8822e-41 4.933e-41
000120 d4 89 00 80 cf 88 00 80 32 89 00 00 1a 89 00 80
       -4.9443e-41 -4.9078e-41 4.9216e-41 -4.9183e-41
000130 09 8a 00 00 e2 88 00 00 a4 9f 00 80 8a 89 00 80
       4.9518e-41 4.9104e-41 -5.7268e-41 -4.934e-41
000140 8b 89 00 80 e9 89 00 80 ac 89 00 80 75 89 00 80
       -4.9341e-41 -4.9473e-41 -4.9387e-41 -4.931e-41
000150 d1 88 00 80 66 89 00 80 9f 89 00 00 02 89 00 00
       -4.908e-41 -4.9289e-41 4.9369e-41 4.9149e-41
000160 b5 89 00 00 f8 89 00 00 4a 89 00 80 5b 89 00 00
       4.94e-41 4.9494e-41 -4.925e-41 4.9274e-41
000170 cc 89 00 00 df 88 00 00 c6 88 00 80 33 89 00 80
       4.9432e-41 4.91e-41 -4.9065e-41 -4.9218e-41
000180 55 89 00 80 c9 89 00 80 7b 89 00 80 0c 8a 00 00
       -4.9265e-41 -4.9428e-41 -4.9319e-41 4.9522e-41
000190 bc 88 00 80 2f 89 00 80 f0 88 00 00 3a 89 00 80
       -4.9051e-41 -4.9212e-41 4.9124e-41 -4.9228e-41
0001a0 2c 89 00 00 09 8a 00 00 ca 88 00 80 84 89 00 80
       4.9208e-41 4.9518e-41 -4.907e-41 -4.9331e-41
0001b0 40 89 00 00 5d 89 00 80 ab 89 00 80 1c 8a 00 80
       4.9236e-41 -4.9277e-41 -4.9386e-41 -4.9544e-41
0001c0 d9 89 00 00 05 8a 00 80 d3 89 00 00 e6 88 00 00
       4.945e-41 -4.9512e-41 4.9442e-41 4.911e-41
0001d0 c3 88 00 80 db 88 00 00 89 89 00 80 04 89 00 80
       -4.9061e-41 4.9094e-41 -4.9338e-41 -4.9152e-41
0001e0 1f 89 00 80 7a 89 00 00 49 89 00 80 36 89 00 80
       -4.919e-41 4.9317e-41 -4.9249e-41 -4.9222e-41
0001f0 0b 8a 00 00 47 89 00 80 9b 89 00 80 07 89 00 80
       4.952e-41 -4.9246e-41 -4.9364e-41 -4.9156e-41
000200 bf 88 00 80 43 89 00 80 c1 89 00 00 fe 88 00 80
       -4.9055e-41 -4.924e-41 4.9417e-41 -4.9144e-41
000210 f5 89 00 80 32 89 00 00 3a 89 00 00 08 8a 00 80
       -4.949e-41 4.9216e-41 4.9228e-41 -4.9516e-41
000220 0f 89 00 00 93 a3 00 00 0c 8a 00 80 a7 8f 00 00
       4.9167e-41 5.868e-41 -4.9522e-41 5.1533e-41
000230 e9 88 00 80 b7 89 00 80 07 8a 00 80 b1 89 00 00
       -4.9114e-41 -4.9403e-41 -4.9515e-41 4.9394e-41
000240 fc 88 00 00 fb 88 00 80 b0 89 00 80 da 89 00 80
       4.9141e-41 -4.914e-41 -4.9393e-41 -4.9452e-41
000250 4d 89 00 80 ed 88 00 00 22 89 00 00 f9 88 00 00
       -4.9254e-41 4.912e-41 4.9194e-41 4.9137e-41
000260 a9 89 00 80 19 89 00 00 51 89 00 80 19 89 00 80
       -4.9383e-41 4.9181e-41 -4.926e-41 -4.9181e-41
000270 2e 89 00 80 10 89 00 00 bf 8a 00 80 dd 88 00 80
       -4.9211e-41 4.9169e-41 -4.9773e-41 -4.9097e-41
000280 18 9d 00 80 2a 89 00 00 e7 88 00 00 d6 89 00 00
       -5.6355e-41 4.9205e-41 4.9111e-41 4.9446e-41
000290 8e 89 00 00 ba 89 00 80 f9 89 00 80 fd 88 00 80
       4.9345e-41 -4.9407e-41 -4.9495e-41 -4.9142e-41
0002a0 ba 89 00 00 b7 89 00 80 65 89 00 80 d8 89 00 80
       4.9407e-41 -4.9403e-41 -4.9288e-41 -4.9449e-41
0002b0 61 89 00 80 db 89 00 00 a2 89 00 00 15 89 00 80
       -4.9282e-41 4.9453e-41 4.9373e-41 -4.9176e-41
0002c0 a1 89 00 80 7c 89 00 00 c6 89 00 00 88 89 00 80
       -4.9372e-41 4.932e-41 4.9424e-41 -4.9337e-41
0002d0 76 89 00 80 0c 8a 00 80 e9 89 00 80 33 89 00 00
       -4.9312e-41 -4.9522e-41 -4.9473e-41 4.9218e-41
0002e0 49 89 00 00 bf 88 00 80 4e 89 00 80 54 89 00 00
       4.9249e-41 -4.9055e-41 -4.9256e-41 4.9264e-41
0002f0 48 89 00 00 ca 88 00 00 14 9b 00 00 08 89 00 00
       4.9247e-41 4.907e-41 5.5632e-41 4.9158e-41
000300 5f 89 00 00 df 89 00 00 e5 89 00 80 0a 8a 00 80
       4.928e-41 4.9459e-41 -4.9467e-41 -4.9519e-41
000310 8c 89 00 00 3b 89 00 00 2e 89 00 80 f6 88 00 80
       4.9343e-41 4.9229e-41 -4.9211e-41 -4.9132e-41
000320 4f 89 00 80 51 89 00 80 19 89 00 00 de 88 00 00
       -4.9257e-41 -4.926e-41 4.9181e-41 4.9099e-41
000330 1a 89 00 00 89 89 00 00 ba 89 00 00 f8 88 00 00
       4.9183e-41 4.9338e-41 4.9407e-41 4.9135e-41
000340 bd 88 00 80 b1 89 00 80 09 89 00 80 d1 89 00 00
       -4.9052e-41 -4.9394e-41 -4.9159e-41 4.9439e-41
000350 91 89 00 80 5c 89 00 80 28 89 00 00 ff 88 00 80
       -4.935e-41 -4.9275e-41 4.9202e-41 -4.9145e-41
000360 75 89 00 00 c0 89 00 80 e0 88 00 00 8c 89 00 80
       4.931e-41 -4.9415e-41 4.9101e-41 -4.9343e-41
000370 03 89 00 80 89 89 00 80 b1 89 00 00 86 89 00 00
       -4.915e-41 -4.9338e-41 4.9394e-41 4.9334e-41
000380 b0 89 00 00 11 89 00 00 0c 89 00 00 38 89 00 00
       4.9393e-41 4.917e-41 4.9163e-41 4.9225e-41
000390 70 89 00 00 f5 88 00 80 8a 89 00 80 d0 89 00 80
       4.9303e-41 -4.9131e-41 -4.934e-41 -4.9438e-41
0003a0 d7 89 00 80 f3 88 00 00 e2 88 00 80 55 89 00 80
       -4.9448e-41 4.9128e-41 -4.9104e-41 -4.9265e-41
0003b0 f0 88 00 00 d2 88 00 80 cf 88 00 00 cd 89 00 00
       4.9124e-41 -4.9082e-41 4.9078e-41 4.9434e-41
0003c0 e1 88 00 00 c4 89 00 00 2a 89 00 80 25 89 00 00
       4.9103e-41 4.9421e-41 -4.9205e-41 4.9198e-41
0003d0 c2 88 00 80 24 89 00 00 c8 88 00 00 6b 89 00 80
       -4.906e-41 4.9197e-41 4.9068e-41 -4.9296e-41
0003e0 42 89 00 80 0a 89 00 80 8b 89 00 80 05 8a 00 80
       -4.9239e-41 -4.916e-41 -4.9341e-41 -4.9512e-41
0003f0 0e 89 00 80 cc 88 00 00 6e 89 00 00 57 89 00 80
       -4.9166e-41 4.9073e-41 4.93e-41 -4.9268e-41

conv2.0.bias f4 [32]
000000 17 51 00 80 ed 99 00 80 af ad 00 00 c0 ae 00 80
       -2.909e-41 -5.5218e-41 6.2306e-41 -6.2688e-41
000010 69 1b 00 80 bb ad 00 80 af 9d 00 00 6d 97 00 80
       -9.833e-42 -6.2323e-41 5.6566e-41 -5.4321e-41
000020 c0 ac 00 00 b7 a7 00 00 55 97 00 80 c1 9f 00 00
       6.1971e-41 6.0165e-41 -5.4288e-41 5.7309e-41
000030 65 a8 00 80 11 97 00 00 82 0d 01 00 fb 88 00 00
       -6.0409e-41 5.4192e-41 9.6681e-41 4.914e-41
000040 a5 a3 00 80 4c 8e 00 80 ee 96 00 00 90 9d 00 80
       -5.8705e-41 -5.1047e-41 5.4143e-41 -5.6523e-41
000050 0c a9 00 80 b9 88 00 80 cb 88 00 00 34 6e 01 00
       -6.0643e-41 -4.9047e-41 4.9072e-41 1.31369e-40
000060 ea a2 00 00 83 30 00 00 17 aa 00 00 9a ab 00 80
       5.8443e-41 1.7403e-41 6.1017e-41 -6.1559e-41
000070 cf b8 01 00 90 95 00 00 0b a6 00 80 52 8b 00 00
       1.58132e-40 5.3653e-41 -5.9565e-41 4.9979e-41

conv2.1.weight f4 [32]
000000 c4 89 00 00 68 89 00 00 8e 89 00 00 6e 89 00 00
       4.9421e-41 4.9292e-41 4.9345e-41 4.93e-41
000010 a7 89 00 00 64 89 00 00 26 89 00 00 b8 89 00 00
       4.938e-41 4.9286e-41 4.92e-41 4.9404e-41
000020 86 89 00 00 07 89 00 00 3d 89 00 00 c1 89 00 00
       4.9334e-41 4.9156e-41 4.9232e-41 4.9417e-41
000030 0a 8a 00 00 02 8a 00 00 f1 88 00 00 38 89 00 00
       4.9519e-41 4.9508e-41 4.9125e-41 4.9225e-41
000040 04 89 00 00 92 89 00 00 6c 89 00 00 19 8a 00 00
       4.9152e-41 4.9351e-41 4.9298e-41 4.954e-41
000050 ca 88 00 00 12 89 00 00 45 89 00 00 70 89 00 00
       4.907e-41 4.9172e-41 4.9243e-41 4.9303e-41
000060 10 89 00 00 07 8a 00 00 8c 89 00 00 fa 88 00 00
       4.9169e-41 4.9515e-41 4.9343e-41 4.9138e-41
000070 f7 89 00 00 ff 89 00 00 d6 89 00 00 5c 89 00 00
       4.9492e-41 4.9504e-41 4.9446e-41 4.9275e-41

conv2.1.bias f4 [32]
000000 c3 89 00 00 4d 89 00 00 d0 89 00 80 1c 89 00 80
       4.942e-41 4.9254e-41 -4.9438e-41 -4.9186e-41
000010 59 89 00 00 5c 89 00 80 4e 89 00 00 90 89 00 00
       4.9271e-41 -4.9275e-41 4.9256e-41 4.9348e-41
000020 67 89 00 80 65 89 00 00 db 89 00 00 e7 88 00 00
       -4.929e-41 4.9288e-41 4.9453e-41 4.9111e-41
000030 91 89 00 00 0c 89 00 80 ef 88 00 00 01 89 00 00
       4.935e-41 -4.9163e-41 4.9123e-41 4.9148e-41
000040 3b 89 00 80 e3 88 00 00 9b 89 00 80 48 89 00 00
       -4.9229e-41 4.9106e-41 -4.9364e-41 4.9247e-41
000050 94 89 00 00 e5 89 00 80 b8 89 00 00 ba 89 00 80
       4.9354e-41 -4.9467e-41 4.9404e-41 -4.9407e-41
000060 8e 89 00 80 bf 88 00 80 94 89 00 00 33 89 00 80
       -4.9345e-41 -4.9055e-41 4.9354e-41 -4.9218e-41
000070 e9 88 00 80 06 8a 00 00 f0 88 00 00 3e 89 00 00
       -4.9114e-41 4.9513e-41 4.9124e-41 4.9233e-41

conv2.1.running_mean f4 [32]
000000 fd 7b 00 80 f6 99 00 80 a7 ad 00 00 bf ae 00 80
       -4.4479e-41 -5.5231e-41 6.2295e-41 -6.2687e-41
000010 49 46 00 80 c4 ad 00 80 ad 9d 00 00 6d 97 00 80
       -2.5214e-41 -6.2335e-41 5.6563e-41 -5.4321e-41
000020 b7 ac 00 00 b7 a7 00 00 4f 97 00 80 c8 9f 00 00
       6.1958e-41 6.0165e-41 -5.4279e-41 5.7319e-41
000030 6a a8 00 80 12 97 00 00 9b 9f 00 80 02 89 00 00
       -6.0416e-41 5.4194e-41 -5.7256e-41 4.9149e-41
000040 a6 a3 00 80 49 8e 00 80 f4 96 00 00 98 9d 00 80
       -5.8706e-41 -5.1042e-41 5.4152e-41 -5.6534e-41
000050 0b a9 00 80 b3 88 00 80 c7 88 00 00 85 17 00 00
       -6.0641e-41 -4.9038e-41 4.9066e-41 8.437e-42
000060 e9 a2 00 00 64 5b 00 00 0f aa 00 00 95 ab 00 80
       5.8441e-41 3.2785e-41 6.1006e-41 -6.1552e-41
000070 aa 61 00 00 96 95 00 00 09 a6 00 80 51 8b 00 00
       3.5035e-41 5.3661e-41 -5.9562e-41 4.9977e-41

conv2.1.running_var f4 [32]
000000 04 00 00 00 04 00 00 00 04 00 00 00 04 00 00 00
       6e-45 6e-45 6e-45 6e-45
000010 04 00 00 00 04 00 00 00 04 00 00 00 04 00 00 00
       6e-45 6e-45 6e-45 6e-45
000020 04 00 00 00 04 00 00 00 04 00 00 00 04 00 00 00
       6e-45 6e-45 6e-45 6e-45
000030 04 00 00 00 04 00 00 00 04 00 00 00 04 00 00 00
       6e-45 6e-45 6e-45 6e-45
000040 04 00 00 00 04 00 00 00 04 00 00 00 04 00 00 00
       6e-45 6e-45 6e-45 6e-45
000050 04 00 00 00 04 00 00 00 04 00 00 00 04 00 00 00
       6e-45 6e-45 6e-45 6e-45
000060 04 00 00 00 04 00 00 00 04 00 00 00 04 00 00 00
       6e-45 6e-45 6e-45 6e-45
000070 04 00 00 00 04 00 00 00 04 00 00 00 04 00 00 00
       6e-45 6e-45 6e-45 6e-45

conv3.0.weight f4 [64, 32, 3, 3]
000000 bc 89 00 00 5b 89 00 00 03 8a 00 80 0c 89 00 00
       4.941e-41 4.9274e-41 -4.9509e-41 4.9163e-41
000010 0b 89 00 80 09 89 00 00 81 89 00 00 c7 89 00 80
       -4.9162e-41 4.9159e-41 4.9327e-41 -4.9425e-41
000020 c6 88 00 80 ce 89 00 80 d9 89 00 80 9a 89 00 00
       -4.9065e-41 -4.9435e-41 -4.945e-41 4.9362e-41
000030 60 89 00 00 e2 89 00 00 0e 89 00 00 13 89 00 00
       4.9281e-41 4.9463e-41 4.9166e-41 4.9173e-41
000040 ec 89 00 00 6f 89 00 00 0d 89 00 80 23 89 00 80
       4.9477e-41 4.9302e-41 -4.9165e-41 -4.9195e-41
000050 86 89 00 80 14 89 00 00 38 89 00 00 d1 8c 00 00
       -4.9334e-41 4.9174e-41 4.9225e-41 5.0515e-41
000060 4f 89 00 00 34 89 00 00 b4 89 00 00 78 89 00 80
       4.9257e-41 4.9219e-41 4.9399e-41 -4.9314e-41
000070 04 89 00 00 c8 89 00 80 d2 89 00 00 0e 8a 00 00
       4.9152e-41 -4.9427e-41 4.944e-41 4.9525e-41
000080 d3 88 00 80 de 89 00 80 af 89 00 80 bb 89 00 80
       -4.9083e-41 -4.9457e-41 -4.9392e-41 -4.9408e-41
000090 d7 89 00 00 ed 88 00 00 d5 89 00 00 31 89 00 80
       4.9448e-41 4.912e-41 4.9445e-41 -4.9215e-41
0000a0 df 88 00 00 32 89 00 00 65 89 00 80 63 89 00 80
       4.91e-41 4.9216e-41 -4.9288e-41 -4.9285e-41
0000b0 10 89 00 80 f6 89 00 00 61 89 00 00 cf 89 00 80
       -4.9169e-41 4.9491e-41 4.9282e-41 -4.9436e-41
0000c0 a3 af 00 00 db 88 00 00 e5 89 00 00 6c 97 00 00
       6.3007e-41 4.9094e-41 4.9467e-41 5.432e-41
0000d0 60 89 00 00 53 89 00 80 c9 88 00 00 c1 89 00 80
       4.9281e-41 -4.9263e-41 4.9069e-41 -4.9417e-41
0000e0 ef 88 00 80 28 89 00 00 2c 89 00 00 99 89 00 80
       -4.9123e-41 4.9202e-41 4.9208e-41 -4.9361e-41
0000f0 e0 89 00 00 80 89 00 00 33 89 00 00 62 89 00 00
       4.946e-41 4.9326e-41 4.9218e-41 4.9284e-41
000100 96 89 00 80 f2 89 00 80 09 89 00 00 d6 89 00 80
       -4.9357e-41 -4.9485e-41 4.9159e-41 -4.9446e-41
000110 cb 88 00 80 c4 89 00 00 86 89 00 00 71 89 00 00
       -4.9072e-41 4.9421e-41 4.9334e-41 4.9305e-41
000120 fc 89 00 80 9a 89 00 80 b2 89 00 80 39 89 00 80
       -4.95e-41 -4.9362e-41 -4.9396e-41 -4.9226e-41
000130 5c 89 00 00 4b 89 00 80 01 89 00 80 cb 89 00 80
       4.9275e-41 -4.9251e-41 -4.9148e-41 -4.9431e-41
000140 9c a1 00 80 8e 89 00 00 99 89 00 00 03 89 00 80
       -5.7975e-41 4.9345e-41 4.9361e-41 -4.915e-41
000150 d8 89 00 80 b9 88 00 80 35 af 00 00 43 89 00 80
       -4.9449e-41 -4.9047e-41 6.2852e-41 -4.924e-41
000160 d2 88 00 00 8d 89 00 00 ba 88 00 80 1b 89 00 80
       4.9082e-41 4.9344e-41 -4.9048e-41 -4.9184e-41
000170 8e 89 00 00 8a 89 00 80 32 89 00 00 f4 88 00 80
       4.9345e-41 -4.934e-41 4.9216e-41 -4.913e-41
000180 f4 88 00 00 84 89 00 00 10 89 00 00 b1 9d 00 00
       4.913e-41 4.9331e-41 4.9169e-41 5.6569e-41
000190 ac 89 00 00 d9 89 00 00 22 89 00 80 81 89 00 00
       4.9387e-41 4.945e-41 -4.9194e-41 4.9327e-41
0001a0 4b ab 00 00 c6 89 00 80 62 89 00 00 e8 8c 00 00
       6.1448e-41 -4.9424e-41 4.9284e-41 5.0548e-41
0001b0 d6 89 00 00 f6 89 00 00 54 89 00 80 01 8a 00 80
       4.9446e-41 4.9491e-41 -4.9264e-41 -4.9506e-41
0001c0 c9 88 00 80 26 89 00 00 f5 88 00 80 04 8a 00 00
       -4.9069e-41 4.92e-41 -4.9131e-41 4.951e-41
0001d0 0f 89 00 80 d8 89 00 00 93 89 00 00 b8 89 00 80
       -4.9167e-41 4.9449e-41 4.9352e-41 -4.9404e-41
0001e0 ed 88 00 00 22 89 00 80 9b 89 00 00 0d 8a 00 80
       4.912e-41 -4.9194e-41 4.9364e-41 -4.9523e-41
0001f0 a6 89 00 80 7a 89 00 00 09 89 00 80 de 89 00 80
       -4.9379e-41 4.9317e-41 -4.9159e-41 -4.9457e-41
000200 ab ac 00 00 d5 89 00 00 46 9c 00 00 78 89 00 80
       6.1942e-41 4.9445e-41 5.606e-41 -4.9314e-41
000210 73 89 00 00 c6 88 00 00 3a 89 00 00 09 8a 00 80
       4.9307e-41 4.9065e-41 4.9228e-41 -4.9518e-41
000220 4b 89 00 00 e2 89 00 80 f7 88 00 80 e3 89 00 00
       4.9251e-41 -4.9463e-41 -4.9134e-41 4.9464e-41
000230 5f 89 00 00 a9 89 00 80 c9 89 00 00 bb 88 00 80
       4.928e-41 -4.9383e-41 4.9428e-41 -4.905e-41
000240 d2 88 00 80 c0 99 00 80 5f 89 00 80 ab 89 00 80
       -4.9082e-41 -5.5155e-41 -4.928e-41 -4.9386e-41
000250 31 89 00 80 4e 89 00 80 ca 89 00 00 ab 89 00 80
       -4.9215e-41 -4.9256e-41 4.943e-41 -4.9386e-41
000260 d3 88 00 80 18 89 00 80 bf 88 00 80 d8 89 00 80
       -4.9083e-41 -4.918e-41 -4.9055e-41 -4.9449e-41
000270 13 8a 00 80 01 89 00 00 57 89 00 00 af 89 00 00
       -4.9532e-41 4.9148e-41 4.9268e-41 4.9392e-41
000280 ec 89 00 00 f2 89 00 80 6b 89 00 80 c6 89 00 00
       4.9477e-41 -4.9485e-41 -4.9296e-41 4.9424e-41
000290 2a 89 00 80 15 89 00 80 ea 88 00 80 16 89 00 80
       -4.9205e-41 -4.9176e-41 -4.9116e-41 -4.9177e-41
0002a0 71 89 00 00 ee 88 00 00 bd 89 00 80 64 89 00 00
       4.9305e-41 4.9121e-41 -4.9411e-41 4.9286e-41
0002b0 dd 88 00 80 04 8a 00 80 9c 89 00 80 8f 89 00 80
       -4.9097e-41 -4.951e-41 -4.9365e-41 -4.9347e-41
0002c0 a6 89 00 80 c5 89 00 80 40 89 00 80 c1 88 00 80
       -4.9379e-41 -4.9422e-41 -4.9236e-41 -4.9058e-41
0002d0 3a 89 00 80 d3 89 00 00 c3 89 00 80 cb 89 00 80
       -4.9228e-41 4.9442e-41 -4.942e-41 -4.9431e-41
0002e0 86 89 00 00 f4 89 00 80 bf 88 00 00 ed 89 00 00
       4.9334e-41 -4.9488e-41 4.9055e-41 4.9478e-41
0002f0 e2 88 00 80 be 88 00 00 ea 88 00 00 cd 88 00 00
       -4.9104e-41 4.9054e-41 4.9116e-41 4.9075e-41
000300 06 8a 00 00 c5 89 00 00 56 89 00 80 1f 89 00 80
       4.9513e-41 4.9422e-41 -4.9267e-41 -4.919e-41
000310 01 89 00 00 58 89 00 00 6f 89 00 80 f6 88 00 80
       4.9148e-41 4.927e-41 -4.9302e-41 -4.9132e-41
000320 11 89 00 80 49 89 00 00 9c 89 00 00 c2 88 00 80
       -4.917e-41 4.9249e-41 4.9365e-41 -4.906e-41
000330 0f 89 00 00 d3 89 00 00 fd 89 00 80 f3 89 00 80
       4.9167e-41 4.9442e-41 -4.9501e-41 -4.9487e-41
000340 f5 89 00 00 f3 89 00 80 ac 89 00 00 1f 89 00 00
       4.949e-41 -4.9487e-41 4.9387e-41 4.919e-41
000350 1a 89 00 80 df 88 00 80 b8 89 00 80 d7 88 00 80
       -4.9183e-41 -4.91e-41 -4.9404e-41 -4.9089e-41
000360 ed 89 00 00 83 89 00 80 bd 88 00 80 cd 89 00 80
       4.9478e-41 -4.933e-41 -4.9052e-41 -4.9434e-41
000370 df 88 00 00 b9 89 00 00 6a 89 00 80 3a 89 00 80
       4.91e-41 4.9406e-41 -4.9295e-41 -4.9228e-41
000380 62 89 00 80 29 89 00 00 f1 89 00 00 da 88 00 80
       -4.9284e-41 4.9204e-41 4.9484e-41 -4.9093e-41
000390 5d 89 00 80 a7 89 00 00 8e 89 00 80 f6 88 00 80
       -4.9277e-41 4.938e-41 -4.9345e-41 -4.9132e-41
0003a0 e2 88 00 80 6c 89 00 00 f5 89 00 80 83 89 00 00
       -4.9104e-41 4.9298e-41 -4.949e-41 4.933e-41
0003b0 e2 88 00 80 ba 89 00 80 03 89 00 00 87 89 00 00
       -4.9104e-41 -4.9407e-41 4.915e-41 4.9336e-41
0003c0 97 89 00 80 12 89 00 80 f5 88 00 80 ce 89 00 00
       -4.9358e-41 -4.9172e-41 -4.9131e-41 4.9435e-41
0003d0 73 89 00 80 b1 89 00 80 08 8a 00 80 0d 89 00 00
       -4.9307e-41 -4.9394e-41 -4.9516e-41 4.9165e-41
0003e0 1e 89 00 00 05 89 00 80 36 89 00 80 27 89 00 00
       4.9188e-41 -4.9153e-41 -4.9222e-41 4.9201e-41
0003f0 5b 89 00 00 bd 88 00 80 4f 89 00 80 f0 89 00 00
       4.9274e-41 -4.9052e-41 -4.9257e-41 4.9483e-41

conv3.0.bias f4 [64]
000000 30 91 00 00 30 89 00 00 4f 8b 00 00 dd 8b 00 00
       5.2083e-41 4.9214e-41 4.9975e-41 5.0173e-41
000010 5e a6 00 00 99 a4 00 80 b1 a6 00 00 7f 98 00 80
       5.9681e-41 -5.9047e-41 5.9798e-41 -5.4705e-41
000020 d9 88 00 00 17 8d 00 80 a0 a6 00 00 82 9a 00 00
       4.9092e-41 -5.0613e-41 5.9774e-41 5.5427e-41
000030 a8 a4 00 80 ac 99 00 00 33 9f 00 80 c3 88 00 80
       -5.9068e-41 5.5127e-41 -5.711e-41 -4.9061e-41
000040 3c ad 00 00 fc c4 01 00 ac a8 00 80 fa 96 00 80
       6.2145e-41 1.625e-40 -6.0508e-41 -5.416e-41
000050 89 9a 00 00 cb a7 00 00 bc c6 02 00 fa 8e 00 80
       5.5437e-41 6.0193e-41 2.54963e-40 -5.129e-41
000060 3e 5a 01 00 25 02 02 00 36 9c 00 00 94 93 00 00
       1.24208e-40 1.8444e-40 5.6038e-41 5.2941e-41
000070 4c 9c 00 00 21 9c 00 00 bc ab 00 80 ba 75 01 80
       5.6069e-41 5.6008e-41 -6.1607e-41 -1.34068e-40
000080 8b 98 00 80 60 8b 00 80 7f a6 00 00 d0 88 00 80
       -5.4722e-41 -4.9998e-41 5.9728e-41 -4.9079e-41
000090 20 8d 00 80 91 94 00 80 2d 8f 00 00 bb 88 00 00
       -5.0626e-41 -5.3296e-41 5.1362e-41 4.905e-41
0000a0 4b 9a 00 00 20 95 00 80 c8 7d 00 00 ef 8a 00 80
       5.535e-41 -5.3496e-41 4.5122e-41 -4.984e-41
0000b0 17 a2 00 80 21 95 00 80 b5 af 00 00 fc aa 00 80
       -5.8147e-41 -5.3497e-41 6.3032e-41 -6.1338e-41
0000c0 00 af 00 80 1b 9f 00 00 40 89 00 80 44 a5 00 80
       -6.2778e-41 5.7076e-41 -4.9236e-41 -5.9286e-41
0000d0 9d a1 00 80 43 de 02 00 3f 91 00 80 14 21 00 00
       -5.7976e-41 2.63403e-40 -5.2104e-41 1.1866e-41
0000e0 ad 89 00 00 6f ae 00 00 dc 88 00 00 2b a5 00 80
       4.9389e-41 6.2575e-41 4.9096e-41 -5.9251e-41
0000f0 9a af 00 00 35 9c 00 00 74 9b 00 80 8a a8 00 00
       6.2994e-41 5.6037e-41 -5.5766e-41 6.046e-41

conv3.1.weight f4 [64]
000000 17 89 00 00 a2 89 00 00 e0 88 00 00 28 89 00 00
       4.9179e-41 4.9373e-41 4.9101e-41 4.9202e-41
000010 14 89 00 00 c5 89 00 00 1f 89 00 00 e5 88 00 00
       4.9174e-41 4.9422e-41 4.919e-41 4.9109e-41
000020 ff 88 00 00 ad 89 00 00 ff 88 00 00 c2 88 00 00
       4.9145e-41 4.9389e-41 4.9145e-41 4.906e-41
000030 c9 88 00 00 62 89 00 00 fd 88 00 00 0e 89 00 00
       4.9069e-41 4.9284e-41 4.9142e-41 4.9166e-41
000040 80 89 00 00 3d 89 00 00 2e 89 00 00 5a 89 00 00
       4.9326e-41 4.9232e-41 4.9211e-41 4.9272e-41
000050 c2 89 00 00 79 89 00 00 17 8a 00 00 f2 89 00 00
       4.9418e-41 4.9316e-41 4.9537e-41 4.9485e-41
000060 0b 8a 00 00 9b 89 00 00 58 89 00 00 0e 89 00 00
       4.952e-41 4.9364e-41 4.927e-41 4.9166e-41
000070 03 89 00 00 f1 88 00 00 db 88 00 00 4d 89 00 00
       4.915e-41 4.9125e-41 4.9094e-41 4.9254e-41
000080 ea 88 00 00 f0 88 00 00 5e 89 00 00 ad 89 00 00
       4.9116e-41 4.9124e-41 4.9278e-41 4.9389e-41
000090 e2 89 00 00 3c 89 00 00 06 8a 00 00 7f 89 00 00
       4.9463e-41 4.923e-41 4.9513e-41 4.9324e-41
0000a0 b2 89 00 00 40 89 00 00 5b 89 00 00 f2 88 00 00
       4.9396e-41 4.9236e-41 4.9274e-41 4.9127e-41
0000b0 37 89 00 00 bf 89 00 00 6e 89 00 00 e3 89 00 00
       4.9223e-41 4.9414e-41 4.93e-41 4.9464e-41
0000c0 8f 89 00 00 ad 89 00 00 f9 88 00 00 de 89 00 00
       4.9347e-41 4.9389e-41 4.9137e-41 4.9457e-41
0000d0 19 89 00 00 fc 88 00 00 d1 89 00 00 e3 88 00 00
       4.9181e-41 4.9141e-41 4.9439e-41 4.9106e-41
0000e0 fc 88 00 00 0b 89 00 00 9a 89 00 00 fd 89 00 00
       4.9141e-41 4.9162e-41 4.9362e-41 4.9501e-41
0000f0 02 89 00 00 35 89 00 00 ec 88 00 00 06 89 00 00
       4.9149e-41 4.922e-41 4.9118e-41 4.9155e-41

conv3.1.bias f4 [64]
000000 ef 89 00 00 13 89 00 80 6d 89 00 00 de 89 00 00
       4.9481e-41 -4.9173e-41 4.9299e-41 4.9457e-41
000010 44 89 00 00 20 89 00 80 74 89 00 00 c0 88 00 80
       4.9242e-41 -4.9191e-41 4.9309e-41 -4.9057e-41
000020 78 89 00 80 0b 8a 00 80 eb 88 00 00 c8 88 00 00
       -4.9314e-41 -4.952e-41 4.9117e-41 4.9068e-41
000030 20 89 00 80 c9 a5 00 80 d8 89 00 80 06 8a 00 00
       -4.9191e-41 -5.9473e-41 -4.9449e-41 4.9513e-41
000040 f1 89 00 00 f2 88 00 80 ee 89 00 00 31 af 00 00
       4.9484e-41 -4.9127e-41 4.948e-41 6.2847e-41
000050 fb 88 00 80 23 89 00 00 77 89 00 80 3c 89 00 00
       -4.914e-41 4.9195e-41 -4.9313e-41 4.923e-41
000060 05 89 00 00 3d 89 00 80 46 89 00 00 f3 88 00 00
       4.9153e-41 -4.9232e-41 4.9244e-41 4.9128e-41
000070 8f 89 00 00 10 8a 00 80 29 89 00 80 df 88 00 80
       4.9347e-41 -4.9527e-41 -4.9204e-41 -4.91e-41
000080 7d 89 00 80 a0 8b 00 80 5d 89 00 00 dc 90 00 80
       -4.9322e-41 -5.0088e-41 4.9277e-41 -5.1966e-41
000090 f3 89 00 00 61 89 00 80 4b 89 00 80 b8 89 00 00
       4.9487e-41 -4.9282e-41 -4.9251e-41 4.9404e-41
0000a0 7b 89 00 80 78 89 00 80 64 89 00 00 dd 89 00 80
       -4.9319e-41 -4.9314e-41 4.9286e-41 -4.9456e-41
0000b0 3e 89 00 80 d6 88 00 80 a9 89 00 00 f9 88 00 80
       -4.9233e-41 -4.9087e-41 4.9383e-41 -4.9137e-41
0000c0 61 89 00 00 26 89 00 00 ff 88 00 00 c9 91 00 80
       4.9282e-41 4.92e-41 4.9145e-41 -5.2298e-41
0000d0 8c 89 00 80 b9 88 00 00 c1 89 00 00 e1 ab 00 00
       -4.9343e-41 4.9047e-41 4.9417e-41 6.1659e-41
0000e0 71 89 00 80 35 89 00 00 4e 8a 00 80 ef 89 00 00
       -4.9305e-41 4.922e-41 -4.9614e-41 4.9481e-41
0000f0 84 89 00 00 de 89 00 00 fd 88 00 00 00 8a 00 00
       4.9331e-41 4.9457e-41 4.9142e-41 4.9505e-41

conv3.1.running_mean f4 [64]
000000 36 91 00 00 34 89 00 00 47 8b 00 00 e6 8b 00 00
       5.2092e-41 4.9219e-41 4.9963e-41 5.0186e-41
000010 62 a6 00 00 97 a4 00 80 a9 a6 00 00 84 98 00 80
       5.9687e-41 -5.9044e-41 5.9786e-41 -5.4712e-41
000020 da 88 00 00 13 8d 00 80 9f a6 00 00 82 9a 00 00
       4.9093e-41 -5.0608e-41 5.9772e-41 5.5427e-41
000030 a1 a4 00 80 b0 99 00 00 33 9f 00 80 c6 88 00 80
       -5.9058e-41 5.5133e-41 -5.711e-41 -4.9065e-41
000040 42 ad 00 00 14 18 00 00 a7 a8 00 80 fe 96 00 80
       6.2153e-41 8.638e-42 -6.0501e-41 -5.4166e-41
000050 8c 9a 00 00 cb a7 00 00 7a 93 00 80 fc 8e 00 80
       5.5441e-41 6.0193e-41 -5.2905e-41 -5.1293e-41
000060 a6 7d 00 80 f3 54 00 00 31 9c 00 00 98 93 00 00
       -4.5074e-41 3.0474e-41 5.6031e-41 5.2947e-41
000070 4e 9c 00 00 26 9c 00 00 b3 ab 00 80 5c 49 00 80
       5.6072e-41 5.6016e-41 -6.1594e-41 -2.6316e-41
000080 8e 98 00 80 64 8b 00 80 77 a6 00 00 c7 88 00 80
       -5.4726e-41 -5.0004e-41 5.9716e-41 -4.9066e-41
000090 1d 8d 00 80 89 94 00 80 2e 8f 00 00 b3 88 00 00
       -5.0622e-41 -5.3284e-41 5.1363e-41 4.9038e-41
0000a0 50 9a 00 00 1f 95 00 80 df 52 00 00 ed 8a 00 80
       5.5357e-41 -5.3495e-41 2.9729e-41 -4.9837e-41
0000b0 17 a2 00 80 28 95 00 80 b8 af 00 00 fe aa 00 80
       -5.8147e-41 -5.3507e-41 6.3036e-41 -6.134e-41
0000c0 fb ae 00 80 1e 9f 00 00 48 89 00 80 4a a5 00 80
       -6.2771e-41 5.708e-41 -4.9247e-41 -5.9295e-41
0000d0 9e a1 00 80 a7 04 00 00 37 91 00 80 bd 09 00 80
       -5.7977e-41 1.669e-42 -5.2093e-41 -3.493e-42
0000e0 b6 89 00 00 6f ae 00 00 db 88 00 00 23 a5 00 80
       4.9401e-41 6.2575e-41 4.9094e-41 -5.924e-41
0000f0 9a af 00 00 3a 9c 00 00 7c 9b 00 80 92 a8 00 00
       6.2994e-41 5.6044e-41 -5.5777e-41 6.0472e-41

conv3.1.running_var f4 [64]
000000 04 00 00 00 04 00 00 00 04 00 00 00 04 00 00 00
       6e-45 6e-45 6e-45 6e-45
000010 04 00 00 00 04 00 00 00 04 00 00 00 04 00 00 00
       6e-45 6e-45 6e-45 6e-45
000020 04 00 00 00 04 00 00 00 04 00 00 00 04 00 00 00
       6e-45 6e-45 6e-45 6e-45
000030 04 00 00 00 04 00 00 00 04 00 00 00 04 00 00 00
       6e-45 6e-45 6e-45 6e-45
000040 04 00 00 00 04 00 00 00 04 00 00 00 04 00 00 00
       6e-45 6e-45 6e-45 6e-45
000050 04 00 00 00 04 00 00 00 04 00 00 00 04 00 00 00
       6e-45 6e-45 6e-45 6e-45
000060 04 00 00 00 04 00 00 00 04 00 00 00 04 00 00 00
       6e-45 6e-45 6e-45 6e-45
000070 04 00 00 00 04 00 00 00 04 00 00 00 04 00 00 00
       6e-45 6e-45 6e-45 6e-45
000080 04 00 00 00 04 00 00 00 04 00 00 00 04 00 00 00
       6e-45 6e-45 6e-45 6e-45
000090 04 00 00 00 04 00 00 00 04 00 00 00 04 00 00 00
       6e-45 6e-45 6e-45 6e-45
0000a0 04 00 00 00 04 00 00 00 04 00 00 00 04 00 00 00
       6e-45 6e-45 6e-45 6e-45
0000b0 04 00 00 00 04 00 00 00 04 00 00 00 04 00 00 00
       6e-45 6e-45 6e-45 6e-45
0000c0 04 00 00 00 04 00 00 00 04 00 00 00 04 00 00 00
       6e-45 6e-45 6e-45 6e-45
0000d0 04 00 00 00 04 00 00 00 04 00 00 00 04 00 00 00
       6e-45 6e-45 6e-45 6e-45
0000e0 04 00 00 00 04 00 00 00 04 00 00 00 04 00 00 00
       6e-45 6e-45 6e-45 6e-45
0000f0 04 00 00 00 04 00 00 00 04 00 00 00 04 00 00 00
       6e-45 6e-45 6e-45 6e-45

conv4.0.weight f4 [128, 64, 3, 3]
000000 aa 89 00 80 cb 88 00 80 34 89 00 80 ab 89 00 80
       -4.9385e-41 -4.9072e-41 -4.9219e-41 -4.9386e-41
000010 04 8a 00 80 91 89 00 80 33 89 00 80 c0 89 00 80
       -4.951e-41 -4.935e-41 -4.9218e-41 -4.9415e-41
000020 5b 89 00 80 3d 89 00 00 12 92 00 00 bf 89 00 80
       -4.9274e-41 4.9232e-41 5.24e-41 -4.9414e-41
000030 60 89 00 00 fb 88 00 80 19 89 00 80 87 89 00 00
       4.9281e-41 -4.914e-41 -4.9181e-41 4.9336e-41
000040 44 89 00 00 13 89 00 80 7c 89 00 80 c4 89 00 80
       4.9242e-41 -4.9173e-41 -4.932e-41 -4.9421e-41
000050 65 89 00 00 09 8a 00 80 00 8a 00 80 eb 89 00 80
       4.9288e-41 -4.9518e-41 -4.9505e-41 -4.9476e-41
000060 86 89 00 00 c4 88 00 80 ff 89 00 80 a2 89 00 80
       4.9334e-41 -4.9062e-41 -4.9504e-41 -4.9373e-41
000070 54 89 00 00 29 89 00 00 d8 88 00 00 d4 88 00 80
       4.9264e-41 4.9204e-41 4.909e-41 -4.9085e-41
000080 eb 89 00 00 1c 89 00 00 a5 89 00 00 1a 89 00 80
       4.9476e-41 4.9186e-41 4.9378e-41 -4.9183e-41
000090 44 89 00 00 fe 88 00 80 56 89 00 80 d4 88 00 00
       4.9242e-41 -4.9144e-41 -4.9267e-41 4.9085e-41
0000a0 06 8a 00 80 ec 88 00 80 ba 88 00 80 45 89 00 00
       -4.9513e-41 -4.9118e-41 -4.9048e-41 4.9243e-41
0000b0 bd 88 00 80 e0 89 00 00 17 89 00 00 f6 88 00 00
       -4.9052e-41 4.946e-41 4.9179e-41 4.9132e-41
0000c0 bd 89 00 00 88 89 00 80 e5 88 00 00 e3 88 00 80
       4.9411e-41 -4.9337e-41 4.9109e-41 -4.9106e-41
0000d0 50 89 00 00 5b 89 00 00 b9 89 00 80 d3 89 00 80
       4.9258e-41 4.9274e-41 -4.9406e-41 -4.9442e-41
0000e0 af 89 00 00 76 89 00 00 6a 89 00 80 0e 89 00 80
       4.9392e-41 4.9312e-41 -4.9295e-41 -4.9166e-41
0000f0 0d 89 00 80 c4 89 00 80 7c 89 00 80 b1 89 00 80
       -4.9165e-41 -4.9421e-41 -4.932e-41 -4.9394e-41
000100 e8 89 00 80 a1 89 00 80 63 89 00 80 8f 89 00 80
       -4.9471e-41 -4.9372e-41 -4.9285e-41 -4.9347e-41
000110 f1 88 00 80 d0 88 00 80 0c 8a 00 00 bf 89 00 80
       -4.9125e-41 -4.9079e-41 4.9522e-41 -4.9414e-41
000120 cf 89 00 80 85 89 00 00 3e 89 00 80 db 89 00 00
       -4.9436e-41 4.9333e-41 -4.9233e-41 4.9453e-41
000130 4d 89 00 80 1d 89 00 80 72 89 00 80 97 89 00 80
       -4.9254e-41 -4.9187e-41 -4.9306e-41 -4.9358e-41
000140 bc 89 00 80 25 89 00 80 d7 89 00 80 d0 88 00 80
       -4.941e-41 -4.9198e-41 -4.9448e-41 -4.9079e-41
000150 9f 89 00 00 1f 89 00 80 d6 89 00 80 17 89 00 00
       4.9369e-41 -4.919e-41 -4.9446e-41 4.9179e-41
000160 e3 88 00 80 9e 89 00 00 98 89 00 00 70 8a 00 80
       -4.9106e-41 4.9368e-41 4.936e-41 -4.9662e-41
000170 94 89 00 00 05 8a 00 80 c5 89 00 80 18 89 00 00
       4.9354e-41 -4.9512e-41 -4.9422e-41 4.918e-41
000180 2b 89 00 80 4a 89 00 80 cb 88 00 00 f5 89 00 00
       -4.9207e-41 -4.925e-41 4.9072e-41 4.949e-41
000190 07 89 00 80 6c 89 00 00 86 89 00 80 5f 89 00 80
       -4.9156e-41 4.9298e-41 -4.9334e-41 -4.928e-41
0001a0 5e 89 00 80 0c 89 00 00 f2 88 00 80 f9 88 00 00
       -4.9278e-41 4.9163e-41 -4.9127e-41 4.9137e-41
0001b0 fb 88 00 00 0e 8a 00 00 54 89 00 00 da 88 00 00
       4.914e-41 4.9525e-41 4.9264e-41 4.9093e-41
0001c0 f8 89 00 80 88 89 00 80 3a 89 00 80 e1 88 00 80
       -4.9494e-41 -4.9337e-41 -4.9228e-41 -4.9103e-41
0001d0 d2 9d 00 80 e6 88 00 00 cb 89 00 80 91 89 00 80
       -5.6615e-41 4.911e-41 -4.9431e-41 -4.935e-41
0001e0 bf 89 00 80 e0 88 00 80 14 89 00 00 f2 89 00 80
       -4.9414e-41 -4.9101e-41 4.9174e-41 -4.9485e-41
0001f0 e4 88 00 80 a8 89 00 80 fd 88 00 80 00 8a 00 00
       -4.9107e-41 -4.9382e-41 -4.9142e-41 4.9505e-41
000200 90 89 00 80 8c 89 00 80 fd 88 00 80 ea 89 00 80
       -4.9348e-41 -4.9343e-41 -4.9142e-41 -4.9474e-41
000210 e4 88 00 80 f7 88 00 80 69 89 00 00 39 89 00 80
       -4.9107e-41 -4.9134e-41 4.9293e-41 -4.9226e-41
000220 c6 88 00 00 45 89 00 80 51 89 00 00 dd 88 00 00
       4.9065e-41 -4.9243e-41 4.926e-41 4.9097e-41
000230 f1 89 00 00 f8 89 00 00 75 89 00 80 36 89 00 00
       4.9484e-41 4.9494e-41 -4.931e-41 4.9222e-41
000240 89 89 00 80 cd 88 00 00 2d 89 00 80 cd 88 00 00
       -4.9338e-41 4.9075e-41 -4.921e-41 4.9075e-41
000250 de 88 00 80 be 88 00 80 22 89 00 80 ea 89 00 80
       -4.9099e-41 -4.9054e-41 -4.9194e-41 -4.9474e-41
000260 d2 89 00 00 c5 89 00 80 12 89 00 00 08 8a 00 00
       4.944e-41 -4.9422e-41 4.9172e-41 4.9516e-41
000270 cb 89 00 80 45 89 00 00 c3 88 00 00 a7 8c 00 80
       -4.9431e-41 4.9243e-41 4.9061e-41 -5.0457e-41
000280 00 89 00 80 71 98 00 80 e9 88 00 00 3f 89 00 80
       -4.9146e-41 -5.4686e-41 4.9114e-41 -4.9235e-41
000290 e4 88 00 80 f7 89 00 80 8b 89 00 80 2b 89 00 80
       -4.9107e-41 -4.9492e-41 -4.9341e-41 -4.9207e-41
0002a0 cc 89 00 80 e1 88 00 00 e5 89 00 00 4e 89 00 80
       -4.9432e-41 4.9103e-41 4.9467e-41 -4.9256e-41
0002b0 af 89 00 00 b0 89 00 80 5e 89 00 80 bf 89 00 80
       4.9392e-41 -4.9393e-41 -4.9278e-41 -4.9414e-41
0002c0 24 89 00 80 53 89 00 00 25 89 00 00 07 8a 00 80
       -4.9197e-41 4.9263e-41 4.9198e-41 -4.9515e-41
0002d0 bd 89 00 80 3c 89 00 00 74 89 00 80 75 89 00 00
       -4.9411e-41 4.923e-41 -4.9309e-41 4.931e-41
0002e0 e2 89 00 80 d4 89 00 00 f3 89 00 00 9c 89 00 80
       -4.9463e-41 4.9443e-41 4.9487e-41 -4.9365e-41
0002f0 e4 89 00 00 39 89 00 80 d7 89 00 80 6b 89 00 80
       4.9466e-41 -4.9226e-41 -4.9448e-41 -4.9296e-41
000300 c3 88 00 00 f0 89 00 00 d4 89 00 80 9e 89 00 80
       4.9061e-41 4.9483e-41 -4.9443e-41 -4.9368e-41
000310 a8 89 00 80 bd 88 00 80 20 89 00 80 f8 88 00 00
       -4.9382e-41 -4.9052e-41 -4.9191e-41 4.9135e-41
000320 62 89 00 00 c2 88 00 80 0d 8a 00 00 98 89 00 00
       4.9284e-41 -4.906e-41 4.9523e-41 4.936e-41
000330 0a 89 00 00 6b 9d 00 00 1a 89 00 80 82 89 00 80
       4.916e-41 5.6471e-41 -4.9183e-41 -4.9329e-41
000340 9c 89 00 00 47 89 00 00 4a 89 00 00 d4 88 00 80
       4.9365e-41 4.9246e-41 4.925e-41 -4.9085e-41
000350 fb 89 00 80 bb 89 00 00 80 89 00 00 f5 89 00 80
       -4.9498e-41 4.9408e-41 4.9326e-41 -4.949e-41
000360 fb 89 00 00 00 8a 00 00 31 89 00 80 3e 89 00 80
       4.9498e-41 4.9505e-41 -4.9215e-41 -4.9233e-41
000370 ee 88 00 80 df 88 00 00 15 89 00 80 f4 88 00 80
       -4.9121e-41 4.91e-41 -4.9176e-41 -4.913e-41
000380 51 89 00 80 e0 88 00 00 79 89 00 80 ec 88 00 80
       -4.926e-41 4.9101e-41 -4.9316e-41 -4.9118e-41
000390 bb 88 00 80 2a 89 00 80 3c 89 00 00 5d 89 00 80
       -4.905e-41 -4.9205e-41 4.923e-41 -4.9277e-41
0003a0 f7 89 00 80 4a 89 00 00 5f 89 00 80 2c 89 00 80
       -4.9492e-41 4.925e-41 -4.928e-41 -4.9208e-41
0003b0 18 89 00 80 3d 89 00 80 27 89 00 00 fe 88 00 80
       -4.918e-41 -4.9232e-41 4.9201e-41 -4.9144e-41
0003c0 06 89 00 00 c6 89 00 80 b1 89 00 80 54 89 00 00
       4.9155e-41 -4.9424e-41 -4.9394e-41 4.9264e-41
0003d0 8d 89 00 80 dd 89 00 00 b9 89 00 80 53 89 00 80
       -4.9344e-41 4.9456e-41 -4.9406e-41 -4.9263e-41
0003e0 d9 89 00 00 70 89 00 00 52 9a 00 80 1e 89 00 80
       4.945e-41 4.9303e-41 -5.536e-41 -4.9188e-41
0003f0 09 89 00 00 7a 89 00 80 33 89 00 00 8b 89 00 80
       4.9159e-41 -4.9317e-41 4.9218e-41 -4.9341e-41

conv4.0.bias f4 [128]
000000 78 8f 00 00 e7 8f 00 00 2a 90 00 00 82 9c 00 80
       5.1467e-41 5.1622e-41 5.1716e-41 -5.6144e-41
000010 be db 01 00 c3 88 00 00 4d 8c 00 00 c1 88 00 80
       1.70664e-40 4.9061e-41 5.033e-41 -4.9058e-41
000020 45 9e 00 00 cc 88 00 00 57 a7 01 80 dd 89 00 80
       5.6776e-41 4.9073e-41 -1.51866e-40 -4.9456e-41
000030 91 a4 00 80 af ae 00 80 22 92 00 80 c6 88 00 00
       -5.9035e-41 -6.2665e-41 -5.2423e-41 4.9065e-41
000040 32 ab 00 80 f0 ac 00 00 bb 9d 00 00 e4 a4 00 00
       -6.1413e-41 6.2038e-41 5.6583e-41 5.9152e-41
000050 99 96 00 80 b2 d5 02 00 01 89 00 00 38 8c 00 80
       -5.4024e-41 2.6033e-40 4.9148e-41 -5.0301e-41
000060 e4 88 00 00 cb a4 00 00 12 8c 00 80 bc a1 00 80
       4.9107e-41 5.9117e-41 -5.0248e-41 -5.802e-41
000070 9c 9f 00 00 39 37 01 80 09 a7 00 00 56 8a 00 80
       5.7257e-41 -1.11646e-40 5.9921e-41 -4.9626e-41
000080 e3 9d 00 80 70 aa 00 00 16 ad 00 00 95 94 00 80
       -5.6639e-41 6.1141e-41 6.2092e-41 -5.3301e-41
000090 83 c3 00 00 63 94 00 00 bb 88 00 80 4a 89 00 80
       7.0136e-41 5.3231e-41 -4.905e-41 -4.925e-41
0000a0 e6 90 00 80 d0 ac 00 80 a2 90 00 00 b7 a1 00 00
       -5.198e-41 -6.1993e-41 5.1884e-41 5.8012e-41
0000b0 4f a7 00 80 e3 9f 00 80 de a0 00 80 d6 88 00 00
       -6.0019e-41 -5.7357e-41 -5.7708e-41 4.9087e-41
0000c0 55 25 00 00 6b 92 00 00 e4 88 00 00 83 fa 02 80
       1.3392e-41 5.2525e-41 4.9107e-41 -2.73538e-40
0000d0 c4 19 00 00 d5 88 00 00 ce 9e 00 80 00 a0 00 80
       9.243e-42 4.9086e-41 -5.6968e-41 -5.7397e-41
0000e0 46 9c 00 00 74 94 00 80 d1 8d 00 80 00 8b 00 80
       5.606e-41 -5.3255e-41 -5.0874e-41 -4.9864e-41
0000f0 9d 8e 00 80 7e a3 00 00 7e 8b 00 80 93 a0 00 80
       -5.116e-41 5.865e-41 -5.004e-41 -5.7603e-41
000100 1e ab 00 80 c0 aa 00 80 03 89 00 80 e6 99 00 80
       -6.1385e-41 -6.1254e-41 -4.915e-41 -5.5208e-41
000110 9a 89 00 80 1a 9f 00 00 44 9e 00 80 32 99 00 00
       -4.9362e-41 5.7075e-41 -5.6775e-41 5.4956e-41
000120 73 99 00 80 53 94 00 80 27 89 00 00 02 83 01 00
       -5.5047e-41 -5.3209e-41 4.9201e-41 1.38832e-40
000130 f6 a2 00 80 f1 a5 00 80 7c a3 00 00 94 92 00 80
       -5.846e-41 -5.9529e-41 5.8647e-41 -5.2582e-41
000140 8f bf 01 80 cd 88 00 80 dc 98 00 80 12 89 00 80
       -1.60554e-40 -4.9075e-41 -5.4836e-41 -4.9172e-41
000150 bd 97 00 80 36 95 00 00 da bd 02 00 4f 60 00 80
       -5.4433e-41 5.3527e-41 2.51777e-40 -3.4549e-41
000160 8a a3 00 80 78 a7 00 80 dd 8e 01 80 79 92 00 00
       -5.8667e-41 -6.0076e-41 -1.43085e-40 5.2544e-41
000170 ed 00 02 00 56 89 00 00 3a a8 00 80 eb 8b 00 00
       1.84003e-40 4.9267e-41 -6.0348e-41 5.0193e-41
000180 10 9e 00 00 bc 88 00 00 ea ac 00 00 a4 ad 00 00
       5.6702e-41 4.9051e-41 6.203e-41 6.229e-41
000190 a4 a3 00 00 ad 91 00 00 e9 8b 00 00 2c 9b 00 00
       5.8703e-41 5.2259e-41 5.019e-41 5.5665e-41
0001a0 05 89 00 00 35 89 00 00 0e 8f 00 80 14 ac 00 80
       4.9153e-41 4.922e-41 -5.1318e-41 -6.173e-41
0001b0 ca 88 00 00 14 ab 00 00 b9 88 00 80 15 89 00 80
       4.907e-41 6.1371e-41 -4.9047e-41 -4.9176e-41
0001c0 d1 88 00 00 a9 8b 00 00 04 89 00 00 f1 ab 00 80
       4.908e-41 5.01e-41 4.9152e-41 -6.1681e-41
0001d0 2e a0 00 00 b3 29 00 80 c3 88 00 00 c2 a8 00 00
       5.7462e-41 -1.4959e-41 4.9061e-41 6.0539e-41
0001e0 88 95 00 80 fa 9d 00 80 d8 88 00 00 ee ae 00 80
       -5.3642e-41 -5.6671e-41 4.909e-41 -6.2753e-41
0001f0 6c 9a 00 00 36 4f 01 80 c5 90 00 80 29 a2 00 80
       5.5396e-41 -1.20251e-40 -5.1934e-41 -5.8172e-41

conv4.1.weight f4 [128]
000000 b2 89 00 00 c2 89 00 00 42 89 00 00 62 89 00 00
       4.9396e-41 4.9418e-41 4.9239e-41 4.9284e-41
000010 bd 89 00 00 f9 88 00 00 2d 89 00 00 a6 89 00 00
       4.9411e-41 4.9137e-41 4.921e-41 4.9379e-41
000020 f7 88 00 00 2d 89 00 00 cc 89 00 00 86 89 00 00
       4.9134e-41 4.921e-41 4.9432e-41 4.9334e-41
000030 bc 88 00 00 87 89 00 00 9e 89 00 00 be 89 00 00
       4.9051e-41 4.9336e-41 4.9368e-41 4.9413e-41
000040 c1 89 00 00 26 89 00 00 a7 89 00 00 0e 89 00 00
       4.9417e-41 4.92e-41 4.938e-41 4.9166e-41
000050 57 89 00 00 d4 88 00 00 9d 89 00 00 cc 88 00 00
       4.9268e-41 4.9085e-41 4.9366e-41 4.9073e-41
000060 0e 89 00 00 fd 88 00 00 48 89 00 00 55 89 00 00
       4.9166e-41 4.9142e-41 4.9247e-41 4.9265e-41
000070 03 89 00 00 c7 89 00 00 b6 89 00 00 95 89 00 00
       4.915e-41 4.9425e-41 4.9401e-41 4.9355e-41
000080 1a 8a 00 00 6e 89 00 00 c3 89 00 00 dc 88 00 00
       4.9542e-41 4.93e-41 4.942e-41 4.9096e-41
000090 a4 89 00 00 e8 89 00 00 2c 89 00 00 0d 8a 00 00
       4.9376e-41 4.9471e-41 4.9208e-41 4.9523e-41
0000a0 d0 88 00 00 1a 89 00 00 26 89 00 00 1f 8a 00 00
       4.9079e-41 4.9183e-41 4.92e-41 4.9549e-41
0000b0 7a 89 00 00 66 89 00 00 8a 89 00 00 ff 89 00 00
       4.9317e-41 4.9289e-41 4.934e-41 4.9504e-41
0000c0 9b 89 00 00 f9 89 00 00 bb 88 00 00 63 89 00 00
       4.9364e-41 4.9495e-41 4.905e-41 4.9285e-41
0000d0 fd 88 00 00 66 89 00 00 99 89 00 00 08 89 00 00
       4.9142e-41 4.9289e-41 4.9361e-41 4.9158e-41
0000e0 d8 89 00 00 ce 89 00 00 67 89 00 00 7c 89 00 00
       4.9449e-41 4.9435e-41 4.929e-41 4.932e-41
0000f0 18 89 00 00 2e 89 00 00 4a 89 00 00 6b 89 00 00
       4.918e-41 4.9211e-41 4.925e-41 4.9296e-41
000100 b5 89 00 00 fc 89 00 00 83 89 00 00 c4 89 00 00
       4.94e-41 4.95e-41 4.933e-41 4.9421e-41
000110 81 89 00 00 e0 89 00 00 a5 89 00 00 d4 89 00 00
       4.9327e-41 4.946e-41 4.9378e-41 4.9443e-41
000120 55 89 00 00 da 88 00 00 2f 89 00 00 fb 89 00 00
       4.9265e-41 4.9093e-41 4.9212e-41 4.9498e-41
000130 1f 8a 00 00 ef 89 00 00 bc 88 00 00 6f 89 00 00
       4.9549e-41 4.9481e-41 4.9051e-41 4.9302e-41
000140 c8 89 00 00 db 88 00 00 eb 88 00 00 a7 89 00 00
       4.9427e-41 4.9094e-41 4.9117e-41 4.938e-41
000150 27 89 00 00 b0 89 00 00 d9 89 00 00 4b 89 00 00
       4.9201e-41 4.9393e-41 4.945e-41 4.9251e-41
000160 d8 89 00 00 17 8a 00 00 f5 89 00 00 db 88 00 00
       4.9449e-41 4.9537e-41 4.949e-41 4.9094e-41
000170 0c 8a 00 00 9a 89 00 00 cc 88 00 00 40 89 00 00
       4.9522e-41 4.9362e-41 4.9073e-41 4.9236e-41
000180 21 89 00 00 d9 88 00 00 b3 89 00 00 38 89 00 00
       4.9193e-41 4.9092e-41 4.9397e-41 4.9225e-41
000190 10 8a 00 00 ec 88 00 00 39 89 00 00 da 88 00 00
       4.9527e-41 4.9118e-41 4.9226e-41 4.9093e-41
0001a0 c4 88 00 00 f7 88 00 00 71 89 00 00 f7 89 00 00
       4.9062e-41 4.9134e-41 4.9305e-41 4.9492e-41
0001b0 25 89 00 00 ff 88 00 00 d7 88 00 00 04 8a 00 00
       4.9198e-41 4.9145e-41 4.9089e-41 4.951e-41
0001c0 d4 88 00 00 bf 89 00 00 c3 88 00 00 79 89 00 00
       4.9085e-41 4.9414e-41 4.9061e-41 4.9316e-41
0001d0 18 89 00 00 e5 89 00 00 e2 89 00 00 70 89 00 00
       4.918e-41 4.9467e-41 4.9463e-41 4.9303e-41
0001e0 42 89 00 00 8c 89 00 00 47 89 00 00 e3 89 00 00
       4.9239e-41 4.9343e-41 4.9246e-41 4.9464e-41
0001f0 ca 88 00 00 07 8a 00 00 df 89 00 00 ef 88 00 00
       4.907e-41 4.9515e-41 4.9459e-41 4.9123e-41
