code_new/weights/weights.pth (torch, 422631 bytes, 37 tensors)

conv.0.weight f4 [16, 6, 3, 3]
0	0x3d0beae9	0.034159575
1	0x3dad92b7	0.08475249
2	0xbda0df53	-0.07855096
3	0xbc20fcde	-0.009825913
4	0x3c940499	0.018068599
5	0xbc85c1ea	-0.016327817
6	0x3d34e34a	0.044162072
7	0xbcf7dbe1	-0.030256214
8	0x3d35a2d4	0.044344738
9	0x3d24df7e	0.0402522
10	0x3d08e1e7	0.033418562
11	0xbd8eab13	-0.069662236
12	0xbbd431ee	-0.0064756786
13	0x3cd474ae	0.025934543
14	0xbc79ae27	-0.015239275
15	0xbd4af3fc	-0.049549088
16	0xbca56f49	-0.020194666
17	0xbac0bc2b	-0.0014704516
18	0xbc0775d9	-0.008267843
19	0x3d524a45	0.05134036
20	0xbdcfc95e	-0.101458296
21	0xbc909efa	-0.017653931
22	0xbb868796	-0.0041055186
23	0x3b6c5dd5	0.003606667
24	0xbba2f04b	-0.004972493
25	0xbc764def	-0.015033229
26	0xbd0298fb	-0.031884175
27	0x3d0dcabc	0.03461717
28	0x3d6ccd4f	0.057812985
29	0xbd971451	-0.07376922
30	0x39a408c5	0.0003128705
31	0x3c7f1d6c	0.01557098
32	0xba5f4753	-0.0008517403
33	0xbd86ab3a	-0.065756276
34	0xbcefebd2	-0.029287253
35	0xbc52e66c	-0.01287232
36	0x3a0a9f2f	0.00052880024
37	0x3bf15282	0.007364572
38	0x3cd7d8b9	0.026348459
39	0xbc5fb74e	-0.013654543
40	0xbc2b0719	-0.010438704
41	0xbd0a9b30	-0.033839405
42	0xbccebb22	-0.025235716
43	0x3bde7b6a	0.0067896144
44	0x3d8fac16	0.07015245
45	0x3d194692	0.037420817
46	0x3cea9682	0.02863622
47	0x3c8ea05d	0.017410452
48	0x3c0cd3c3	0.00859541
49	0xbc62219d	-0.013801959
50	0xbc898acf	-0.016789822
51	0xbd924a1c	-0.071430415
52	0xbd93a78c	-0.072096914
53	0xbd7e3aac	-0.062067673
54	0x3e08bb85	0.13352783
55	0xbc27fe46	-0.010253495
56	0x3d9974d7	0.074929886
57	0xbdb786b4	-0.089612395
58	0x3d4f47e0	0.050605655
59	0x3dd903ea	0.1059645
60	0xbc80ce68	-0.015723422
61	0x3d848407	0.06470495
62	0xbcf31a10	-0.029675514
63	0xbbcc4a05	-0.0062344098
64	0x3d9df210	0.077121854
65	0xbd39121f	-0.045183297
66	0x3df34069	0.1187752
67	0x3dbbe508	0.091745436
68	0x3d94eb70	0.07271469
69	0x3d92a427	0.07160216
70	0x3d419116	0.047257505
71	0x3c8ba7cb	0.017047783
72	0x3db52c52	0.08846344
73	0xbd66f282	-0.056383617
74	0x3d0d2c93	0.034466337
75	0xbdc3b67f	-0.09556293
76	0xbd639728	-0.055564076
77	0x3b78bd09	0.003795447
78	0xbddae37f	-0.10687923
79	0x3d91ba7c	0.07115647
80	0xbc0b9811	-0.008520142
81	0x3d8343ad	0.064093925
82	0xbda844e5	-0.082162656
83	0x3c723c02	0.014784815
84	0x3d04f751	0.03246242
85	0xbce9b64d	-0.02852931
86	0x3cba67a3	0.022754496
87	0xbdc14b63	-0.09438207
88	0xbddf8fb5	-0.10916082
89	0xb9923378	-0.00027885637
90	0x3e08efe2	0.13372758
91	0x3c89143e	0.016733285
92	0xbdf7fced	-0.12108789
93	0x3da034df	0.07822584
94	0xbdb1cd6b	-0.086817585
95	0xbcd04285	-0.025422344
96	0xbd6c3140	-0.057664156
97	0xbcfb1911	-0.030651601
98	0xbd0d5db9	-0.03451321
99	0xbcf38407	-0.029726041
100	0xbde465b5	-0.111522116
101	0xbda4d442	-0.080482975
102	0x3c648f83	0.0139502315
103	0x3d80e10a	0.06292923
104	0x3c88a958	0.016682312
105	0x3ddda166	0.108218
106	0x3e49ecb8	0.19719207
107	0x3e6fc34c	0.23414344
108	0x3d7fb137	0.062424865
109	0x3dc1ed71	0.094691165
110	0x3ca0d0be	0.019630786
111	0x3c1e8aab	0.009676616
112	0xbc3e0d4a	-0.011599848
113	0x3da305ea	0.079601124
114	0x3d8c2883	0.068436645
115	0x3d775a56	0.060388885
116	0x3a8d24b2	0.0010768382
117	0xbc54659e	-0.012963681
118	0x3cbb31bd	0.022850865
119	0xbcd67dc0	-0.02618301
120	0xbc0ac733	-0.008470344
121	0x3ca59bc6	0.02021588
122	0x3d0a0309	0.0336943
123	0x3d867197	0.06564634
124	0x3d2e95f0	0.04262346
125	0xbc4abca7	-0.01237408
126	0x3d1af52e	0.037831478
127	0x3d911cc6	0.07085566
128	0xbd25b8fe	-0.040459625
129	0xbd360edb	-0.04444776
130	0xbde5b64d	-0.11216412
131	0x3d30a336	0.0431244
132	0x3d1051b0	0.035234153
133	0xbca78c28	-0.020452574
134	0x3cebe669	0.028796392
135	0x3c8e89c5	0.017399678
136	0x3c15098f	0.009096517
137	0xbc1f010d	-0.00970484
138	0xbcc8962f	-0.024485676
139	0xbcdf75f8	-0.027277932
140	0xbd2f87e1	-0.042854194
141	0x3d6e072a	0.0581123
142	0xbda416fa	-0.08012195
143	0xbe075a0a	-0.13217941
144	0x3cd3b221	0.025841774
145	0xbc00560b	-0.007833014
146	0x3d997e10	0.07494748
147	0x3d9713a0	0.0737679
148	0xbd8729d4	-0.06599775
149	0xbd8a924d	-0.06766186
150	0x3d4af413	0.049549174
151	0x3cc0be65	0.023528287
152	0x3d896b4a	0.06709917
153	0x3dec67f1	0.11543263
154	0x3dc34910	0.0953542
155	0xbb2525be	-0.0025199498
156	0x3dd8c7b2	0.10584964
157	0x3d9466a6	0.07246141
158	0xbc773e39	-0.015090519
159	0x3e32e04d	0.17468376
160	0x3e3aafe4	0.1823116
161	0x3d760cb4	0.06007071
162	0xbd0f1508	-0.034932166
163	0x3dec5f24	0.11541584
164	0x3dd27438	0.10276073
165	0xb94100f9	-0.00018406277
166	0x3d14945e	0.036274306
167	0x3cbe05f9	0.023196207
168	0x3d0c5dbb	0.034269076
169	0x3c3d245b	0.011544312
170	0x3dcb8491	0.099373944
171	0xbd253fc5	-0.04034402
172	0x3dbbb12d	0.09164653
173	0xbd5f44f5	-0.054509122
174	0x3d135dd1	0.035978142
175	0x3d134cd4	0.03596194
176	0x3d2026a3	0.039099347
177	0x3cecd26c	0.02890893
178	0x3cee8ab8	0.02911888
179	0x3d54c0bc	0.05194162
180	0xbdbbea18	-0.09175509
181	0xba0b3ae6	-0.0005311206
182	0xbd7bf541	-0.06151319
183	0x3d4ee055	0.05050691
184	0xbd46e052	-0.048553772
185	0xbd0ab1d0	-0.03386098
186	0xbc07dd33	-0.008292484
187	0x3c33307c	0.010936853
188	0xbd0cce8e	-0.034376673
189	0xbcad4565	-0.021151254
190	0xbbfd9ebe	-0.007739871
191	0xbd26220d	-0.040559817
192	0xbd19f9e9	-0.03759185
193	0xbcb89547	-0.022532118
194	0xbc13a9b1	-0.009012626
195	0xbdbb4b65	-0.0914524
196	0xbc716ca7	-0.014735377
197	0xbd137b5b	-0.036006313
198	0xbd31737e	-0.043323033
199	0x3c44b281	0.012005449
200	0x3c281081	0.010257841
201	0xbc9d4d89	-0.01920201
202	0x3b403679	0.0029329343
203	0x3dd61ac6	0.104543254
204	0x3c9044a3	0.017610854
205	0x3d5c3b02	0.05376721
206	0x3d44d339	0.048053
207	0x3d84d0f4	0.06485167
208	0x3e0e0610	0.138695
209	0x3d776fc9	0.06040934
210	0x3e24ee53	0.16106538
211	0x3e419d70	0.18907714
212	0x3e19d67a	0.15023223
213	0x3e4644b1	0.19362141
214	0x3e4928bf	0.1964445
215	0x3e51a323	0.20472388
216	0x3d9b435d	0.07581208
217	0x3cd3d0dd	0.02585643
218	0x3aff5551	0.0019480382
219	0xbc9f9cdb	-0.019483974
220	0x3d83fc87	0.0644465
221	0x3daccba8	0.08437282
222	0xbd721525	-0.059102196
223	0xbc46d2de	-0.012135236
224	0x3c0737f0	0.008253083
225	0x3dbd1172	0.09231843
226	0x3d220d52	0.039563484
227	0x3dbdadd3	0.0926167
228	0x3d08c237	0.033388343
229	0xbd1495a3	-0.036275517
230	0x3d57394c	0.052544877
231	0xbdc835a9	-0.0977586
232	0x3caeb907	0.021328462
233	0xbc01f1c2	-0.007931175
234	0xbd2d6073	-0.04232831
235	0x3d6c5cd3	0.05770571
236	0xbc7a3630	-0.015271708
237	0x3d1b7fd9	0.037963722
238	0xbd9246ae	-0.07142387
239	0x3dd575d8	0.104228675
240	0x3cba0680	0.022708178
241	0xbd1f21a4	-0.03885044
242	0xbd7e22ff	-0.062045094
243	0x3d60f2ea	0.05491916
244	0xbca80198	-0.020508572
245	0x3db31723	0.08744647
246	0xbd9ee28f	-0.07758056
247	0x3d902dcf	0.07039987
248	0xbd352eec	-0.0442342
249	0xbcb1f818	-0.021724746
250	0x3cf209cb	0.029545685
251	0xbc034e32	-0.008014249
252	0x3e099ab7	0.13437925
253	0x3ccf7c93	0.025327956
254	0x3d9f0bc8	0.07765919
255	0xbc3bfbaf	-0.01147358

conv.0.bias f4 [16]
0	0x2e9cafcc	7.1252865e-11
1	0xb140ba20	-2.8045477e-09
2	0x32d16cd5	2.4380293e-08
3	0xb256de86	-1.2507035e-08
4	0x318f0c54	4.1632493e-09
5	0x308d8941	1.029811e-09
6	0xb33107e9	-4.1218218e-08
7	0xb1b73b8b	-5.3327702e-09
8	0xb0fd1640	-1.8414497e-09
9	0xb1fbb178	-7.3252373e-09
10	0x30e44d0e	1.6611084e-09
11	0x2fe6e31f	4.1998136e-10
12	0x31e6b8fe	6.714912e-09
13	0xb24e1d42	-1.1997431e-08
14	0x30e42b8a	1.6601558e-09
15	0x2e6c8b4a	5.37839e-11

conv.1.weight f4 [16]
0	0x3e1173f4	0.14204389
1	0x3eddac03	0.43295297
2	0x3f0e345d	0.5554865
3	0x3efd73d8	0.49502444
4	0x3ee6147c	0.44937503
5	0x3e986d97	0.2977111
6	0x3f0f3b3c	0.5594976
7	0x3ecc7e0b	0.39939913
8	0x3e5f57c7	0.21810828
9	0x3ef2dc71	0.47433808
10	0x3ef18103	0.4716874
11	0x3eda2662	0.4260741
12	0x3ea0139b	0.31264958
13	0x3eb98a4d	0.36238328
14	0x3e782bdc	0.24235481
15	0x3e14668e	0.14492247

conv.1.bias f4 [16]
0	0xbd5cc0cc	-0.053894803
1	0xbdabd2c7	-0.08389812
2	0xbe08d8c0	-0.13363934
3	0xbe4ec568	-0.20192492
4	0xbdfef405	-0.12448887
5	0xbd60bc02	-0.0548668
6	0xbe292091	-0.1651633
7	0xbc9c9e09	-0.019118326
8	0xbd55bb18	-0.05218038
9	0xbe03a2b0	-0.12855029
10	0xbe02da13	-0.12778501
11	0xbdf89509	-0.12137801
12	0xbd781506	-0.060566925
13	0xbda593f9	-0.08084864
14	0xbe09f615	-0.13472779
15	0xbe018bd7	-0.12651001

conv.1.running_mean f4 [16]
0	0x415a9c9e	13.663237
1	0xc2498f7b	-50.390118
2	0xc3648f47	-228.55968
3	0xc33ebd8a	-190.74039
4	0xc2d996cd	-108.79453
5	0xc3442685	-196.15047
6	0xc35209c4	-210.03815
7	0x4162696d	14.150739
8	0xc3033c29	-131.235
9	0xc2bc4be8	-94.148254
10	0x429b2d63	77.588646
11	0x430ae461	138.8921
12	0xc28fa3d0	-71.81995
13	0xc307ddfd	-135.86714
14	0x420bbe37	34.935757
15	0xc2a57344	-82.72513

conv.1.running_var f4 [16]
0	0x460ff373	9212.862
1	0x4729f3f4	43507.953
2	0x47c4e5c9	100811.57
3	0x480065c4	131479.06
4	0x4751641c	53604.11
5	0x479ffd4f	81914.62
6	0x48163525	153812.58
7	0x4690e272	18545.223
8	0x47362cdd	46636.863
9	0x47437550	50037.312
10	0x46ce5369	26409.705
11	0x47333b40	45883.25
12	0x46e7092f	29572.592
13	0x46ded0a4	28520.32
14	0x46865686	17195.262
15	0x4650c1ab	13360.417

conv.3.mlp.0.weight f4 [1, 16, 1, 1]
0	0x3cd5937d	0.026071304
1	0xbd80672b	-0.06269678
2	0x3d187f89	0.037231002
3	0x39fecc81	0.00048599023
4	0xbdfa3451	-0.1221701
5	0x3c3f9b34	0.011694718
6	0xbc562eb4	-0.013072658
7	0x3ddb3dec	0.1070517
8	0xbcffe781	-0.03123832
9	0x3dd0a159	0.101870246
10	0x3db6f1f0	0.08932865
11	0x3d3a3196	0.045457445
12	0x3e1c751f	0.15279053
13	0x3d832998	0.06404418
14	0xbd486ef5	-0.048933942
15	0xbc4f57a3	-0.012655172

conv.3.mlp.2.weight f4 [16, 1, 1, 1]
0	0xbc1c8e30	-0.0095553845
1	0x3d09f815	0.033683855
2	0x3ddd1e25	0.10796765
3	0x3d53531c	0.05159293
4	0x3d7a628a	0.06112913
5	0x3bbfffcb	0.0058593503
6	0x3e648f54	0.223203
7	0xbc952b2a	-0.018209059
8	0xbc118fb5	-0.00888436
9	0x3cae6b7a	0.021291483
10	0x3d6bb674	0.057547048
11	0x3ba92c3f	0.0051627452
12	0xbd1a896c	-0.037728712
13	0xbc819ebe	-0.015822764
14	0x3af5dc43	0.001875766
15	0xb9bf2073	-0.00036454535

conv.3.conv.weight f4 [1, 2, 7, 7]
0	0xbc514a13	-0.012774008
1	0x3cbdc2af	0.023164121
2	0x3d488089	0.048950706
3	0x3d3ea0b0	0.046539962
4	0x3da1c110	0.07898152
5	0x3d5c8897	0.0538412
6	0x3dbf7d00	0.09350014
7	0xbd3a8243	-0.045534384
8	0x3832a3ca	4.2591048e-05
9	0xbdb290d1	-0.08719028
10	0xbd946825	-0.072464265
11	0xbd7fd0b0	-0.06245488
12	0xbd26bca0	-0.04070723
13	0xbc6300c9	-0.013855168
14	0xbb92e0ff	-0.004482388
15	0xbdb95efc	-0.0905132
16	0xbda5d2ca	-0.080968454
17	0xbce68052	-0.02813736
18	0xbc73682d	-0.01485638
19	0xbd27076f	-0.040778574
20	0xbc5c8436	-0.013459256
21	0xbd94679c	-0.072463244
22	0xbd6ee5f9	-0.058324788
23	0xbd35ec2a	-0.044414677
24	0xbda700d6	-0.08154456
25	0xbdf3f60b	-0.11912163
26	0xbe02fd77	-0.12792002
27	0xbd791ac7	-0.060816552
28	0xbbe9066f	-0.0071113626
29	0xbd43dff5	-0.047821004
30	0xbd465b4a	-0.048426904
31	0xbca1b306	-0.019738685
32	0x3d1f3f65	0.038878817
33	0x3bd3ae9e	0.006460025
34	0x3d8a7db4	0.06762257
35	0x3b881832	0.004153275
36	0x3d60c42f	0.054874595
37	0xbb427b01	-0.0029675367
38	0xbb619e0a	-0.0034426474
39	0x3c996506	0.01872493
40	0xbd682a52	-0.056680985
41	0x3d4f0ecc	0.05055122
42	0x3b96d894	0.004603455
43	0x3c5b6b70	0.013392314
44	0xba2c5c2c	-0.0006575014
45	0x3d07fc32	0.033199497
46	0x3d808c1f	0.06276726
47	0x3d1cb34f	0.03825694
48	0xbaf9f359	-0.0019069716
49	0xbc1d05ea	-0.00958393
50	0xbc33b19e	-0.01096764
51	0xbc670ead	-0.01410262
52	0xbb48f989	-0.0030666313
53	0xbc093dfb	-0.008376594
54	0xbb89842a	-0.0041966634
55	0x3a875220	0.0010324158
56	0xbc8d5b33	-0.017255401
57	0xbc62dc59	-0.01384648
58	0xbc98ae58	-0.018637821
59	0xbc7d2dc1	-0.015452803
60	0xbc55ee2e	-0.013057275
61	0xbc47faad	-0.012205762
62	0xbc16caf3	-0.00920366
63	0xbbeb29ee	-0.0071766293
64	0xbc8a4a46	-0.01688112
65	0xbc62a617	-0.013833544
66	0xbba05dd3	-0.004893997
67	0x3a9a5f68	0.0011777701
68	0x3a8ddbd7	0.0010822964
69	0x3ba56d8f	0.005048461
70	0xbcb59a4f	-0.022168307
71	0xbc3e2327	-0.011605061
72	0xbc44619b	-0.011986162
73	0xbc71fda9	-0.01476995
74	0xbca76bc1	-0.020437123
75	0xbc6a02a3	-0.014282855
76	0x3b80cfe5	0.003931033
77	0xbb97bda8	-0.004630763
78	0xbc2957ea	-0.010335902
79	0xbba490f6	-0.0050221635
80	0x394e810d	0.00019693766
81	0xbb9bfea4	-0.00476058
82	0xb9453f35	-0.0001881093
83	0x3c152537	0.009103111
84	0xbb0d9e4e	-0.002160925
85	0x3bfbc4de	0.0076833805
86	0xbb86f267	-0.004118252
87	0xbbd6cc08	-0.006555084
88	0xbc478d94	-0.012179751
89	0xbbc324c9	-0.005955313
90	0xb9f2f7b2	-0.00046342384
91	0xbb8791b1	-0.004137241
92	0xbabf988d	-0.0014617607
93	0xbb75dcdf	-0.0037515683
94	0xbc1f7c78	-0.0097342655
95	0xbc003c93	-0.007826942
96	0xbc243447	-0.0100222295
97	0xbba3c96d	-0.004998377

conv2.0.weight f4 [32, 16, 3, 3]
0	0x36d47e25	6.3327775e-06
1	0xb64b0d2c	-3.0257024e-06
2	0x37011307	7.693429e-06
3	0x37aa8955	2.032953e-05
4	0x372407ef	9.777009e-06
5	0x36a0e75b	4.795305e-06
6	0x3723d2bd	9.764623e-06
7	0x3631cf70	2.64958e-06
8	0x35d80403	1.6094422e-06
9	0x3a6810fb	0.0008852628
10	0x3aaf81d3	0.0013390131
11	0x3a8705ec	0.0010301447
12	0x39d60694	0.00040822162
13	0x398243e3	0.00024846112
14	0x39ffd881	0.00048798698
15	0x3a10bc40	0.00055212155
16	0xb9b60e84	-0.0003472456
17	0x37e75382	2.7576232e-05
18	0x3a036373	0.00050120725
19	0x39a3ab9a	0.00031217636
20	0x398a48c4	0.00026375626
21	0xb89a2e90	-7.351965e-05
22	0xb89c2448	-7.4454176e-05
23	0xb9590da3	-0.00020699813
24	0x38f8f78e	0.00011871672
25	0xb6a8bebb	-5.028994e-06
26	0xb80a615c	-3.2992437e-05
27	0x373ed0f4	1.1373533e-05
28	0xb6eca4ac	-7.0525184e-06
29	0x371bc3cf	9.28431e-06
30	0xb6ece4cf	-7.059985e-06
31	0x327cf114	1.4723145e-08
32	0x3708af54	8.147053e-06
33	0xb4a0593b	-2.9867246e-07
34	0xb7726bbe	-1.444941e-05
35	0xb79b55a4	-1.851732e-05
36	0x3ae922c9	0.0017786856
37	0x3a80e4d4	0.0009833821
38	0x39e68f3c	0.00043975736
39	0x3af2eb42	0.0018533247
40	0x3b02c08a	0.0019951188
41	0x3b35e9f1	0.0027757848
42	0xba8a8fed	-0.0010571458
43	0xb99ce7d2	-0.00029927358
44	0x3a010292	0.00049213425
45	0xb726af6c	-9.935215e-06
46	0x38089a95	3.2568892e-05
47	0x3819de48	3.6685058e-05
48	0x38c6529e	9.4567644e-05
49	0x38ba6a95	8.8890236e-05
50	0x38d7dc08	0.00010292983
51	0xb7c93e3f	-2.3990053e-05
52	0x36aa96a5	5.083932e-06
53	0x37cddf34	2.4541841e-05
54	0x381e12b9	3.7687572e-05
55	0x37ed3ed1	2.8281853e-05
56	0x38950a4f	7.106794e-05
57	0xb87de44d	-6.0532522e-05
58	0xb6ac4a32	-5.134637e-06
59	0x3816e9ab	3.5980407e-05
60	0xb72b54e9	-1.0212164e-05
61	0x36ab9998	5.114078e-06
62	0xb6e7aef6	-6.9047046e-06
63	0xb95629f3	-0.00020424258
64	0xb9d60c14	-0.0004082626
65	0xb9847ac9	-0.00025268484
66	0x3b16b9e6	0.0022998988
67	0x3ac40fe7	0.0014958353
68	0xb64010c2	-2.8619984e-06
69	0xbab11f9c	-0.0013513449
70	0xba7b7e99	-0.00095937547
71	0xb9f317e6	-0.00046366378
72	0xb85db38c	-5.2857722e-05
73	0xb952bf7d	-0.00020098496
74	0xb8bb3a5f	-8.927727e-05
75	0x37836909	1.5665328e-05
76	0x379fbe21	1.9042813e-05
77	0x384542a6	4.703053e-05
78	0x37ebebe5	2.812403e-05
79	0x37a62c0a	1.980925e-05
80	0x37de092f	2.6468739e-05
81	0x37781cd1	1.4788661e-05
82	0xb8c6c91e	-9.478837e-05
83	0xb811b15c	-3.4735873e-05
84	0xb7fa9297	-2.9870584e-05
85	0x3792fbf4	1.7521881e-05
86	0xb680b3a8	-3.835612e-06
87	0xb650b2a7	-3.1098405e-06
88	0x35ff812f	1.9036578e-06
89	0xb6011a84	-1.9237932e-06
90	0xbaa7dd62	-0.0012807066
91	0xba972416	-0.001153114
92	0xbacefce3	-0.0015791919
93	0xba109d34	-0.0005516589
94	0x37c51826	2.3495475e-05
95	0xba928ddb	-0.0011181192
96	0x39f8dd44	0.00047467102
97	0xbae0c596	-0.0017148729
98	0xbb344e34	-0.0027512433
99	0xb952b287	-0.00020093667
100	0xb93df572	-0.0001811588
101	0xb93b9f21	-0.0001789299
102	0xb91df906	-0.00015065455
103	0xb9671563	-0.00022037844
104	0xb8fda0bb	-0.000120939185
105	0x38579d6b	5.14066e-05
106	0x39b892cf	0.00035204596
107	0x3935e78d	0.00017347765
108	0xb91f9ab8	-0.00015221059
109	0xb9acd7c0	-0.00032967143
110	0x39ad2572	0.0003302503
111	0xb7e277f2	-2.6997153e-05
112	0xb787bb3f	-1.6180447e-05
113	0x3828a57a	4.0208433e-05
114	0x394530e1	0.00018805593
115	0x3978edca	0.00023739706
116	0x38e82e2a	0.00011071221
117	0x380e4aeb	3.392521e-05
118	0x3889eca9	6.5767505e-05
119	0x388c72ab	6.697079e-05
120	0xb8c9e535	-9.62712e-05
121	0x382fb466	4.189126e-05
122	0xb83cbd7c	-4.4999164e-05
123	0xb8190e6a	-3.6491467e-05
124	0x3829e321	4.050427e-05
125	0x384298b5	4.6395424e-05
126	0xb73974aa	-1.1054022e-05
127	0xb6ca74f3	-6.033684e-06
128	0xb727a2d6	-9.991889e-06
129	0xb72fecee	-1.0485977e-05
130	0xb765e400	-1.3702549e-05
131	0xb74e377e	-1.2291477e-05
132	0xb55137f9	-7.794002e-07
133	0xb60ad76f	-2.0689001e-06
134	0x354812f3	7.453338e-07
135	0x35555428	7.9471147e-07
136	0x346bffc5	2.1979129e-07
137	0xb29101a9	-1.6880977e-08
138	0x35896198	1.0235699e-06
139	0x359f9023	1.1888372e-06
140	0x3520a5fd	5.984619e-07
141	0x34a00e67	2.9812801e-07
142	0x34898a7c	2.5619e-07
143	0x338abde6	6.460668e-08
144	0xbc797a9f	-0.015226989
145	0xbc8814a9	-0.016611414
146	0xbc6945a8	-0.014237799
147	0xbcd71ed3	-0.026259815
148	0xbcb676b6	-0.022273403
149	0xbc35af29	-0.011089125
150	0xbba8fcfc	-0.005157111
151	0x3a01661e	0.0004936176
152	0xbb71b17b	-0.0036879468
153	0xbd441127	-0.04786792
154	0xbcefe7a7	-0.029285265
155	0xbc07c97a	-0.008287782
156	0xbc886d11	-0.01665357
157	0xbcc6d456	-0.024271172
158	0xbcb14041	-0.021637084
159	0x3c3f29f5	0.011667718
160	0x39aedc2a	0.000333519
161	0x3c84559c	0.016154103
162	0xbd1174ee	-0.035511903
163	0xbca7f670	-0.020503253
164	0xbcb7f75b	-0.022456815
165	0xbc2ff25f	-0.010738938
166	0xbc038a7f	-0.0080286255
167	0xbc9a6571	-0.0188472
168	0x3bec1ebe	0.007205813
169	0xbb836fc0	-0.0040111244
170	0x38b15d6f	8.457421e-05
171	0xb9bd61ff	-0.00036121902
172	0xbbd32055	-0.0064430633
173	0xb90be0e9	-0.00013339859
174	0xb9eee68e	-0.00045566674
175	0xbc0ec31e	-0.008713512
176	0xbc062fda	-0.00819012
177	0x3c454d27	0.01204232
178	0x3c8b7612	0.017024074
179	0x3c92e265	0.017930219
180	0xbc40b232	-0.011761235
181	0xbc121954	-0.0089171715
182	0xbccba2b6	-0.02485786
183	0xbc80060d	-0.015627885
184	0xbc59b0c7	-0.013286776
185	0xbba65426	-0.0050759492
186	0x3b0eed09	0.0021808764
187	0x3c7c08bd	0.015382943
188	0x3b85bf3f	0.004081636
189	0xbc5f8cfe	-0.013644455
190	0xbc37ebd7	-0.011225662
191	0xbcaac179	-0.020844208
192	0xbb8425fd	-0.004032849
193	0xbb76a132	-0.00376327
194	0xbc28f472	-0.010312187
195	0xbbb722f2	-0.0055888826
196	0xbca03724	-0.019557543
197	0xbc33080c	-0.0109272115
198	0x3c0b7b13	0.00851323
199	0xba84901d	-0.001011375
200	0xbc30eebb	-0.010799105
201	0xbbd2f3b7	-0.0064377445
202	0x3c54420a	0.012955198
203	0x3aaf6f80	0.001338467
204	0x3caa953f	0.02082312
205	0x3cb6889f	0.022281943
206	0x3cb395ea	0.02192207
207	0xbd161714	-0.036643103
208	0xbc9a4323	-0.018830841
209	0x3c6a821f	0.01431325
210	0xbcd67f2a	-0.026183683
211	0xbc97d2d2	-0.018533144
212	0xbc86b93c	-0.016445749
213	0x3d288778	0.041144818
214	0xbc0f2a4b	-0.008738111
215	0xbcfb5d5a	-0.030684162
216	0xbcb67f9f	-0.022277651
217	0xbc6528eb	-0.013986806
218	0xbc80e53f	-0.015734313
219	0x3c07e9fd	0.008295533
220	0x398c3184	0.00026739773
221	0x39e80544	0.00044254411
222	0x3c33b03d	0.010967311
223	0x3cb5753b	0.022150626
224	0x3cff1a23	0.031140393
225	0xbcb072e0	-0.021539152
226	0xbb9a3291	-0.004705735
227	0xba018c86	-0.0004941899
228	0x3c9d3a91	0.019192966
229	0x3c4a8177	0.012359968
230	0x3bceaff1	0.006307595
231	0x3bcf2081	0.0063210134
232	0x3ccb79e3	0.024838394
233	0x3d429664	0.047506705
234	0xbc827f19	-0.015929746
235	0x3c9c344b	0.019067904
236	0x3c7d9a29	0.015478649
237	0xb94e6aaa	-0.00019685426
238	0xbc968d5d	-0.018377954
239	0xbcb49d43	-0.022047644
240	0x3cfebff4	0.03109739
241	0x3d072217	0.032991495
242	0xbbc6eee3	-0.006070958
243	0x3d729e54	0.059233025
244	0x3d4268f8	0.047463387
245	0x3cfab757	0.030605001
246	0xbc8b4526	-0.017000746
247	0x3a132da2	0.0005614405
248	0x3c51dd95	0.012809177
249	0xbc164d37	-0.009173683
250	0xbcc98de1	-0.024603786
251	0xbc2bc425	-0.010483776
252	0xbc6e3182	-0.014538171
253	0xbd005001	-0.031326298
254	0xbd0e83d0	-0.034793675
255	0x3cbc86b4	0.02301345

conv2.0.bias f4 [32]
0	0xb0442818	-7.136136e-10
1	0x3695da76	4.4659782e-06
2	0x32b46317	2.0999819e-08
3	0x36aabe93	5.0885806e-06
4	0xb84b7c17	-4.851454e-05
5	0x365e7e17	3.3153972e-06
6	0x2f6c72ba	2.1504834e-10
7	0xb53c9b60	-7.026156e-07
8	0xaf84bcf1	-2.414491e-10
9	0x3101a9e0	1.8868533e-09
10	0x381e1909	3.769345e-05
11	0x372c5c61	1.02735075e-05
12	0x35ab888d	1.2780234e-06
13	0xb522a2b3	-6.058646e-07
14	0x369b89f3	4.6354194e-06
15	0xb4feb8b8	-4.7445587e-07
16	0xb787acfc	-1.6173806e-05
17	0xacb555d3	-5.153858e-12
18	0xaa984902	-2.7051283e-13
19	0xb474ff4d	-2.2817149e-07
20	0x37943104	1.76658e-05
21	0xb19a5af2	-4.492329e-09
22	0x359b5220	1.1572301e-06
23	0x3427b354	1.5618326e-07
24	0x3520604d	5.974478e-07
25	0x35ed0f27	1.7662286e-06
26	0xb639528f	-2.7615204e-06
27	0xb69f3822	-4.745104e-06
28	0xb576ad1e	-9.189406e-07
29	0x360b7496	2.0780476e-06
30	0x370513a5	7.931992e-06
31	0xae91d4bf	-6.631628e-11

conv2.1.weight f4 [32]
0	0x3c097d97	0.008391759
1	0x3de39874	0.111130625
2	0x3bf2b640	0.00740698
3	0x3e5844c4	0.21119982
4	0x3f3f7536	0.74788225
5	0x3e6dd345	0.23225124
6	0x3b213997	0.0024600977
7	0x3e5bf4dc	0.21480125
8	0x3bbec6c2	0.0058220336
9	0x3bc4b668	0.00600319
10	0x3ea9c304	0.33156598
11	0x3ed340e4	0.41260445
12	0x3d89c413	0.06726851
13	0x3ce5fa91	0.028073581
14	0x3e3eb312	0.18622997
15	0x3e8d9a82	0.27656943
16	0x3f17d6d4	0.59312177
17	0x392fc862	0.00016763949
18	0x399c42da	0.00029804447
19	0x3cba439e	0.02273732
20	0x3e32fe24	0.1747976
21	0x3cdaa580	0.026690245
22	0x3ebf24d5	0.37332788
23	0x3caa5c93	0.020796096
24	0x3d216e8e	0.039412074
25	0x3dbecfba	0.093169644
26	0x3e4a5329	0.19758286
27	0x3e2717be	0.1631765
28	0x3d2db5b6	0.04240962
29	0x3e9e29f4	0.30891383
30	0x3e92c7f7	0.28668186
31	0x3b7a28f2	0.0038171378

conv2.1.bias f4 [32]
0	0xbc192afa	-0.009348625
1	0xbd76fdf8	-0.060300797
2	0xbc6051d5	-0.013691385
3	0x3a321bd0	0.00067943055
4	0xbe58b20a	-0.21161667
5	0x3b6c12a9	0.0036021865
6	0xbace6c51	-0.0015748834
7	0xbdd8e0bf	-0.10589742
8	0xbb7feb5f	-0.0039050204
9	0xbc78713a	-0.015163714
10	0xbdd247eb	-0.102676235
11	0x3ce0ff37	0.027465446
12	0xbd0b6db8	-0.034040183
13	0xbd0732bd	-0.033007372
14	0xbd498b72	-0.04920525
15	0x3cccd647	0.02500452
16	0xbce5f470	-0.028070658
17	0xb8d9e0b0	-0.00010389218
18	0xb89c797d	-7.4612886e-05
19	0xbcdab3d4	-0.026697077
20	0xbc92cfd3	-0.017921364
21	0xbccc9faa	-0.024978478
22	0xbe0736f6	-0.1320456
23	0xbcfb5e1b	-0.030684521
24	0xbc891e7b	-0.016738167
25	0xbd2d1bc6	-0.042262815
26	0xbd002053	-0.031280827
27	0xbcba0387	-0.02270676
28	0xbd4d3ca0	-0.050106645
29	0xbcb0d406	-0.021585476
30	0xbdcef008	-0.10104376
31	0xbbdeb794	-0.0067967866

conv2.1.running_mean f4 [32]
0	0x380de993	3.3834553e-05
1	0xbbf0383e	-0.0073309233
2	0x3ab3eaf0	0.0013726633
3	0x3aa6fff8	0.001274108
4	0x3d5457de	0.05184161
5	0xbcadf43b	-0.021234622
6	0xb98bdf4b	-0.00026678512
7	0xba84a877	-0.0010121007
8	0xba17423d	-0.0005770063
9	0xb9a5ae4f	-0.00031601122
10	0xbb1d2213	-0.0023976609
11	0xbbfac4dd	-0.0076528625
12	0x3b142326	0.0022603958
13	0x391f3459	0.00015182923
14	0xbc027d3c	-0.0079644285
15	0xbcfec0d7	-0.031097813
16	0x3b20588c	0.002446684
17	0x3838a49d	4.4022327e-05
18	0x36e6f0a2	6.8825475e-06
19	0x3b0ccf99	0.0021486043
20	0xbba90f1e	-0.005159273
21	0xba355534	-0.00069172983
22	0x3ce7ed2e	0.028311338
23	0xbb7248e0	-0.0036969706
24	0xbb54d5bd	-0.003247603
25	0xbbc8ae28	-0.0061242767
26	0xbc9ff355	-0.01952521
27	0xbc4be59d	-0.012444881
28	0x3b408fe8	0.002938265
29	0x3be73550	0.007055916
30	0xbb842989	-0.0040332717
31	0x391a0e2d	0.00014691865

conv2.1.running_var f4 [32]
0	0x34eeda63	4.4489852e-07
1	0x396c1f5b	0.00022518395
2	0x36604d42	3.342357e-06
3	0x39511b69	0.00019942004
4	0x3b2540dc	0.002521566
5	0x3a0675ec	0.0005129266
6	0x35059fe0	4.977901e-07
7	0x3a24dbee	0.00062888756
8	0x35c47d01	1.4639519e-06
9	0x36a14df4	4.807249e-06
10	0x39db4a9a	0.00041826518
11	0x3a025c16	0.00049728283
12	0x38d34e1d	0.00010075814
13	0x37383817	1.0980314e-05
14	0x39859be0	0.00025483873
15	0x3aae6571	0.0013305378
16	0x3a52493d	0.00080217776
17	0x31d21cdc	6.1150853e-09
18	0x2fff7f12	4.647452e-10
19	0x37227f4e	9.685593e-06
20	0x39a06260	0.00030590873
21	0x3801af44	3.0919226e-05
22	0x3a8606a8	0.0010225372
23	0x38005336	3.0595074e-05
24	0x38a4eb37	7.8639416e-05
25	0x3911c562	0.00013901808
26	0x3a5acef4	0.00083468785
27	0x3a6d206b	0.0009045663
28	0x37a964db	2.0193334e-05
29	0x3a091a15	0.0005230022
30	0x39acf8b4	0.00032991695
31	0x34b5788d	3.380159e-07

conv2.3.mlp.0.weight f4 [2, 32, 1, 1]
0	0xbafca865	-0.001927626
1	0x3bdf5aa0	0.0068162233
2	0xba23aa20	-0.0006243307
3	0x3932b47e	0.00017042641
4	0xba8f273e	-0.0010921729
5	0xbaddcb82	-0.0016921612
6	0xb7881007	-1.6219927e-05
7	0x3b1db9be	0.002406701
8	0x3965379b	0.00021859856
9	0xb8f04fc4	-0.00011458949
10	0x3ad0409b	0.0015888395
11	0x3a12effc	0.00056052185
12	0xba5a5051	-0.0008328008
13	0x3bc7fae7	0.006102908
14	0xbb29b0fc	-0.0025892844
15	0xb8febf4a	-0.00012147294
16	0xb9d1aae9	-0.00039990924
17	0xb97e785d	-0.00024268166
18	0xb96a6aab	-0.00022355716
19	0x3a52d103	0.00080420094
20	0xb89c1533	-7.442608e-05
21	0xb98db60e	-0.00027029257
22	0x3a06d7c1	0.0005143844
23	0x39e652a3	0.00043930588
24	0x396c2242	0.00022519476
25	0x39e3ab6f	0.00043424542
26	0xb9a96656	-0.00032310438
27	0xbaa85f66	-0.0012845814
28	0x3989173b	0.00026147984
29	0xbc13bd95	-0.009017368
30	0x3c0ba071	0.008522139
31	0xb98f23bc	-0.0002730171
32	0xbb35d752	-0.002774675
33	0x3acf32a3	0.0015807938
34	0x39a37742	0.00031178637
35	0x3aae03b6	0.0013276252
36	0x3c36fb76	0.011168351
37	0x3b0eb9df	0.0021778268
38	0xb59d6706	-1.1727395e-06
39	0x3d03b3bb	0.032153826
40	0x3afce60c	0.0019294634
41	0xb9a70b4e	-0.00031861145
42	0x3cabacf7	0.0209565
43	0x3cbb442b	0.022859653
44	0x3a83d0b9	0.0010056711
45	0x3c000895	0.007814546
46	0x3be4d896	0.006983827
47	0xbb5988a9	-0.0033193028
48	0x3d10d213	0.035356592
49	0x39aecbcc	0.00033339707
50	0x3b053134	0.0020323517
51	0xba93680a	-0.0011246216
52	0xbb43a5a3	-0.0029853366
53	0x3af473a2	0.0018650184
54	0x3cc23f62	0.023711864
55	0x3a5312f8	0.0008051838
56	0xba157e81	-0.00057027495
57	0xbaef4799	-0.0018255591
58	0xbb20be29	-0.0024527407
59	0xbb29565c	-0.0025838828
60	0x3b633631	0.0034669752
61	0x3bd0c0b6	0.006370629
62	0x3c3b0d9f	0.011416822
63	0xba74494c	-0.00093187834

conv2.3.mlp.2.weight f4 [32, 2, 1, 1]
0	0x30fe5b95	1.8506962e-09
1	0x33d8ad89	1.008985e-07
2	0x39783d40	0.0002367394
3	0xb94f0a42	-0.0001974488
4	0xb3bdab9b	-8.832213e-08
5	0xb6d566c7	-6.3598595e-06
6	0x39482561	0.00019087411
7	0x3b1a8fb0	0.002358418
8	0xba6186ab	-0.0008603136
9	0xbc60193b	-0.01367789
10	0x398b43dc	0.00026562705
11	0xbb8300c1	-0.0039978926
12	0x30dd6e4c	1.6111215e-09
13	0xb247b97b	-1.1625498e-08
14	0x3b35eb30	0.002775859
15	0xbbb7fc57	-0.005614798
16	0xb373d63c	-5.677269e-08
17	0x2fdd12ad	4.0212936e-10
18	0xb4167c77	-1.4015119e-07
19	0xb6e0cbba	-6.699437e-06
20	0x38326b14	4.253823e-05
21	0x3c485027	0.012226141
22	0xb7b1cb0c	-2.1194595e-05
23	0x3c92b463	0.01790828
24	0x36aa2eb8	5.0718336e-06
25	0xba982c2b	-0.0011609843
26	0xb763a5b7	-1.3568838e-05
27	0xb8d3eebc	-0.00010105732
28	0x3853c1a6	5.048667e-05
29	0xba32563d	-0.00068030116
30	0xb8648998	-5.448758e-05
31	0x3b24a741	0.0025124105
32	0x3ad99c25	0.0016602321
33	0x3db14c7d	0.08657167
34	0xb01cb011	-5.7002675e-10
35	0xb0251248	-6.005263e-10
36	0x2bc19923	1.3755979e-12
37	0x2e97256e	6.873334e-11
38	0x3694c8b9	4.434111e-06
39	0x39566e92	0.00020449821
40	0x38a00e38	7.632043e-05
41	0x3906530f	0.00012810178
42	0x3480d71c	2.399837e-07
43	0xb61bf606	-2.3240004e-06
44	0x38b6d1fd	8.71755e-05
45	0x3aea1732	0.0017859696
46	0xb6894580	-4.091009e-06
47	0xb8d3d6fa	-0.000101013065
48	0x34eba105	4.3889318e-07
49	0x37c5f897	2.3599989e-05
50	0xb8c8dee3	-9.578259e-05
51	0xb9feea46	-0.00048621203
52	0x37f234a3	2.8873159e-05
53	0xbbe6c869	-0.0070429337
54	0xb7815a28	-1.541998e-05
55	0xb9195b90	-0.00014625327
56	0x35e25945	1.6864293e-06
57	0x38fc403f	0.00012028263
58	0x3a31f8fa	0.00067891146
59	0xbcec8048	-0.028869763
60	0x39128184	0.00013971893
61	0xbb32c9f2	-0.0027281013
62	0xb4a0248b	-2.982891e-07
63	0xb53d3031	-7.0478114e-07

conv2.3.conv.weight f4 [1, 2, 7, 7]
0	0xbc99422f	-0.018708317
1	0x3d0d4dd4	0.03449805
2	0x3ca8bfbf	0.020599244
3	0x3cdab181	0.026695969
4	0x3c364b5b	0.011126365
5	0x3c9bac71	0.019003125
6	0x3c03d3b0	0.008046076
7	0xbcca8e90	-0.024726182
8	0xbca76260	-0.020432651
9	0xbceac311	-0.028657468
10	0xbbf1dc5c	-0.007381005
11	0xba8dba76	-0.0010813016
12	0x3c8d49fc	0.017247193
13	0x3c6914da	0.014226163
14	0xbd86d5ca	-0.06583746
15	0xbd810f7b	-0.06301781
16	0xbd7002a2	-0.05859626
17	0xbd41b5ef	-0.047292646
18	0xbd2619fd	-0.040552128
19	0xbc4eded5	-0.0126263695
20	0x3cdba717	0.026813073
21	0xbd86d1ce	-0.06582986
22	0xbd458076	-0.048218213
23	0x3cd80ca2	0.026373211
24	0x3dbf1d91	0.09331811
25	0x3d4c5fe8	0.04989615
26	0x3d14f1aa	0.03636328
27	0x3d0c5320	0.03425896
28	0xbca107c4	-0.019657023
29	0xbbe6f361	-0.007048056
30	0x39e66905	0.00043947264
31	0x3d361a69	0.04445878
32	0x3d309be5	0.043117423
33	0x3d976d92	0.07393946
34	0x3ccb2686	0.024798643
35	0xbcb1eafb	-0.021718493
36	0xbbf3c45d	-0.00743918
37	0x3d70fc6f	0.05883449
38	0x3d7b722f	0.06138819
39	0x3d50a679	0.05094001
40	0x3d7f32fd	0.062304486
41	0x3d2db9c9	0.042413507
42	0x3c0631d2	0.008190589
43	0xbbb5e5f1	-0.005551093
44	0x3cb3ac59	0.021932768
45	0x3d971062	0.07376172
46	0x3d9a859d	0.07545016
47	0x3d876996	0.06611936
48	0x3d46267f	0.048376556
49	0xbb47e463	-0.003050112
50	0xba87ebb1	-0.0010369924
51	0xbb997101	-0.0046826606
52	0xbbab4a31	-0.00522735
53	0xbb383d6e	-0.0028112787
54	0x3a280c4d	0.00064105244
55	0xbac5281c	-0.0015041861
56	0x3b04a406	0.0020239367
57	0x3a849bfd	0.0010117289
58	0xbb997f64	-0.0046843756
59	0xbb1e46ec	-0.002415116
60	0xb87ba134	-5.9993195e-05
61	0xb984f163	-0.0002535685
62	0xbbd21d19	-0.00641216
63	0xbbbefb9a	-0.005828333
64	0xbaee17fe	-0.0018165109
65	0xbba254fe	-0.0049539795
66	0xbbd94f0b	-0.006631737
67	0xbb814f61	-0.0039462303
68	0x3b2fe6ed	0.0026840523
69	0xba637643	-0.0008676985
70	0xbb990455	-0.004669706
71	0xbb9e59e1	-0.0048324917
72	0xbb73368c	-0.003711137
73	0xbaa69700	-0.0012709796
74	0xbb092a7b	-0.0020929861
75	0x3af7a55e	0.0018893888
76	0xbadb281a	-0.0016720325
77	0xba2953df	-0.0006459336
78	0xbb5a822c	-0.0033341749
79	0xbbd5f68e	-0.0065296357
80	0xbbaf587d	-0.005351125
81	0xbaec6ad0	-0.0018037204
82	0x3a9ef150	0.001212636
83	0xbad22461	-0.001603257
84	0x3a5669d7	0.00081792235
85	0x3b0ae3d8	0.0021192934
86	0x3b5b4b96	0.00334618
87	0x3bb226a6	0.005436736
88	0x3ad7e375	0.0016470986
89	0x3aac0424	0.0013123793
90	0xbb06e2d7	-0.0020581984
91	0x3b1d374d	0.002398926
92	0xb83a5537	-4.442522e-05
93	0xbaf671d7	-0.0018802237
94	0xba3f2ebb	-0.0007293035
95	0x39cfc178	0.00039626262
96	0xba9751a8	-0.0011544721
97	0xbac80c09	-0.0015262376

conv3.0.weight f4 [64, 32, 3, 3]
0	0x3607e4b0	2.0249681e-06
1	0x3555d0c9	7.9652506e-07
2	0x34cc09d1	3.8005103e-07
3	0x35d316c4	1.5727351e-06
4	0x3477a6e6	2.3064385e-07
5	0xb38ae6cb	-6.468107e-08
6	0x34f81443	4.6208342e-07
7	0x35021337	4.8456735e-07
8	0x348856b0	2.5395047e-07
9	0xb8829ca3	-6.228059e-05
10	0xb9054c60	-0.0001271232
11	0xb93bd49f	-0.00017912917
12	0xb8eda9e4	-0.00011332685
13	0xb812c6f6	-3.499441e-05
14	0xb7abd2bb	-2.0482918e-05
15	0xb89800b3	-7.248055e-05
16	0xb8c3bb93	-9.333263e-05
17	0xb8a6ea43	-7.9591315e-05
18	0xb6948361	-4.4260382e-06
19	0xb66c9d42	-3.5258277e-06
20	0xb609cf14	-2.0535126e-06
21	0x36588712	3.226513e-06
22	0x3648ea6c	2.9938774e-06
23	0x341105f2	1.350634e-07
24	0x3665b1ba	3.422711e-06
25	0x366ed551	3.558893e-06
26	0x363b6e60	2.7929418e-06
27	0xb9cd43fb	-0.00039151296
28	0xb9bbcb79	-0.00035819018
29	0xb9907a5a	-0.0002755698
30	0x399a8811	0.00029474546
31	0x39f1cec0	0.00046121143
32	0x3a028e26	0.0004980288
33	0x397073f7	0.00022931384
34	0x389bb56a	7.424767e-05
35	0x3926907c	0.00015884818
36	0xbb4b6d87	-0.0031040625
37	0xbbbcbd77	-0.0057598907
38	0xbb00ba9f	-0.0019642485
39	0xbae28120	-0.0017280914
40	0xbb0c3e52	-0.002139945
41	0xbaf2dcee	-0.0018528977
42	0xbb136833	-0.0022492527
43	0xbaec030d	-0.001800628
44	0xbb9c525b	-0.0047705597
45	0xb9de0ef4	-0.0004235428
46	0xb9ba70cd	-0.00035560728
47	0xb9ebaacf	-0.00044949955
48	0x39944e8d	0.00028287285
49	0x390dcd7e	0.0001352336
50	0x3771c266	1.4409981e-05
51	0x3795a897	1.784069e-05
52	0x381012a0	3.434962e-05
53	0x3874eb6c	5.8393387e-05
54	0x346b0457	2.188766e-07
55	0x34db3101	4.0827584e-07
56	0x358aae6e	1.0332567e-06
57	0x356499d4	8.516047e-07
58	0x355aac48	8.146203e-07
59	0x33b4cd03	8.4191946e-08
60	0x3488aa27	2.5455776e-07
61	0x34b417e9	3.354501e-07
62	0xb2c01081	-2.2359247e-08
63	0xbb0a5dbd	-0.0021113001
64	0xbb062da0	-0.0020473972
65	0xbaa67b98	-0.0012701629
66	0xba1da975	-0.0006014326
67	0xb9c09c5e	-0.00036737596
68	0xb9592750	-0.00020709378
69	0xba25e381	-0.0006328151
70	0xba055c75	-0.00050873245
71	0xb993c5ef	-0.00028185497
72	0x332d936f	4.041379e-08
73	0x33e0f510	1.04753894e-07
74	0x33b5f141	8.472353e-08
75	0x340270a3	1.214817e-07
76	0x3372fef0	5.657688e-08
77	0x32c2546e	2.2622967e-08
78	0x34150dcb	1.3881724e-07
79	0x34356443	1.6893414e-07
80	0x344c47b9	1.9025073e-07
81	0x36a94534	5.044649e-06
82	0xb635b606	-2.7077053e-06
83	0xb5eaec66	-1.750316e-06
84	0xb60539f0	-1.9852268e-06
85	0xb496f1b4	-2.811554e-07
86	0xb6e19dfb	-6.723914e-06
87	0xb5bb0f60	-1.393706e-06
88	0x3544c93d	7.330853e-07
89	0x363716c2	2.7282372e-06
90	0xb93ecaf4	-0.00018195418
91	0xba347878	-0.00068844063
92	0xba896082	-0.0010481032
93	0xb82de820	-4.1462597e-05
94	0xb98cfc35	-0.0002689079
95	0xba84e189	-0.0010138015
96	0xba1876c8	-0.00058160396
97	0xbabebc43	-0.0014551956
98	0xba9f459c	-0.0012151483
99	0xba0049dc	-0.00048938184
100	0xba406480	-0.00073391944
101	0xba20a457	-0.0006128004
102	0xba882048	-0.0010385597
103	0xba0505e1	-0.00050744234
104	0xb974da58	-0.00023350993
105	0x3a05f3f4	0.0005109899
106	0x3ad1fb6f	0.0016020368
107	0x3b1fead8	0.0024401452
108	0x389c4b42	7.4526775e-05
109	0x379cf61b	1.8711251e-05
110	0xb7ad168b	-2.0633704e-05
111	0x387f745b	6.0905102e-05
112	0x384fb2cc	4.9519163e-05
113	0x384dd46e	4.907365e-05
114	0xb7e1ed30	-2.693254e-05
115	0xb6ea5ca0	-6.9845264e-06
116	0x3746f4f9	1.1858757e-05
117	0xb75b9e28	-1.3090241e-05
118	0xb6e39231	-6.782146e-06
119	0xb628c924	-2.515103e-06
120	0xb6e90827	-6.94489e-06
121	0xb7236ea0	-9.741314e-06
122	0xb6da0384	-6.4973156e-06
123	0xb8a78aba	-7.9890204e-05
124	0xb8966f18	-7.17325e-05
125	0xb88d5703	-6.739611e-05
126	0xb9d401df	-0.00040437185
127	0xb97f8b76	-0.00024370648
128	0xb9611c38	-0.00021468184
129	0x398f7d0b	0.0002736825
130	0x397dc316	0.00024200635
131	0x38553038	5.0828065e-05
132	0xba21cf18	-0.0006172522
133	0xb60c9727	-2.0949608e-06
134	0xb8314867	-4.226752e-05
135	0x3a538c81	0.0008069948
136	0x3a6135e5	0.00085911
137	0x3a4eaa35	0.0007883639
138	0x3a1bde9e	0.00059459533
139	0x3a135286	0.0005619902
140	0x39cd9e82	0.00039218744
141	0x399caa6a	0.00029881607
142	0x39919bc3	0.00027772607
143	0x396345b2	0.0002167437
144	0xbb23c220	-0.0024987534
145	0xba680638	-0.00088510243
146	0xb9afdab8	-0.0003354156
147	0xb9b511eb	-0.0003453636
148	0x3a88be4a	0.0010432687
149	0x39ee9126	0.00045503041
150	0x3a4fd1da	0.00079276937
151	0xb9332204	-0.00017083442
152	0x38fb3c9d	0.00011979903
153	0xb2b6b206	-2.1268544e-08
154	0xb381b49d	-6.039884e-08
155	0xb35b79e0	-5.1100756e-08
156	0xb01cb592	-5.7010496e-10
157	0x3075597f	8.925766e-10
158	0xaf254560	-1.503131e-10
159	0xb1515f04	-3.0467513e-09
160	0x32b181de	2.0664569e-08
161	0x325e7fa1	1.295112e-08
162	0xadda99bc	-2.4852002e-11
163	0xae845611	-6.0179535e-11
164	0xaeb996a7	-8.439587e-11
165	0xaf8488ae	-2.4107777e-10
166	0xaf0ea2de	-1.2972687e-10
167	0xaed9b2de	-9.899791e-11
168	0xac8c2a23	-3.9837174e-12
169	0x2e9768b9	6.8852875e-11
170	0x2f0fd6f7	1.3082145e-10
171	0xb7119c86	-8.679117e-06
172	0xb6cfe8ed	-6.196197e-06
173	0x355a3390	8.128636e-07
174	0x352c6c4a	6.4232574e-07
175	0x36e7cb08	6.9079724e-06
176	0x376b1856	1.4012758e-05
177	0x36f6d24a	7.355852e-06
178	0x369b085e	4.620334e-06
179	0x359d7620	1.173179e-06
180	0xb904ee27	-0.0001267722
181	0xb901fcdb	-0.00012396595
182	0xb80637b1	-3.1999956e-05
183	0x393acac1	0.00017813874
184	0x394fe94d	0.0001982797
185	0x390caf7b	0.00013416812
186	0x386ac006	5.5968783e-05
187	0xb7fc7a06	-3.0097563e-05
188	0xb7c44673	-2.3397826e-05
189	0x372832f4	1.0025444e-05
190	0x37171c97	9.006958e-06
191	0x36aa2b95	5.0714684e-06
192	0xb78437c8	-1.5761601e-05
193	0xb7142de4	-8.832172e-06
194	0xb785ee58	-1.5965823e-05
195	0x378cb5fe	1.6774047e-05
196	0x37134967	8.778973e-06
197	0x36dc403d	6.5639892e-06
198	0x3724b90c	9.818246e-06
199	0xba5776cb	-0.00082193007
200	0xb9b19a1e	-0.00033874897
201	0x3ac72b50	0.0015195403
202	0x3ac3e857	0.0014946562
203	0x3a8ede0b	0.0010899914
204	0x3acb11bf	0.001549296
205	0x3a816876	0.0009873051
206	0x3a01e19c	0.0004954578
207	0xb7a7bced	-1.9995927e-05
208	0x37945a6a	1.7685077e-05
209	0x38034132	3.129355e-05
210	0x376f3e6e	1.4260046e-05
211	0x374f0059	1.2338242e-05
212	0x36dac5dd	6.5199406e-06
213	0x3832f6f7	4.266851e-05
214	0x37e97798	2.7831455e-05
215	0x37b80744	2.1937893e-05
216	0x383d8702	4.5186847e-05
217	0x384cab1e	4.8796755e-05
218	0x3824e17a	3.931064e-05
219	0x3809dc0c	3.286828e-05
220	0x37ab40c3	2.0414946e-05
221	0x372e1781	1.0376681e-05
222	0x37d0dbd3	2.4897896e-05
223	0x371916d9	9.12483e-06
224	0x36b3e82e	5.361645e-06
225	0x3837c591	4.3814598e-05
226	0xb79dc2c5	-1.8806555e-05
227	0xb8986a15	-7.267684e-05
228	0x38141b6e	3.5311496e-05
229	0x38e58a07	0.000109452805
230	0x38e696d3	0.00010995348
231	0x388bf2d0	6.673264e-05
232	0x38717714	5.7569778e-05
233	0x386ece80	5.693594e-05
234	0x383e5d77	4.5386576e-05
235	0x37f36c28	2.9018222e-05
236	0xb83efc5b	-4.5534554e-05
237	0x382c88ab	4.1135278e-05
238	0xb9161c61	-0.00014315687
239	0xb9d413d3	-0.0004045056
240	0xb97f880e	-0.0002436938
241	0xb94f37cc	-0.00019761844
242	0xb8124063	-3.4869077e-05
243	0x39cadba6	0.00038692093
244	0x39d6aff8	0.00040948368
245	0x39bff3a4	0.00036611885
246	0x39948224	0.00028325722
247	0x3966d5aa	0.00022014105
248	0x39315cca	0.00016914602
249	0x39048b76	0.00012640454
250	0x391bb341	0.00014848729
251	0x38e17c27	0.00010751961
252	0xb7354e68	-1.0806696e-05
253	0x3809f85a	3.289464e-05
254	0x3757dd74	1.286656e-05
255	0xb789e3ee	-1.643781e-05

conv3.0.bias f4 [64]
0	0x2fb834c8	3.3506908e-10
1	0xb48a311a	-2.574023e-07
2	0xa0d40cbd	-3.5922626e-19
3	0x2e31ca54	4.0424844e-11
4	0xad10a3de	-8.221838e-12
5	0xb68ad5dc	-4.137617e-06
6	0x238018fc	1.3888369e-17
7	0x2e18bea9	3.473014e-11
8	0xa97d645e	-5.626434e-14
9	0x36c8e682	5.987299e-06
10	0x2d039813	7.480255e-12
11	0xa130c986	-5.9897834e-19
12	0xa90237cc	-2.8914195e-14
13	0x3608c5ba	2.0380671e-06
14	0xa9e64f32	-1.022779e-13
15	0x3526aa4f	6.208765e-07
16	0xb707dbf5	-8.09784e-06
17	0xaebff4a8	-8.729134e-11
18	0xae920bc3	-6.6414006e-11
19	0x306da111	8.6448987e-10
20	0x2a024e43	1.1573472e-13
21	0x33ab2c74	7.970894e-08
22	0x367569d5	3.6569447e-06
23	0x3307e875	3.1643555e-08
24	0xa101f1c1	-4.402686e-19
25	0x34405024	1.7910548e-07
26	0x242cd781	3.7479094e-17
27	0xa83545dc	-1.0062667e-14
28	0xad2af802	-9.71845e-12
29	0x2f86f3c8	2.4547675e-10
30	0xadde43e0	-2.526862e-11
31	0x3711c972	8.689576e-06
32	0x31445628	2.8570728e-09
33	0xa9fd3a91	-1.1245617e-13
34	0x3414adf9	1.3846865e-07
35	0x2e1e6e40	3.6022962e-11
36	0xb36f5212	-5.5721166e-08
37	0xb1bcd2ac	-5.4954707e-09
38	0x3715b529	8.923272e-06
39	0xab1ac25b	-5.4981513e-13
40	0xa8bbc244	-2.084542e-14
41	0xb0aa26a5	-1.2380111e-09
42	0xb512d302	-5.4696295e-07
43	0x32c673df	2.3102926e-08
44	0x2c1ca710	2.2261672e-12
45	0x33f6d68a	1.1494292e-07
46	0xb6b4c87c	-5.3877575e-06
47	0x22590eda	2.9416846e-18
48	0x2b45f65e	7.033036e-13
49	0xacfcc6ab	-7.1843274e-12
50	0xb7d500f7	-2.5392028e-05
51	0x326c0695	1.3738505e-08
52	0xa949ed28	-4.4836666e-14
53	0xb0681adc	-8.443928e-10
54	0x2d87416e	1.537678e-11
55	0x21c49377	1.332051e-18
56	0xa8717288	-1.34030225e-14
57	0xaa4f7c65	-1.8428451e-13
58	0xac99857d	-4.3633417e-12
59	0xacd52009	-6.0573807e-12
60	0x32c6d736	2.31481e-08
61	0xb3d272d1	-9.799772e-08
62	0xb5a93c08	-1.2608953e-06
63	0xa723ec3f	-2.2748863e-15

conv3.1.weight f4 [64]
0	0x3c8afc94	0.016966142
1	0x3d24200c	0.040069625
2	0xb0214176	-5.8664484e-10
3	0x3aae099a	0.0013278008
4	0x3b34dab8	0.0027596187
5	0x3e1b075d	0.15139528
6	0x30996663	1.1161315e-09
7	0x3a1d9c2c	0.0006012346
8	0x381ac2b9	3.689781e-05
9	0x3e1e34bb	0.15449803
10	0x3b0bf9f2	0.0021358696
11	0x31ce678c	6.007161e-09
12	0x387113d4	5.7477344e-05
13	0x3eb4134a	0.35170966
14	0x38d9abc4	0.0001037936
15	0x3ddbb0fc	0.107271165
16	0x3ed641ae	0.41846985
17	0x3bfa6e75	0.007642562
18	0x3bc0eb76	0.005887444
19	0x3c388f48	0.01126463
20	0x3902c39c	0.00012470636
21	0x3ccb1d47	0.024794234
22	0x3eeaa8bc	0.4583186
23	0x3c601f33	0.0136793135
24	0x30bda191	1.379748e-09
25	0x3d638b51	0.055552784
26	0xb35eeae7	-5.1902045e-08
27	0x37490249	1.1981066e-05
28	0x3baa301e	0.0051937243
29	0x3b9530e0	0.0045529455
30	0x3c6123da	0.013741458
31	0x3e7a2018	0.24426305
32	0x3bec957e	0.0072199693
33	0x394298cc	0.00018558203
34	0x3cce86e1	0.0252108
35	0x3bc9a4be	0.006153672
36	0x3c3eca41	0.011644901
37	0x3c414823	0.011796984
38	0x3e823d12	0.25437218
39	0x392e0524	0.00016595848
40	0x366d92cd	3.5401201e-06
41	0x3c4f0ff1	0.012638078
42	0x3e2c68fb	0.16836922
43	0x3d0ab8c1	0.0338676
44	0x39c934a5	0.0003837693
45	0x3c54b1ff	0.012981891
46	0x3e5179e1	0.2045665
47	0x31aa396b	4.954179e-09
48	0x3b28be26	0.0025748103
49	0x3a106e13	0.00055095664
50	0x3eb3ade4	0.35093606
51	0x3dc995c3	0.09843018
52	0x386f42f4	5.7044395e-05
53	0x3ceb5c13	0.028730428
54	0x3abd1a6f	0.0014427433
55	0x31037a67	1.9132587e-09
56	0x3744346a	1.1694714e-05
57	0x38a2449a	7.73754e-05
58	0x3b91d058	0.0044498853
59	0x3aefb351	0.0018287693
60	0x3c2be66d	0.0104919495
61	0x3d17ab1e	0.037028424
62	0x3d8e2978	0.06941503
63	0x37443593	1.1694984e-05

conv3.1.bias f4 [64]
0	0xbc1aaf67	-0.009441233
1	0xbd59f8e8	-0.05321589
2	0xb8098b01	-3.2792803e-05
3	0xba3ba7a4	-0.0007158464
4	0xbafa1064	-0.0019078371
5	0xbd48d2bc	-0.049029097
6	0xb79a627f	-1.8404096e-05
7	0xb8e2ab51	-0.0001080843
8	0xb5ccd12f	-1.5260065e-06
9	0xbd8f1350	-0.069861054
10	0xb958d9d5	-0.00020680514
11	0xb588df3c	-1.0197759e-06
12	0xb6b73998	-5.46053e-06
13	0xbe286ca1	-0.16447689
14	0xb7118b75	-8.675143e-06
15	0xbd456517	-0.04819211
16	0xbdc795b0	-0.097453475
17	0xbbb2640f	-0.005444057
18	0xbba86884	-0.0051394124
19	0xbbe28693	-0.006913015
20	0xb8e4e18a	-0.00010913897
21	0xbd68ec6a	-0.056866087
22	0x3ba64e1b	0.005075229
23	0xbce1efda	-0.02758019
24	0xb611d080	-2.1728047e-06
25	0xbd59b074	-0.053146794
26	0xb8234828	-3.892943e-05
27	0xb8dc623c	-0.00010508715
28	0xbbe53329	-0.006994624
29	0xbb590328	-0.0033113454
30	0xbc652208	-0.013985164
31	0x3cb6a2a2	0.022294346
32	0xbb89a8a6	-0.0042010127
33	0xb85e9d71	-5.3075553e-05
34	0xbcdab773	-0.026698804
35	0xbae79f0c	-0.0017671301
36	0xbb7f0eb1	-0.003891867
37	0xbc4e5565	-0.012593602
38	0xbe43cc48	-0.19120896
39	0xb784326f	-1.5759111e-05
40	0xb675f9c7	-3.6653234e-06
41	0xbc24d90c	-0.010061514
42	0xbdb84b54	-0.08998743
43	0xbd28694b	-0.04111604
44	0xb936d9f2	-0.00017438064
45	0xbc3684a6	-0.011140024
46	0xbd83d259	-0.06436605
47	0xb5fb3232	-1.8715566e-06
48	0xbb9fdea1	-0.0048788344
49	0xb8fa1de1	-0.00011926494
50	0xbbd556b5	-0.0065105804
51	0xbd947110	-0.072481275
52	0xb93d00de	-0.00018024768
53	0xbcd2f521	-0.025751652
54	0xb9e8d188	-0.000444066
55	0xb78df910	-1.6924489e-05
56	0xb5fc4450	-1.8795345e-06
57	0xb614ec8a	-2.2191402e-06
58	0xbac3eba1	-0.0014947542
59	0xb9bdc410	-0.00036194967
60	0xbbd6a1ec	-0.0065500643
61	0xbcdbb9a4	-0.026821919
62	0xbd54f899	-0.051994894
63	0xb6af2d69	-5.220693e-06

conv3.1.running_mean f4 [64]
0	0xbacfa720	-0.0015842654
1	0xbb827387	-0.003981057
2	0xb2f8e37b	-2.8974446e-08
3	0x3847425c	4.75071e-05
4	0xb8b9d0a3	-8.860349e-05
5	0x3ab60116	0.0013885822
6	0xb5a4e820	-1.228651e-06
7	0x379e7d4f	1.889342e-05
8	0xb68ff013	-4.2896804e-06
9	0xbb0839ae	-0.0020786333
10	0xb95bc2f9	-0.000209581
11	0xb6456a21	-2.9417063e-06
12	0x373c038a	1.1206497e-05
13	0x3c2b0c4a	0.010439942
14	0xb4d5cd04	-3.982351e-07
15	0x3b9591f9	0.0045645204
16	0x3cc77586	0.024348032
17	0xb9a6283d	-0.00031691967
18	0xb9fafd32	-0.0004787236
19	0xba7d0658	-0.00096521294
20	0xba2e58db	-0.0006650814
21	0xbb205b9e	-0.002446867
22	0x3b032918	0.0020013507
23	0x3a87ffdd	0.0010375936
24	0x333353c3	4.1752866e-08
25	0xbb5bbdc6	-0.0033529862
26	0xb5e44985	-1.7008721e-06
27	0xb801dc38	-3.096109e-05
28	0xbb02216e	-0.0019856351
29	0xb9082b9a	-0.00012986214
30	0xbaae3259	-0.0013290151
31	0x3b13fff1	0.0022582973
32	0xb96a75ca	-0.00022359859
33	0xb8d96b24	-0.00010367323
34	0xbb5ffbe3	-0.0034177236
35	0xb9f82b1a	-0.0004733436
36	0xba41b4b7	-0.00073892943
37	0xba9c2125	-0.0011911733
38	0x3c64175c	0.013921585
39	0x368bd2fd	4.167085e-06
40	0xb6c65136	-5.910314e-06
41	0xb79bc172	-1.856752e-05
42	0xbb5709e1	-0.0032812285
43	0xba166f9a	-0.0005738676
44	0xb7709133	-1.4338922e-05
45	0xb8d4e35e	-0.00010151298
46	0x3bfdac6e	0.0077415025
47	0x33bc6581	8.772896e-08
48	0xba4a9af3	-0.0007728778
49	0x3886f44e	6.435123e-05
50	0x3867233a	5.51075e-05
51	0x3ba9a3b5	0.005176986
52	0xb902dbb5	-0.00012479613
53	0xbb1e838b	-0.0024187292
54	0xb9df1cde	-0.00042555382
55	0x327f88f9	1.48740975e-08
56	0xb591a04f	-1.0849998e-06
57	0xb82ac6e2	-4.0716383e-05
58	0xb93a5241	-0.00017768984
59	0xb918189f	-0.00014505022
60	0xba837482	-0.0010029229
61	0xb9d26e0f	-0.0004013632
62	0x3b179fcd	0.002313602
63	0x3774aa32	1.458316e-05

conv3.1.running_var f4 [64]
0	0x3599c07c	1.1455409e-06
1	0x38c9540b	9.600081e-05
2	0x275e0e6b	3.0816505e-15
3	0x343b9c44	1.7472581e-07
4	0x349f84af	2.9712598e-07
5	0x39b8ef5a	0.00035273546
6	0x2c48ab10	2.8516668e-12
7	0x320e892d	8.296678e-09
8	0x2e436a88	4.4432485e-11
9	0x39f8a28b	0.0004742335
10	0x33c8c74b	9.349477e-08
11	0x2e55ac1d	4.858346e-11
12	0x3004ad62	4.826771e-10
13	0x3b4347eb	0.0029797505
14	0x2c968a39	4.278602e-12
15	0x39abdb82	0.00032779208
16	0x3b13b022	0.0022535403
17	0x3436616b	1.6985511e-07
18	0x355531a8	7.942094e-07
19	0x35db840e	1.6355204e-06
20	0x358b1614	1.0362733e-06
21	0x389e7126	7.555103e-05
22	0x3a8abb8b	0.0010584457
23	0x37b77bc7	2.1872938e-05
24	0x27880248	3.7750056e-15
25	0x38afd6d3	8.3846644e-05
26	0x2dca6b6a	2.3012443e-11
27	0x30506788	7.5817086e-10
28	0x36639ea7	3.3917984e-06
29	0x3545956a	7.3605645e-07
30	0x35ee4bff	1.77545e-06
31	0x3a11728f	0.00055483816
32	0x34ba8b6c	3.4746643e-07
33	0x32da9d3c	2.5450042e-08
34	0x37e78084	2.759719e-05
35	0x346959f7	2.1732545e-07
36	0x368e596a	4.242339e-06
37	0x375f6223	1.3314685e-05
38	0x3b07f3a2	0.0020744582
39	0x2f4c127d	1.856026e-10
40	0x2ee96fbc	1.0615461e-10
41	0x3597168f	1.1256942e-06
42	0x39bec54e	0.00036386627
43	0x3891a875	6.945516e-05
44	0x3194e275	4.333112e-09
45	0x3617e66d	2.2634879e-06
46	0x3a183d09	0.0005807435
47	0x2a0fbd3d	1.2766607e-13
48	0x3514859d	5.532873e-07
49	0x3280900f	1.4966671e-08
50	0x3a0b1cdc	0.00053067296
51	0x398da170	0.00027013896
52	0x329ddf65	1.8378794e-08
53	0x3711d4bd	8.6922055e-06
54	0x342b63e8	1.5961962e-07
55	0x2793def1	4.104241e-15
56	0x2c35b7fc	2.5823779e-12
57	0x31cfb79b	6.0453664e-09
58	0x33a4b226	7.66925e-08
59	0x332dd981	4.047752e-08
60	0x360abe56	2.0674393e-06
61	0x38088389	3.254743e-05
62	0x395d27c2	0.00021091013
63	0x30807104	9.345347e-10
