code_new/weights/weights.pth (torch, 422488 bytes, 37 tensors)

conv.0.weight f4 [16, 6, 3, 3]
00000000: 114e 023c 6800 5f3d 13a9 29bd 5f62 273d
00000010: cc80 033b eb34 d4bc d50a 93bb 7001 75bc
00000020: f984 973b 0a48 9fbc ac59 373d 0bb5 5b3c
00000030: eeff 453b c8d2 2d3d 902d 4bbc 541c bb3d
00000040: ad42 e8bd d472 913c 002c 593c fb02 513d
00000050: 03ac 2fbd 2123 48bb 5654 6cbb b1f6 c13a
00000060: 30b7 02bd cfc0 8e3a 7d35 ee3b 3a73 d9bc
00000070: 1e2e 133d 448d d83a 5ef5 7ebb 3abf 103d
00000080: b852 c4bc b603 aa3d e871 e6bd 13cf 7e3c
00000090: de89 bfbc db69 4d3c 4b9f afbc 3660 42bc
000000a0: 0760 a9bc 5d00 61bd 6d18 4cbd ee17 3dbd
000000b0: 0138 103d dade 1cbc 24f6 c33c f472 953c
000000c0: 8d72 28bc c948 9a3b 0098 1dbc 94bb 743d
000000d0: a62f 083e 9a3b debd efd5 aebc 5d08 753d
000000e0: f16c fbbc 1802 1a3d 78f9 473b 21cf 923d
000000f0: 9aee 313e a3bf 983d 942e a73d 20e8 cf3c
00000100: a43f de3c d4c7 4e3d f622 253e ac68 803d
00000110: ea3f 013b 708a 263e 9cae 093e 3666 f43d
00000120: d53a 8cbd 8fed 2b3d 1330 263c 130b 433d
00000130: 538f 79bc dc72 85bd 0389 3b3d cd83 0f3d
00000140: 8a15 e4bc 3d80 92bd 1423 b2bd 10ab 31bd
00000150: b3ba 643d c225 45bc b929 38bd b3d8 ab3d
00000160: d70b a03d 597d 563d 1df5 e6bc 9203 9b3d
00000170: 6efb 10bd 1ad2 d03c 7965 d7bc a2ae 87bb
00000180: 23c2 0d3e 6ccb 253e 9e2a 263e 8179 903d
00000190: e531 c4bd 3eb0 d8bc 91e1 653e 7526 0f3e
000001a0: ead2 c93d 410f 583e 9936 513e 0bd5 553e
000001b0: 3687 feb6 d08b f7b5 7625 31b6 1d75 97b6
000001c0: 68d7 9fb6 f174 aeb6 e916 d0b7 9802 d3b6
000001d0: e4db e3b6 2e29 5eb7 0ea8 6cb7 566a 89b7
000001e0: f3b9 5bb7 6e00 bcb6 76d0 91b6 2790 5db8
000001f0: 0300 37b7 5eb1 f8b6 d7e8 5fb6 78c6 2536
00000200: 8f6a cd35 e38b d9b5 488f 52b6 90e6 9cb6
00000210: db26 b4b7 d32b 87b6 ce1d 96b6 d3ee 62b7
00000220: c9d7 73b7 4adb 8bb7 20c0 62b7 4b67 c0b6
00000230: a3a7 a0b6 1edf 5eb8 b01a 3fb7 c2a1 09b7
00000240: a602 a8b5 e99e 8236 4a26 8336 008e 88b6
00000250: e9ef 81b6 b52a 49b6 0c4c efb6 8363 7db6
00000260: e53c bdb6 eebf 00b7 6933 0fb7 66ec 11b7
00000270: be4a f4b6 10a2 ceb6 6b2d beb6 699c 8cb6
00000280: 617d 1ab6 897d 6835 c038 9c38 0215 b838
00000290: 5faf d938 dbac d038 3a8c da38 b46e ed38
000002a0: 1dd8 9d38 813b 9b38 d700 9238 f34b 4438
000002b0: cfe0 cc37 4a3b dc37 b458 e437 f9b1 0338
000002c0: 67da 3538 e7a7 ce36 39f4 b637 330e 2038
000002d0: b987 a438 74f6 c338 48c7 e538 ad47 d538
000002e0: 5832 de38 0532 0139 2e1c b138 a18f ae38
000002f0: 4794 a738 2ce3 5b38 da91 f537 cc72 0338
00000300: ad40 1138 6850 1f38 89bc 4e38 6aa8 8637
00000310: 97d4 0038 7594 4538 ec4e a838 cc7b b038
00000320: 1350 e338 0c3b e238 7c42 ed38 26a7 0539
00000330: 9844 aa38 85c3 b338 132c b138 b353 4138
00000340: c0ad 2b38 9272 ca37 3a9c 1a38 00af 1838
00000350: 3711 2c38 d2a1 7538 b22c 0538 c8ea 6138
00000360: b96b dfbb f43a fabd 071e 6ebd 0ebb f23c
00000370: de00 183c 6dc2 523d f1e8 1b3c 76f0 a9bd
00000380: b065 71bd bb91 abbd 30bf d33d 9163 3c3d
00000390: e96c 363d 5eda d1bd 123c 9c3d 472e 31bd
000003a0: 3a2c 05bc 331e b03d d8bf 01bd 2f09 babd
000003b0: f2cb 633d 2ae2 c7bd 6214 113d 27da 7f3d
000003c0: b8fc 053d d21e eabc f378 b9bd acbc 00bc
000003d0: 2fcf 123d 2c66 673d 33b9 89bc 4b6f e2bd
000003e0: aa8f 123c 9c4a 293c 4415 6fbd e82e ab3d
000003f0: 86d1 fc3c dbe6 723c 89c6 713d a251 213e
0.007953183 0.054443747 -0.041421007 0.0408653 0.0020065783 -0.02590414 -0.0044873753 -0.014953956
0.004624006 -0.01944353 0.044763252 0.013409863 0.003021236 0.042437345 -0.012401 0.091362625
-0.113408424 0.01775495 0.013255119 0.051028233 -0.042888653 -0.0030538517 -0.003606101 0.0014798251
-0.031912982 0.0010891202 0.00726956 -0.026544202 0.035932653 0.0016521593 -0.0038903574 0.035338618
-0.023965225 0.08301489 -0.11252195 0.0155523 -0.02338117 0.012537445 -0.021438261 -0.011863759
-0.020675672 -0.054931987 -0.04982798 -0.0461654 0.03520966 -0.009574616 0.02392108 0.01824329
-0.010281217 0.0047083837 -0.009618759 0.0597492 0.13299426 -0.10851212 -0.021342246 0.05982243
-0.030691596 0.037599653 0.0030513685 0.07168413 0.17376176 0.07458427 0.08163181 0.02537924
0.027129956 0.05048354 0.16126618 0.062699646 0.0019721934 0.16263747 0.13445514 0.11933558
-0.06847159 0.0419746 0.010143298 0.047617983 -0.015231925 -0.06516048 0.04578496 0.035037804
-0.027842302 -0.07153366 -0.08698097 -0.04337603 0.055842113 -0.012032928 -0.044961665 0.083909415
0.07814758 0.052365635 -0.028193051 0.0756904 -0.035396032 0.02549081 -0.026293503 -0.004140691
0.13843589 0.1619088 0.16227195 0.07054425 -0.09579829 -0.026451226 0.22449328 0.13979514
0.09854682 0.21099569 0.20430984 0.2088205 -7.5855305e-06 -1.8443625e-06 -2.639686e-06 -4.5137845e-06
-4.763646e-06 -5.199218e-06 -2.48062e-05 -6.288592e-06 -6.790726e-06 -1.3241819e-05 -1.4105824e-05 -1.638119e-05
-1.3096712e-05 -5.6028866e-06 -4.345605e-06 -5.282476e-05 -1.0907653e-05 -7.411624e-06 -3.336512e-06 2.470244e-06
1.5304703e-06 -1.6208472e-06 -3.137584e-06 -4.6760033e-06 -2.1475766e-05 -4.0284153e-06 -4.473818e-06 -1.3526255e-05
-1.453417e-05 -1.6672206e-05 -1.3515382e-05 -5.734071e-06 -4.787887e-06 -5.313672e-05 -1.1390701e-05 -8.2034985e-06
-1.2517746e-06 3.8928015e-06 3.9085617e-06 -4.069647e-06 -3.872429e-06 -2.9976193e-06 -7.131608e-06 -3.7757861e-06
-5.639728e-06 -7.674082e-06 -8.535434e-06 -8.697714e-06 -7.280468e-06 -6.158145e-06 -5.6677286e-06 -4.1905337e-06
-2.3020768e-06 8.660941e-07 7.44923e-05 8.777717e-05 0.00010380032 9.95041e-05 0.00010421169 0.00011321661
7.5265976e-05 7.4020594e-05 6.961979e-05 4.6800775e-05 2.442338e-05 2.6253652e-05 2.7221024e-05 3.1398584e-05
4.3357166e-05 6.158825e-06 2.1809816e-05 3.8160197e-05 7.84541e-05 9.34423e-05 0.0001095669 0.00010169982
0.00010595162 0.00012321032 8.4452666e-05 8.3237195e-05 7.990799e-05 5.242524e-05 2.9274193e-05 3.1339747e-05
3.4630928e-05 3.798344e-05 4.9289814e-05 1.6052469e-05 3.0715568e-05 4.710672e-05 8.0255646e-05 8.415393e-05
0.000108391185 0.00010787518 0.00011313424 0.00012746136 8.119008e-05 8.5718035e-05 8.448227e-05 4.6092737e-05
4.0931394e-05 2.4133627e-05 3.686196e-05 3.6402605e-05 4.1024028e-05 5.856326e-05 3.1751297e-05 5.3862837e-05
-0.0068182615 -0.12218276 -0.058134105 0.02963021 0.0092775505 0.05145495 0.009515987 -0.082978174
-0.058934867 -0.08377405 0.103392005 0.04599339 0.04453746 -0.10246728 0.07628645 -0.043257024
-0.00812822 0.0859951 -0.031677097 -0.09083783 0.05561442 -0.09759934 0.03541983 0.062463906
0.032711715 -0.02857915 -0.09056272 -0.007857483 0.035842117 0.056493923 -0.016811943 -0.11056384
0.008945385 0.01033273 -0.05836989 0.08358556 0.030861627 0.014825548 0.05902723 0.15753797

conv.0.bias f4 [16]
00000000: 384c 4731 3c05 4f34 37ee 83a9 d9b6 4ead
00000010: 2a46 1432 b674 0b31 a0f7 9632 9cb5 f635
00000020: 38a9 e330 730f c131 e84a 0e31 4b26 9cac
00000030: c65e 08b3 a074 deaf b198 9c2b a944 9bab
2.9001637e-09 1.9280282e-07 -5.858892e-14 -1.1750345e-11 8.630687e-09 2.0293505e-09 1.7574905e-08 1.8381284e-06
1.6564519e-09 5.6187957e-09 2.07063e-09 -4.438038e-12 -3.1751163e-08 -4.0464432e-10 1.1126847e-12 -1.1032469e-12

conv.1.weight f4 [16]
00000000: f763 083e 038d 1b3f e2eb d836 b9e1 acba
00000010: 9eb2 b53e a6c5 343e 84c0 503e 65d1 0a3f
00000020: 6733 873e 13ad 403e 42f1 0f3e f573 ff3b
00000030: 0eb5 553e 1adf 433e fd62 d538 554a 153b
0.13319384 0.6076204 6.464762e-06 -0.0013189829 0.35487837 0.17653522 0.20385939 0.5422576
0.26406404 0.18816023 0.14056876 0.0077958056 0.20869848 0.19128075 0.000101750695 0.00227799

conv.1.bias f4 [16]
00000000: 4821 adbd 88ff 6abe 50cd f1b8 93a3 f8bb
00000010: 0c8b adbd 1756 15be 7660 b9bd 99ae fdbd
00000020: 82cd c9bd 304d 0ebe 9ede 10be f7a6 99bc
00000030: 3619 1ebd f402 3bbe 369c 38ba 2d38 a1bb
-0.084536135 -0.2294904 -0.00011530018 -0.007587859 -0.08473787 -0.14583622 -0.090516016 -0.123868175
-0.09853651 -0.13896632 -0.14147422 -0.018756373 -0.03859826 -0.18262845 -0.000704232 -0.0049200268

conv.1.running_mean f4 [16]
00000000: 1d1b 8542 48b4 c4c3 e064 ac3d 8904 89bf
00000010: c665 0543 4fdb 6d43 fe48 d541 00ec 04c3
00000020: 112f adc0 3f97 0243 195e 1842 11ce 4b41
00000030: 1393 85c0 10e0 3440 7c1a 343e 99d7 0040
66.552956 -393.40845 0.08417678 -1.0704509 133.39755 237.85667 26.66064 -132.92188
-5.4119954 130.5908 38.091892 12.737809 -4.1742034 2.8261757 0.17588228 2.013159

conv.1.running_var f4 [16]
00000000: 1996 2846 4729 ce48 9fcf 6a3c cf5f ff3f
00000010: ea72 1747 2838 bc47 791c 6746 9ba9 1447
00000020: 577e 1f46 636f 3347 e4f2 db46 21e8 8543
00000030: 4c5c 9546 7bec 2047 85db 583d 502a ec40
10789.524 422218.22 0.014331727 1.9951113 38770.914 96368.31 14791.118 38057.605
10207.585 45935.387 28153.445 267.8135 19118.148 41196.48 0.052943725 7.380165

conv.3.mlp.0.weight f4 [1, 16, 1, 1]
00000000: 833e 0abc b435 b7bb 1ddd 5fb4 e0ab bdb7
00000010: c072 043e d5dd ca3c 5045 a6bc 718d 6b3d
00000020: f106 d83d a065 8f3d 22df 363d 5af2 9c39
00000030: 5cb8 51bb 4711 743d 181b 79b3 4e06 04b7
-0.0084377555 -0.0055911187 -2.0848934e-07 -2.2610591e-05 0.12934399 0.02476398 -0.020296723 0.057507936
0.10548199 0.07001805 0.04464639 0.00029935205 -0.0032000756 0.05958679 -5.7999472e-08 -7.869281e-06

conv.3.mlp.2.weight f4 [16, 1, 1, 1]
00000000: 6117 a43a 5964 773e 911d b0b2 7b04 2a35
00000010: f980 183c 6018 813a 27bc 663c 6f73 aa3d
00000020: af2e f4bc 12de dabb f1e3 393c 8052 8bb2
00000030: 85b4 61bc be2b eeb8 6a9c fbb2 a067 1c34
0.0012519174 0.24159373 -2.0502542e-08 6.3336455e-07 0.009308093 0.0009849183 0.014082945 0.083227985
-0.029807417 -0.006679305 0.011345849 -1.6219246e-08 -0.013775949 -0.00011356872 -2.9291375e-08 1.4566331e-07

conv.3.conv.weight f4 [1, 2, 7, 7]
00000000: 069b 353d dc8f 863c 23de da3b fe3f 293d
00000010: 230a 533d f568 2b3d a3af ed3c dfff 0fbd
00000020: cc3c 8dbd ed3a 31bd 2415 733c 6426 203c
00000030: 16a3 d3bc ee42 d23c 4ad2 e8bd daf3 d3bd
00000040: 0559 7cbd d223 6fbd 9a7f 8fbd efdc 8cbd
00000050: ea1e b7bc d249 e4bd 0596 1cbe 8ec7 f5bd
00000060: 2d88 c2bd 100f fcbd 60b3 fabd 7977 b2bc
00000070: bd76 39bd 1679 aebd 736b 37bd 7afc 22bd
00000080: 359c 54bd 783d cabd 673a e4bc bfcb 1b3b
00000090: 6e61 30bd 641f bcbc 64dd 4bbd a0da 2abd
000000a0: feef 7ebd 4136 e7bc 0146 8c3d 4eff 0c3d
000000b0: dba5 2c3d ba2f 933d fc10 533d 98fd 143d
000000c0: 503e c83c 8ad5 053c 152e 323b c8c1 91b8
000000d0: 3d70 6b3b f2fc db3a 5542 083b 9f8f 273b
000000e0: cf29 e1bb cc92 41bc 3b9c 37bc c80d 40bc
000000f0: c6d5 70bc f481 2dbc cb51 6bb9 04d5 b6bc
00000100: c573 a9bc b7ac 3cbc bd73 80bc a5b0 8ebc
00000110: 6bef 8fbc c9f7 d2bb 3272 85bc 172d b0bc
00000120: f1e6 41bc e83d 2ebc 1b88 6fbc 8ee5 b3bc
00000130: cada 34bc 4ae9 06bc 6c57 68bc 0697 5b3b
00000140: 778c 74bb c11d 41bc be8f 92bc 612e b3bb
00000150: 8e83 0b3b 7039 c2bb f40b 703b c13e 81b9
00000160: 64ec 803b c21b c4ba f6b9 90bb df55 093c
00000170: b722 9f3b b01f d23b 0e03 f13b 6696 2f3b
00000180: 484d 9d3b 9e77 cb3a
0.044337295 0.01642602 0.006679313 0.041320793 0.05152334 0.04184814 0.029014414 -0.035156127
-0.06896362 -0.043269087 0.014836583 0.009774778 -0.025834601 0.02566668 -0.113682345 -0.10349245
-0.061608333 -0.05838377 -0.0700676 -0.06878077 -0.022353608 -0.111468926 -0.15291603 -0.12000953
-0.0949863 -0.123075604 -0.12241244 -0.021785485 -0.045279253 -0.08519189 -0.044780206 -0.03979156
-0.051906783 -0.098750055 -0.02785988 0.0023772565 -0.043061666 -0.022964187 -0.04977168 -0.041712403
-0.062240593 -0.028224112 0.0684929 0.034423165 0.04215036 0.071868375 0.05152987 0.03637466
0.024443775 0.008168587 0.0027188112 -6.9502334e-05 0.0035925054 0.0016783758 0.002079149 0.0025567783
-0.006871439 -0.011814784 -0.011206682 -0.011722036 -0.014699405 -0.010590065 -0.00022441817 -0.02231837
-0.020685086 -0.011515788 -0.015680188 -0.017418215 -0.017570218 -0.0064382297 -0.016289804 -0.021505876
-0.011834846 -0.010634877 -0.014619852 -0.021960046 -0.0110384915 -0.008234331 -0.014180999 0.0033506765
-0.003731517 -0.011786879 -0.017890807 -0.0054681753 0.002128813 -0.0059272572 0.0036628218 -0.00024651553
0.00393443 -0.0014961886 -0.0044166995 0.00838229 0.0048564333 0.006412469 0.0073551005 0.0026792525
0.0048004724 0.001552332

conv2.0.weight f4 [32, 16, 3, 3]
00000000: 62c6 47bc 4bdf 2f3b 12e0 133b ddac 6b3c
00000010: fb35 c73b 2a7c 18b9 6205 df3c 48d5 ab3c
00000020: 40ea e43c 8293 173c e55b cd3b 26f0 7ebc
00000030: e332 58bd ef21 40bd b037 ddbc a0da 2f3b
00000040: b621 0ebc 68dc dcbc b087 c632 0a75 d6b4
00000050: 2b2a 42b5 43a1 0735 a1d4 7634 b746 d5b3
00000060: 50ef 4733 fa74 b4b3 394b 98b4 bf87 b5b7
00000070: a097 09b8 1c7c 39b8 39eb 5b37 ae56 b636
00000080: c6cb 79b6 3207 63b7 1a6f a9b7 a7cd eeb7
00000090: bef0 cebd 2c46 44bd 503c 31bd 59fa 8dbd
000000a0: 1e56 9bbd 0b53 8ebd b21e 72bd 00d7 35bd
000000b0: 77b4 c1bc 3bad 7ebc 28e9 80bc cfca 8bbc
000000c0: d764 77bb cae8 26bb 5924 1eb9 77d1 8bbc
000000d0: fbb0 47bc 06df 8bbb 7b66 2dbd 1641 5bbd
000000e0: 6ae4 80bd 1c48 ef3b 037a da3c 3eac f2bb
000000f0: c9b6 80bb 4694 60bb cd94 46bc a3f7 49bd
00000100: 3bba 123d ece3 b03c ed3f a13c 5245 f43d
00000110: 34ea 123e d7e5 923d 3f8e b73d 90bf a53d
00000120: 6b6a a0bd 27f4 0bbc c366 263d 31fa e4bc
00000130: cfeb 2d3d a6a6 813d e049 16bc 9ce4 673b
00000140: bd25 923d 7ceb 81bd b1ad 6bbd 4901 8cbd
00000150: d716 8ebd 1b14 8dbd f887 55bd 0df1 03bd
00000160: b6de e4bc 2b9d e8bc 8893 04bc a8a9 0dbd
00000170: e3c4 3ebc ad55 cdbc 2392 c7bc bd5e 0fbc
00000180: 7d8c 74bc 13ad babc e5d2 c9bc 0205 ac3b
00000190: ce79 813b 3f03 913b d994 6b3b 36bf 233b
000001a0: 1941 fc3a e718 ac3a fbd9 103a 9fa7 bb38
000001b0: e2f1 58bd 9334 58bd 16a1 cfbc 9690 503b
000001c0: a43c e6bc e44e 4fbd a94e cabb a7ce 13bc
000001d0: 130f 0ebb 212f ebb9 9eff 65bc 705f 7cbc
000001e0: 5279 a4bc 5c2e a5bc 5013 d0bc e8bb 12bd
000001f0: dce0 02bd fe6b b6bc f095 2ab6 8808 85b6
00000200: 0fb1 abb6 801e 7e36 b3e3 0836 d77d 1335
00000210: 80c2 5c36 0ad0 f035 10f4 a734 359c 92b8
00000220: 5cef a1b8 63ce b2b8 134e 5038 6688 f637
00000230: 92b1 4937 d83e b038 b179 8038 660d 2738
00000240: a95f 8b30 26c4 b3b1 2956 1bb4 a0b4 87b3
00000250: 52c8 94b3 a4b7 9c33 2630 b9b3 b3a0 d133
00000260: 40f5 53b1 9f14 b735 5e72 cf34 890e 7cb4
00000270: 4fee 03b5 8f77 4335 b46a b135 efa3 2ab5
00000280: 970c 8cb5 6db0 efb5 73f0 91aa 1a95 5baa
00000290: d2b0 edaa 7e9b f2ab 088d 04ac afa5 12ac
000002a0: 129a 3eac ae10 51ac 2dfd 50ac 92f9 41af
000002b0: ef08 3aaf bff0 3daf 0b4b 7baf 7618 79af
000002c0: f4f4 80af f7fc 8aaf 9817 87af 12c9 8daf
000002d0: 6c93 67b5 94fe 32b3 0458 80b4 39f7 3eb7
000002e0: 22f5 c1b8 4002 e2b7 47a7 edb5 ea22 22b5
000002f0: 9749 24b5 42f2 a733 7a00 bc32 b09b bc32
00000300: 8b87 2bb4 7605 12b4 84e4 97b3 263a 01b4
00000310: 4ed6 c9b3 2486 f2b3 0f9f 1db3 46d1 7832
00000320: 509a 64b2 1b18 0433 d97e 6434 92c8 9d34
00000330: f67e 75b2 2389 d2b4 be99 f1b4 8436 a0b6
00000340: 3014 beb4 90f6 1db7 9008 f234 2d39 6337
00000350: ed91 6a37 ac4b d236 bc12 5136 28ea 8237
00000360: 51ed a434 0ecd 0133 d0f8 69b0 aeac 91b5
00000370: a4d5 37b4 208f a234 d990 d536 7b26 1a35
00000380: 2b48 0835 1cc8 79b5 7e69 40b5 f575 29b6
00000390: 6aff 9c33 f5a8 abb2 4f2f 94b3 ae15 77b4
000003a0: 0242 70b3 366e 8cb3 b05b 2ab2 a575 1c33
000003b0: 371d 92b3 4dda 1cb4 dceb 75b4 4104 4eb4
000003c0: eb6f 80b4 296d 24b4 116d d0b3 ef48 3bb0
000003d0: d99e 2eb0 0549 1ab0 3faf 74b0 a4bf 7bb0
000003e0: 7f62 82b0 d461 95b0 fe72 8fb0 8d44 8ab0
000003f0: 1cd8 e734 adbe a734 7bec 7934 7353 1135
-0.012193294 0.0026835974 0.0022563976 0.014384476 0.006079433 -0.00014542104 0.027224246 0.020975724
0.02794373 0.009251477 0.006267058 -0.015560186 -0.052782904 -0.04690736 -0.027004093 0.0026833192
-0.0086750295 -0.026960567 2.3111937e-08 -3.9945763e-07 -7.2331994e-07 5.0526086e-07 2.2987889e-07 -9.9314484e-08
4.655095e-08 -8.403181e-08 -2.8366938e-07 -2.1640093e-05 -3.2804557e-05 -4.4223023e-05 1.3108184e-05 5.4341135e-06
-3.7222503e-06 -1.353193e-05 -2.0198106e-05 -2.8467575e-05 -0.10104512 -0.047918484 -0.04327041 -0.06932516
-0.07584785 -0.06949433 -0.059111305 -0.044394493 -0.023645623 -0.015544231 -0.015736178 -0.01706448
-0.0037749314 -0.0025468343 -0.00015081595 -0.017067654 -0.0121881915 -0.00426853 -0.04233406 -0.053528868
-0.062935665 0.0073022973 0.026669508 -0.007405787 -0.0039280397 -0.0034268065 -0.012120438 -0.04930843
0.035822134 0.021593057 0.019683803 0.11927284 0.14347154 0.07172745 0.08962678 0.08093178
-0.078327976 -0.008542097 0.040625345 -0.027951332 0.042461213 0.06330614 -0.009172887 0.0035384065
0.07136104 -0.06343743 -0.057538692 -0.068361826 -0.0693795 -0.068886004 -0.052131623 -0.032212306
-0.027938228 -0.028395256 -0.008091815 -0.034585625 -0.011643621 -0.025065267 -0.024361676 -0.008750615
-0.014926073 -0.022787606 -0.024636695 0.0052496204 0.003951288 0.004425436 0.0035946874 0.0024985797
0.0019245475 0.001312998 0.00055256457 8.948077e-05 -0.052965052 -0.052784514 -0.025345366 0.0031824461
-0.028105088 -0.050612345 -0.006173928 -0.009021438 -0.0021676465 -0.00044857807 -0.014037995 -0.015403613
-0.020077381 -0.020163707 -0.025399834 -0.035823733 -0.031952724 -0.022268292 -2.541925e-06 -3.964702e-06
-5.1168095e-06 3.7866703e-06 2.0398118e-06 5.494489e-07 3.2895769e-06 1.7941941e-06 3.1283753e-07 -6.990918e-05
-7.7216624e-05 -8.526144e-05 4.9663777e-05 2.9389e-05 1.2021877e-05 8.4040395e-05 6.1261824e-05 3.982838e-05
1.0140769e-09 -5.231885e-09 -1.4466845e-07 -6.319283e-08 -6.928225e-08 7.29772e-08 -8.623492e-08 9.761552e-08
-3.084395e-09 1.3640564e-06 3.8639968e-07 -2.3474617e-07 -4.914809e-07 7.281714e-07 1.3218582e-06 -6.356849e-07
-1.0434477e-06 -1.7858234e-06 -2.592402e-13 -1.9502837e-13 -4.222235e-13 -1.7238292e-12 -1.8836616e-12 -2.083982e-12
-2.708615e-12 -2.9709945e-12 -2.9699119e-12 -1.7641913e-10 -1.6919775e-10 -1.727498e-10 -2.2854978e-10 -2.2655108e-10
-2.3457114e-10 -2.5281796e-10 -2.457312e-10 -2.579062e-10 -8.6268733e-07 -4.1675392e-08 -2.3905898e-07 -1.13824435e-05
-9.248617e-05 -2.6942347e-05 -1.770656e-06 -6.040051e-07 -6.120185e-07 7.82061e-08 2.1886297e-08 2.1956879e-08
-1.5974926e-07 -1.3599296e-07 -7.073052e-08 -1.2035215e-07 -9.398774e-08 -1.1293403e-07 -3.6699074e-08 1.4483083e-08
-1.3306433e-08 3.075557e-08 2.1280302e-07 2.9389463e-07 -1.42897445e-08 -3.9215328e-07 -4.500161e-07 -4.774718e-06
-3.5404946e-07 -9.4153365e-06 4.5082243e-07 1.3543567e-05 1.3981463e-05 6.267297e-06 3.1154332e-06 1.5606245e-05
3.072005e-07 3.022165e-08 -8.511849e-10 -1.0853598e-06 -1.7120925e-07 3.0278989e-07 6.364757e-06 5.7425467e-07
5.0768966e-07 -9.3050926e-07 -7.1679085e-07 -2.5251622e-06 7.3107756e-08 -1.9983853e-08 -6.9003924e-08 -2.3011555e-07
-5.593939e-08 -6.539305e-08 -9.91615e-09 3.6428577e-08 -6.803969e-08 -1.460805e-07 -2.2903208e-07 -1.9186793e-07
-2.392329e-07 -1.5313402e-07 -9.705594e-08 -6.813385e-10 -6.352657e-10 -5.612864e-10 -8.901572e-10 -9.1585606e-10
-9.486739e-10 -1.0868981e-09 -1.0437302e-09 -1.0060305e-09 4.3184343e-07 3.124491e-07 2.3275963e-07 5.4138144e-07

conv2.0.bias f4 [32]
00000000: c506 e138 401a 0dae a461 6a33 2491 78ac
00000010: bc2a 0db7 802f ceb5 6ab6 e2a0 5201 7c32
00000020: c4d8 1938 f2db 08b6 c574 3837 c4b5 4d3a
00000030: c173 573a 8a5c 1eb7 0af8 1539 9bcc 9e29
00000040: db05 ffb7 d602 0539 b1a6 212f 88c2 0332
00000050: 68fd a1b7 a1c7 282d 1390 8731 c088 d3b0
00000060: c03c 0ca2 00d5 3b2d f1bc 1682 9c38 0b27
00000070: ba3e 2b38 e24b 6f2d 78a3 adb8 d60b 8939
0.00010730097 -3.2083003e-11 5.4571174e-08 -3.532349e-12 -8.414205e-06 -1.536202e-06 -3.84066e-19 1.4668631e-08
3.667992e-05 -2.0393604e-06 1.0994442e-05 0.00078472146 0.0008218848 -9.43908e-06 0.00014302149 7.052103e-14
-3.0401096e-05 0.00012684925 1.4702085e-10 7.669435e-09 -1.9310697e-05 9.594021e-12 3.9453965e-09 -1.5391137e-09
-1.9005699e-18 1.0677015e-11 -1.1074483e-37 1.9320813e-15 4.0827996e-05 1.36024265e-11 -8.279731e-05 0.00026139495

conv2.1.weight f4 [32]
00000000: 30d6 7e3e f1d0 c83b a0c2 9a3c a0dc 523a
00000010: 1a93 093e de1e 8e3d e22a 1a2d 37ec 183c
00000020: 0e97 d73d 1e92 093d d1f0 283d 3751 a23e
00000030: a34c bd3e 7c62 803d 9c91 5f3e d6e0 8035
00000040: 8c84 5a3e 5681 3c3e 3096 713b eb1d c33b
00000050: f24d 053e 9046 2639 92e8 ff3b 8236 7c3c
00000060: 479c 1732 19ef d239 ba68 7980 d19c 1332
00000070: 9ac0 453e d9cd 1c3a 21d6 1a3e c02f 723e
0.24886394 0.0061284234 0.018891633 0.000804374 0.13435021 0.06939481 8.763408e-12 0.009333662
0.10526858 0.033586614 0.041245285 0.31702587 0.36972532 0.062687844 0.2183289 9.602179e-07
0.21339625 0.18408713 0.00368632 0.0059544942 0.13018015 0.0001585728 0.007809707 0.015393855
8.82489e-09 0.00040232463 -1.1149664e-38 8.592182e-09 0.19311753 0.00059816014 0.15120746 0.23651028

conv2.1.bias f4 [32]
00000000: e0dd 4ebd 93e5 d7bb cbe5 ccbc cced 23b9
00000010: d5cb 04be 9818 bebd 93ff 90b8 84eb 47bc
00000020: a032 6dbd b2d6 7cbd 04f2 41bd 10bf aebd
00000030: 2012 08be 1b13 84bd 8524 69bd d285 e5b9
00000040: 8e3d 0bbe 9960 76bd b32e feba c4d8 9fbc
00000050: 9e97 aebd 872b e1b6 8832 4cbc a0c9 0ebd
00000060: 850d 58b8 17b7 0fba c681 9e3a b325 0fb8
00000070: addc e5bd 3297 dab8 d1a3 89bd 1e1a e9bc
-0.050504565 -0.0065886467 -0.025011918 -0.00015633478 -0.12968381 -0.09282035 -6.9140595e-05 -0.012202147
-0.057909608 -0.061728187 -0.047349945 -0.08532536 -0.13288164 -0.064489566 -0.056919593 -0.00043777988
-0.135977 -0.060150716 -0.001939258 -0.019512542 -0.085250124 -6.71059e-06 -0.012463219 -0.034860253
-5.1511004e-05 -0.00054822996 0.0012093119 -3.4128967e-05 -0.11223731 -0.000104232124 -0.067206986 -0.028454836

conv2.1.running_mean f4 [32]
00000000: 5812 82bb b2c3 ddb5 ed70 d138 b194 8fb2
00000010: c0de cebb 9fcc 1e3a 1e87 eda8 ef8d 1fba
00000020: 03b9 ac3b 41a9 0bb9 f131 6e3b 863b 0f3b
00000030: b69d e63a 9c0e 9c3b 7146 e8bb 1d6d 2a31
00000040: 05e6 4e3b b1f4 ac3b 6d64 8e37 5d62 a0b8
00000050: 7bbf 72bc e042 9132 68a6 8338 fd4a 29b9
00000060: 13ef d1ab 5c48 0034 63c3 a800 8ecd 6c2c
00000070: 9ffb 6e3c 4d8c 18b3 a174 853b ecf1 483c
-0.003969472 -1.6522738e-06 9.986931e-05 -1.6715008e-08 -0.006313175 0.00060577126 -2.6370883e-14 -0.00060865184
0.0052710786 -0.00013319125 0.0036345685 0.0021855547 0.0017594609 0.0047624838 -0.0070884754 2.480028e-09
0.0031570208 0.005278193 1.6974484e-05 -7.647716e-05 -0.01481616 1.6910633e-08 6.277562e-05 -0.00016145031
-1.49167e-12 1.1947253e-07 1.5498455e-38 3.3651723e-12 0.014586358 -3.551786e-08 0.004072741 0.01226471

conv2.1.running_var f4 [32]
00000000: f984 9f3a 93a1 282e aec0 6033 4b19 1a27
00000010: 76f1 4539 320a 8a38 c489 9411 0184 df34
00000020: b7d7 d238 46a0 f536 8e10 4a38 6446 e139
00000030: 9e6c 8439 46e1 a538 9c9d 2039 38ad 1024
00000040: 28c7 2939 8509 4e39 29d8 3b30 7f09 a634
00000050: 05b5 df38 b656 3827 b1b9 f632 b93c 3935
00000060: aa2b fc18 c4b6 5428 0400 0000 64ac 151a
00000070: afbd 3739 6f40 8d27 69fb 1139 08c8 9239
0.0012170366 3.8342284e-11 5.2329305e-08 2.1385505e-15 0.00018877335 6.582252e-05 2.3435187e-28 4.1633032e-07
0.0001005376 7.3202273e-06 4.817597e-05 0.0004296779 0.00025257928 7.9097736e-05 0.00015317503 3.1371745e-17
0.00016191287 0.00019649237 6.8337386e-10 3.092682e-07 0.00010667186 2.5582136e-15 2.8722612e-08 6.9006234e-07
6.5184563e-24 1.1807995e-14 6e-45 3.0951734e-23 0.00017522903 3.920522e-15 0.00013921935 0.00027996325

conv2.3.mlp.0.weight f4 [2, 32, 1, 1]
00000000: 2094 dd03 a9fb 3b80 8a04 1d80 9b27 2400
00000010: 1779 e301 7abb 3f81 0d55 0e00 8bc1 0400
00000020: 9c0d d002 cd30 2f00 e4bb 3201 c01c 5682
00000030: 2a70 a883 9bf0 8081 b0a3 4a83 8f35 1000
00000040: f0d7 7581 0945 0983 2a47 2c80 eed1 2180
00000050: 2c2c 1f80 d30c 3100 2e15 4380 06a5 3400
00000060: 5bcc 3500 c873 2380 f2a0 4200 4e07 0580
00000070: f41e 0584 56a1 2a00 765a c383 5059 8e82
00000080: 589e 1180 76a5 0180 47e2 0600 c47c 3000
00000090: bf9b 0480 f2f2 0400 57cc 1680 fc0c 0900
000000a0: c5e3 3780 166b 2200 40e3 0300 345e 3a80
000000b0: 6b27 2880 578c 0900 d5ee 0b00 9d61 2300
000000c0: a3f8 0c00 ecb3 4280 2622 0a80 db4d 1f00
000000d0: 9724 2180 7aba 2580 e121 2500 535d 1b80
000000e0: 5410 1700 d7e9 1080 2091 1600 cae8 0980
000000f0: f333 0000 4849 0a00 c6e4 3700 7913 1a80
1.302322e-36 -5.508573e-39 -2.664858e-39 3.320286e-39 8.3560386e-38 -3.5215667e-38 1.316207e-39 4.36772e-40
3.0570665e-37 4.333775e-39 3.2828242e-38 -1.5730488e-37 -9.899904e-37 -4.7365026e-38 -5.955037e-37 1.488581e-39
-4.515432e-38 -4.033993e-37 -4.06629e-39 -3.10588e-39 -2.862746e-39 4.50454e-39 -6.160576e-39 4.834645e-39
4.94059e-39 -3.255777e-39 6.118879e-39 -4.61798e-40 -1.5648288e-36 3.914967e-39 -1.1481839e-36 -2.0916288e-37
-1.618006e-39 -1.51192e-40 6.32186e-40 4.452861e-39 -4.23213e-40 4.54494e-40 -2.093684e-39 8.31177e-40
-5.13266e-39 3.160822e-39 3.57028e-40 -5.360252e-39 -3.68756e-39 8.76864e-40 1.095867e-39 3.24926e-39
1.19122e-39 -6.125687e-39 -9.30605e-40 2.87483e-39 -3.043697e-39 -3.464809e-39 3.410067e-39 -2.513037e-39
2.118074e-39 -1.553254e-39 2.072442e-39 -9.10028e-40 1.8636e-41 9.44643e-40 5.133021e-39 -2.394708e-39

conv2.3.mlp.2.weight f4 [32, 2, 1, 1]
00000000: e821 f202 83b3 2000 ad91 2380 e36f 0100
00000010: 8353 0c00 6ae1 0e00 c7cf 2700 e734 3680
00000020: 4831 9780 a162 0080 0993 2700 0d11 2880
00000030: 8f74 3900 0685 2e80 f0e7 3000 f073 0680
00000040: 4959 2601 437d 0580 e890 3800 ace0 2580
00000050: 5ace 0c80 13c7 1b80 46a1 0103 f0fa 3100
00000060: caf9 de83 ff03 3400 5a8d dc80 7200 0880
00000070: b692 d001 7986 1400 f3cf 2600 f8ea 3580
00000080: 4b0b 3202 291c 3080 d878 0c82 ee44 0480
00000090: 92ca 0c00 fcc1 3a80 d8e5 0680 6530 3280
000000a0: 3e68 7301 39e9 1780 2bfd 3100 bbcc 0d00
000000b0: e5d6 1480 2787 4180 ebf9 1b00 b2e4 4000
000000c0: a1d7 2980 3199 3400 6e70 2b80 cd0f 0f80
000000d0: 5317 3580 aaef 2900 d14a 2680 251b 1d00
000000e0: 84fe 4d00 7e25 1a80 bb2a 1f80 be65 3780
000000f0: d4fd 5282 a948 2300 74bd de81 7d3b 1a00
3.5578165e-37 3.003133e-39 -3.266501e-39 1.31973e-40 1.131984e-39 1.36656e-39 3.656121e-39 -4.978095e-39
-1.3884839e-38 -3.5381e-41 3.63433e-39 -3.679537e-39 5.276437e-39 -4.272153e-39 4.491307e-39 -5.92604e-40
3.0553444e-38 -5.04113e-40 5.19477e-39 -3.47851e-39 -1.176051e-39 -2.550973e-39 3.8094826e-37 4.589959e-39
-1.3105336e-36 4.77688e-39 -2.0254517e-38 -7.34844e-40 7.661765e-38 1.88495e-39 3.564347e-39 -4.951572e-39
1.3080616e-37 -4.418206e-39 -1.0320256e-37 -3.92069e-40 1.174694e-39 -5.396047e-39 -6.33465e-40 -4.609135e-39
4.470684e-38 -2.195881e-39 4.590759e-39 1.267305e-39 -1.9138e-39 -6.017791e-39 2.569212e-39 5.959512e-39
-3.842608e-39 4.8304e-39 -3.989259e-39 -1.3832e-39 -4.875648e-39 3.85123e-39 -3.516588e-39 2.672967e-39
7.162636e-39 -2.401173e-39 -2.862229e-39 -5.08745e-39 -1.5501208e-37 3.240308e-39 -8.182177e-38 2.409063e-39

conv2.3.conv.weight f4 [1, 2, 7, 7]
00000000: 9786 c63c 6bbf 2a3d 0ffb 7e3d 58d8 843d
00000010: c58e 093d 25bb f93c b63a 413c d6b6 cc3b
00000020: c837 12bd f93c 4fbd 00e3 08bd c0b0 8c3c
00000030: 697d 29bb 9154 a43b 2f74 33bc 1c74 97bc
00000040: fbba 48bd 3a81 23bd 49ea 79bd a250 aabc
00000050: b617 713c 8a50 96bb 0d3d 91bd b9e5 76bd
00000060: 4afe d4bc d7f0 0abd 7e1a 0ebd e821 8d3b
00000070: d4bc 9c3c 09e2 4ebd 3122 17bd 19b6 10bd
00000080: b620 b9bc 6f58 9fbc a65b 5f3c 8dac 0e3d
00000090: 177a 5dbc c1af d43a 3e61 813c d617 c03b
000000a0: 0475 50bc b059 633c 5f62 d03c f2f1 b63c
000000b0: 76e8 e83c 6735 f03c da10 333c e717 7d3c
000000c0: f973 373c fe9d c03a 83b6 1fbb 2e16 1eba
000000d0: 9610 6bba e1d8 b8ba 731a 1fba 0889 4e3b
000000e0: a764 ccba d809 3bba 2221 a7bb 97d6 8bbb
000000f0: 9110 2d3b bef2 f73a ae19 b6ba 7817 6f3b
00000100: 5641 09ba 4d1d adb9 debb f7b9 d92e 153a
00000110: d9e4 f5b7 d2b0 16ba cbcf ad39 40cb 45bb
00000120: df08 f6ba 0ca2 ac39 ca28 453b a26c 213a
00000130: 6b04 2a3b 8023 d13b 56ec 453b 6988 803b
00000140: 82e7 67ba ba7b 1fbb 3106 cabb 4f47 56b9
00000150: 87b2 ca3b de48 4b3b 618d 713b 87aa 313b
00000160: ef4f 39bb 629d 193b b4aa 353b 0466 9d3b
00000170: b496 b43a 3bff 913a b762 96b9 7de3 a2ba
00000180: 0e96 3839 68f2 8bba
0.0242341 0.041686457 0.062251147 0.06486577 0.03358342 0.030484745 0.011793783 0.0062473817
-0.03569773 -0.050595257 -0.03341961 0.017174125 -0.0025862104 0.005014964 -0.010952993 -0.018487982
-0.049006443 -0.039918162 -0.061014447 -0.020790402 0.014715126 -0.0045872377 -0.07091723 -0.060277674
-0.02600016 -0.03392109 -0.034693234 0.0043070205 0.019133009 -0.050508533 -0.03689784 -0.03532991
-0.022598606 -0.019451348 0.0136326905 0.034832526 -0.013517878 0.0016226695 0.015793439 0.0058622165
-0.012723211 0.013876364 0.025437532 0.022332165 0.028431159 0.02932234 0.010929311 0.015447593
0.011197084 0.0014695523 -0.002437026 -0.0006030527 -0.000896701 -0.0014102721 -0.000606931 0.0031514782
-0.0015593962 -0.0007134951 -0.0051003853 -0.0042675245 0.002640758 0.0018916947 -0.0013893151 0.0036482494
-0.0005235871 -0.00033018962 -0.00047251483 0.000569088 -2.9312841e-05 -0.0005748394 0.0003315195 -0.003018096
-0.0018770954 0.0003292713 0.0030084127 0.000615785 0.0025942575 0.0063824058 0.0030200682 0.0039225114
-0.0008846448 -0.0024335221 -0.006165289 -0.00020435195 0.006185833 0.0031018774 0.003685795 0.00271097
-0.0028276404 0.0023439755 0.0027720155 0.004803421 0.0013777823 0.0011138687 -0.00028683778 -0.0012427416
0.00017603507 -0.0010677101

conv3.0.weight f4 [64, 32, 3, 3]
00000000: ffb6 7ebc aa01 713b d61a 60bc 8579 d6bc
00000010: a5d6 b23c dd3f 123d 8be5 133d 0f2c 633d
00000020: 4f32 243d 81a3 e634 06da eeb5 998e 93b6
00000030: 98cd 5136 58fc 0c35 928d 2fb6 515f 8e36
00000040: c496 a935 d6d0 7036 0222 f0b8 1171 bcb8
00000050: a613 d3b7 2dac e5b8 8d7f ceb8 4b0f 05b8
00000060: 262c 69b9 f7e9 d2b8 b9b1 d9b7 3631 6f31
00000070: b628 77b3 bd96 15b4 0b59 ce33 ec59 98af
00000080: e87b fdb3 c74d 0d34 e94a 1833 06e2 83b3
00000090: 7c48 73bc 5591 943b 3116 93bd a92c ae3c
000000a0: d598 4ebd 4f90 e7bc 23f6 123d bc0f a13c
000000b0: 8c8f 93bd a99d c9bc 467a 9e3b 9845 c0bb
000000c0: fe9e b53c eeba 05bc 8c22 70bb 2713 73bc
000000d0: 3e43 fa3b bce9 55bc d16e 2731 7153 8eb2
000000e0: 7aed 78b3 a71b 1533 543b 13b3 6257 f2b3
000000f0: 9eae 4933 6556 c3b2 42dd 8bb3 bf1e 9338
00000100: 7fb8 5038 933e 8138 dbaa 1c38 6a11 eb37
00000110: e062 8537 d612 8638 28be 5638 51e4 7438
00000120: fa02 4d3d f594 003d 166c 673c c25a 8fbb
00000130: d6a8 3e3c 4c8f 45bc 6f0f 0b3c 45a4 ca3c
00000140: 6c8e 203c 0327 f339 5986 01bb 9485 23bb
00000150: 66f4 1d3b 8544 1b3b ac5a 853a 7f91 303a
00000160: 38e7 503b 3575 163c 4a7c bcba 293b f63b
00000170: 1c7d 693b 7b47 7ebc cbcf a4bc 0db0 13bc
00000180: 8f4b 5fbb f16b 3abc 7a51 ab3b ab10 d03c
00000190: d681 d73d de60 ca3d 1d23 5cbb 95d5 1fbd
000001a0: cefb d5bc 04ef b03b f10e 89bc 22e6 013c
000001b0: 39b9 12bb 0957 5abc f5c3 c03d b58e 15bd
000001c0: 12f0 38bd 4e4d 483d da5a 573c b275 13bd
000001d0: 7774 073d 3975 8a3b e0e0 f6bb 1435 53ba
000001e0: 6448 47bc 2cb9 49bc f064 903b 9de8 6dbc
000001f0: e4e9 d1bb ee1b 70bc 7871 4a3d 707f 94bd
00000200: c05f 213d 3a93 033d 883c 39bd db08 47bd
00000210: 4bee 1a3d 1efb bebc 0008 b6ba 5de6 5333
00000220: 2fa4 20b4 4603 edb4 5740 5634 d8bb 45b4
00000230: 50f2 30b5 c155 9734 e45a ccb3 3daf c6b4
00000240: fb13 993d 6ad4 343d a8ee 13bd 65d4 d03c
00000250: fa05 adbc 6d40 073c 7e36 8a3d c303 553d
00000260: 4ecd e8bb 25d9 0bbd 92f6 f73c e33f f63c
00000270: e40b b63c 75fc 34bd 18a1 37bc 6cb9 67b8
00000280: 6000 e13c c6f3 2a3d 1985 34b5 b9e7 9ab5
00000290: fbc9 ffb5 6fac f834 e4fd 58b5 c780 04b6
000002a0: aac7 1235 14b5 81b5 ff4e e5b5 104e 0638
000002b0: 751b e636 8cc3 91b6 548d 1ab6 b45d f4b6
000002c0: 3410 86b7 158c 0f38 2735 7d37 967c 1838
000002d0: 8588 cb3b ea5a 1abc dd09 713d 11ca 68bc
000002e0: 2367 96bc fa24 b7bc 536a 663c 2ef4 093c
000002f0: 2827 88bc 99dc 0931 2293 8fb1 0a57 46b2
00000300: e09a 3132 df71 0130 17a6 45b2 acd2 7432
00000310: 8580 1c31 8f62 f9b1 cf23 d5b7 3181 1ab7
00000320: c089 ab36 5334 89b5 d5fe 0db6 ab3b 6bb7
00000330: 79fc f035 a458 54b6 ced2 f5b5 9c7b 3139
00000340: 7833 6238 db23 c138 5a8c e7b6 e735 11b8
00000350: 30bc a339 8097 2e39 4bab 8eb8 87a2 f7b7
00000360: 3818 8331 c0d0 86b2 fe1f 54b3 ab05 0433
00000370: 86b5 7eb2 ccb5 98b3 6f99 2b33 ba5a 07b1
00000380: 048a 2db3 6128 2e33 1fa4 3eb4 b049 01b5
00000390: aa12 9834 5967 ccb3 743a 17b5 f5d5 c734
000003a0: d884 ff32 2d5a a0b4 249d 48b7 d099 98b7
000003b0: 3fff 8537 6ef1 36b8 530b 0fb8 c564 31b7
000003c0: bdd8 70b8 fdd8 1db8 3acf 45b7 60f2 d12e
000003d0: aa54 99b1 645e b0b2 5c1a 2e32 441b 6db2
000003e0: 4a03 3cb3 ceab 2a32 930e 23b2 1fcb d1b2
000003f0: 2605 503d f7aa bb3c ae5e 0f3d 9bc0 c13c
-0.015546559 0.0036774673 -0.013678273 -0.026180992 0.021830866 0.035705436 0.03610758 0.05546194
0.04008704 4.2959803e-07 -1.7795835e-06 -4.397542e-06 3.1263098e-06 5.252127e-07 -2.6159437e-06 4.243026e-06
1.263536e-06 3.5884345e-06 -0.00011450426 -8.985599e-05 -2.516231e-05 -0.00010951641 -9.846604e-05 -3.1723914e-05
-0.00022237058 -0.0001005716 -2.5951174e-05 3.480705e-09 -5.7546195e-08 -1.3931545e-07 9.608819e-08 -2.7712532e-10
-1.1803769e-07 1.3159944e-07 3.545839e-08 -6.141276e-08 -0.014848825 0.0045339265 -0.07181967 0.02126153
-0.05043872 -0.028267054 0.035879266 0.019660823 -0.07205114 -0.024611311 0.0048363535 -0.005867671
0.02217054 -0.008162243 -0.0036641685 -0.014836109 0.0076374104 -0.013056215 2.436469e-09 -1.656892e-08
-5.7957983e-08 3.4716916e-08 -3.4280063e-08 -1.1284898e-07 4.6957773e-08 -2.2740275e-08 -6.5129385e-08 7.015233e-05
4.976289e-05 6.162855e-05 3.735242e-05 2.8022292e-05 1.5900878e-05 6.3931264e-05 5.1198673e-05 5.838677e-05
0.050051667 0.031392056 0.014124891 -0.004374833 0.011636933 -0.01205809 0.008487566 0.024736533
0.009799581 0.00046377638 -0.0019763915 -0.0024951445 0.0024101972 0.0023691964 0.0010174117 0.0006735548
0.0031876098 0.009183218 -0.0014380303 0.0075143767 0.003562755 -0.015519972 -0.020118615 -0.009014142
-0.0034072136 -0.011378274 0.0052282186 0.025398573 0.10522811 0.09881757 -0.0033590265 -0.039022047
-0.026121046 0.0053995866 -0.016730757 0.007928403 -0.0022388233 -0.013326415 0.09412376 -0.03651305
-0.045150824 0.04890185 0.013144219 -0.036000915 0.033070054 0.0042254 -0.0075341314 -0.00080569205
-0.012163255 -0.012312215 0.004406564 -0.014520791 -0.0064060558 -0.014655096 0.04942462 -0.07250869
0.039397955 0.032122828 -0.045223743 -0.04859243 0.03782491 -0.023313101 -0.0013887882 4.933678e-08
-1.4960891e-07 -4.4147072e-07 1.995371e-07 -1.8415392e-07 -6.591772e-07 2.8188336e-07 -9.516023e-08 -3.7007877e-07
0.07474514 0.044147886 -0.036116272 0.025491903 -0.021121014 0.008255106 0.06748675 0.05200554
-0.0071045524 -0.034142632 0.030268941 0.03005976 0.022222467 -0.044186074 -0.011207841 -5.524738e-05
0.027466 0.041736387 -6.724891e-07 -1.1541334e-06 -1.9057765e-06 4.6319062e-07 -8.083573e-07 -1.974449e-06
5.467979e-07 -9.66395e-07 -1.708482e-06 3.202079e-05 6.8577306e-06 -4.3441014e-06 -2.3030052e-06 -7.282675e-06
-1.598159e-05 3.422432e-05 1.5092351e-05 3.6355654e-05 0.0062113428 -0.00942109 0.058847297 -0.014208333
-0.018359726 -0.022356499 0.014063436 0.008420033 -0.016620234 2.006152e-09 -4.178575e-09 -1.1544907e-08
1.03379705e-08 4.7091747e-10 -1.1504674e-08 1.42505705e-08 2.2774043e-09 -7.2580586e-09 -2.5408253e-05 -9.209195e-06
5.1122333e-06 -1.0222524e-06 -2.115897e-06 -1.4020984e-05 1.7954873e-06 -3.1642057e-06 -1.8315275e-06 0.00016926083
5.3930533e-05 9.209636e-05 -6.9006755e-06 -3.4620894e-05 0.00031229993 0.00016650371 -6.8029934e-05 -2.9520377e-05
3.815355e-09 -1.5694582e-08 -4.9389193e-08 3.07388e-08 -1.48260195e-08 -7.11112e-08 3.9953587e-08 -1.9696658e-09
-4.0405226e-08 4.0549256e-08 -1.7754836e-07 -4.8163474e-07 2.8325786e-07 -9.518289e-08 -5.6336944e-07 3.7222313e-07
2.9746317e-08 -2.9867934e-07 -1.1957516e-05 -1.8191437e-05 1.5973694e-05 -4.361703e-05 -3.4104403e-05 -1.0573484e-05
-5.7422312e-05 -3.7633803e-05 -1.1790364e-05 9.547274e-11 -4.4625112e-09 -2.053202e-08 1.0134126e-08 -1.3801415e-08
-4.3775152e-08 9.934366e-09 -9.4911625e-09 -2.4423171e-08 0.05078616 0.02290867 0.035002403 0.023651412

conv3.0.bias f4 [64]
00000000: 0b8c a138 c8c0 8c80 4ad0 0cb7 833b 2e82
00000010: c058 b500 82b3 2482 4c31 958b 6000 9980
00000020: f659 e101 8c13 1a23 d400 5101 f0c3 94a2
00000030: 3607 8901 10c4 bb00 0841 9481 5885 4001
00000040: 0c12 dba4 be69 9681 085b 8c81 0007 2d82
00000050: 580b e525 40ba a41a 6cc5 1202 c029 c885
00000060: 4ef8 3daa c454 7881 f646 02ad 6bfb 1382
00000070: d830 9780 d835 4180 c008 8c01 6ad3 ea81
00000080: 1827 3481 acf7 0606 4c4e 0513 e40f d701
00000090: 10f4 5300 1f5d 8f02 14f5 a001 0e78 9e81
000000a0: 496a f596 3a62 8c82 7812 2214 ba75 8b81
000000b0: cbad 1330 e07b 7080 f8ef 8400 f3ac 8890
000000c0: ac82 fa01 c85b 7d23 a6b4 f296 4048 3939
000000d0: 2e95 d601 64e1 859d 045e 3138 d886 0000
000000e0: cc86 43a5 308a 2fb8 35d3 ef38 ebba 0002
000000f0: 7343 0c39 202a a002 fe3d 0482 c06d 818c
7.703163e-05 -1.2926126e-38 -8.393146e-06 -1.280058e-37 1.6654062e-38 -1.2100333e-37 -5.7466886e-32 -1.4050965e-38
8.2781034e-38 8.352496e-18 3.8387832e-38 -4.0322937e-18 5.03362e-38 1.7243572e-38 -5.445993e-38 3.53605e-38
-9.500668e-17 -5.525303e-38 -5.15585e-38 -1.2712042e-37 3.9732854e-16 6.8129713e-23 1.0783043e-37 -1.8823246e-35
-1.687272e-13 -4.5611222e-38 -7.405401e-12 -1.0872008e-37 -1.3884682e-38 -5.988623e-39 5.1440433e-38 -8.626139e-38
-3.3088827e-38 2.538456e-35 1.6825563e-27 7.900133e-38 7.7099e-39 2.106541e-37 5.912639e-38 -5.8212304e-38
-3.964896e-25 -2.062753e-37 8.182552e-27 -5.1229465e-38 5.3725263e-10 -1.0330014e-38 1.220837e-38 -5.390901e-29
9.2023e-38 1.3734593e-17 -3.9211214e-25 0.0001766989 7.8825247e-38 -3.5437855e-21 4.2287647e-05 4.8373e-41
-1.6959225e-16 -4.185195e-05 0.000114357485 9.457598e-38 0.00013376567 2.3534066e-37 -9.715619e-38 -1.994165e-31

conv3.1.weight f4 [64]
00000000: 750f 203e 3a1e 0286 5c2e 873e 8b0b 6787
00000010: c816 1900 dfe8 1400 4170 281a 4e32 848c
00000020: 54fc c284 c7b0 d630 44bd 010a 3746 8f31
00000030: b3bd 2380 0563 8289 8ada 1a80 78fc 1080
00000040: 7163 af32 7464 1200 a5c4 0f80 ce9d 1500
00000050: 7e6a 9c34 1f52 f728 dc73 f182 2acb 3115
00000060: c1d9 8638 2dcc 1100 e630 1f3b 59ba 1200
00000070: 40c9 2900 2a2f 0580 f43e 1800 1641 1700
00000080: ed04 1100 cc36 8d11 c416 ac20 cdae e286
00000090: cadb 9681 1d6a 0f00 ba6f 1400 7265 1b80
000000a0: eed0 9e25 38b0 1280 6b19 4721 a0b5 4200
000000b0: a4a5 9b3c 7cc0 ba0d ecde 0100 19eb 031d
000000c0: 864d 1300 13de 8d31 1483 1325 3cc8 ac3e
000000d0: 9611 0580 8c9a a72b 2867 283e f4f4 1300
000000e0: b9a6 3f33 18de a53e 43b9 813e 3116 0d00
000000f0: a69a 8d3e 038e cd86 6c5e 1900 5d0b b119
0.15630896 -2.447249e-35 0.26402557 -1.7381901e-34 2.30406e-39 1.920248e-39 3.4832264e-23 -2.0368096e-31
-4.5840908e-36 1.5620792e-09 6.246721e-33 4.1698303e-09 -3.282294e-39 -3.138948e-33 -2.46612e-39 -1.559937e-39
2.0417902e-08 1.689075e-39 -1.448075e-39 1.985155e-39 2.9134748e-07 2.7458123e-14 -3.5478267e-37 3.5905134e-26
6.430178e-05 1.634448e-39 0.002429062 1.719888e-39 3.83745e-39 -4.76097e-40 2.226635e-39 2.135565e-39
1.56297e-39 2.2279649e-28 2.9152998e-19 -8.52686e-35 -5.541668e-38 1.415599e-39 1.87679e-39 -2.51595e-39
2.7550207e-16 -1.716254e-39 6.7457463e-19 6.126298e-39 0.018999882 1.1509474e-30 1.71805e-40 1.7459248e-21
1.772685e-39 4.128887e-09 1.2794629e-16 0.33746517 -4.65486e-40 1.1908959e-12 0.16445601 1.832747e-39
4.4622286e-08 0.32396007 0.25336656 1.201822e-39 0.2765705 -7.7321097e-35 2.32976e-39 1.830596e-23

conv3.1.bias f4 [64]
00000000: c930 54bd 50a0 b9b5 541f afbd 8788 b3b5
00000010: 7bf4 83b5 fedd 80b5 0397 7cb5 65e0 bfb5
00000020: 5d21 19b7 209f 78b5 fec4 e3b5 74a8 78b5
00000030: 9b79 c1b6 4773 b5b5 d11d 24b7 8273 d5b6
00000040: 43a5 78b5 0802 a1b8 4cda 9bb5 9320 adb5
00000050: b2b3 95b5 0479 84b5 8ce5 48b6 2ff4 1bb5
00000060: 8fd2 9eb5 1e09 abb5 8334 b8ba 87a2 54b7
00000070: 2bde aab5 b782 00b7 2019 aeb5 966b acb5
00000080: bedf 13b6 e7aa 46b8 4099 82b5 4214 eeb5
00000090: 776e efb5 5636 6fb6 5137 b1b5 01ad 2db6
000000a0: 029b 78b5 70c2 9cb5 1eea 91b5 75ed e0b8
000000b0: 872c bdbc 6be6 0cb6 84ee 9bba fc11 feb4
000000c0: 7a82 f2b5 35a2 78b5 1226 bab5 90d0 6bbe
000000d0: 4838 acb5 f8ee 80b5 4c0d d0bd 69cf 8fb6
000000e0: 4b7d 0cb7 102c 2bbd b291 49be 3254 963b
000000f0: b313 aebd 92a3 c8b5 ff55 0cb5 4fb2 9cb5
-0.051804338 -1.3830231e-06 -0.08550897 -1.3376274e-06 -9.831414e-07 -9.601351e-07 -9.4097066e-07 -1.4295916e-06
-9.127279e-06 -9.2618757e-07 -1.697015e-06 -9.263233e-07 -5.766005e-06 -1.3519101e-06 -9.782104e-06 -6.3613415e-06
-9.2627687e-07 -7.6774566e-05 -1.1611933e-06 -1.2898985e-06 -1.1153663e-06 -9.869987e-07 -2.9935936e-06 -5.8097334e-07
-1.1833198e-06 -1.2743146e-06 -0.0014053736 -1.2674026e-05 -1.2730646e-06 -7.659829e-06 -1.2971323e-06 -1.284631e-06
-2.2034942e-06 -4.7366044e-05 -9.730356e-07 -1.7738278e-06 -1.7839037e-06 -3.5645403e-06 -1.3203627e-06 -2.587971e-06
-9.2612765e-07 -1.1679494e-06 -1.0871479e-06 -0.00010725382 -0.023092521 -2.0995747e-06 -0.0011896645 -4.7324272e-07
-1.8068379e-06 -9.262324e-07 -1.386916e-06 -0.23028779 -1.2831379e-06 -9.606292e-07 -0.10158786 -4.285878e-06
-8.373822e-06 -0.04179007 -0.19684485 0.0045876736 -0.08499851 -1.4948766e-06 -5.2279205e-07 -1.16748e-06

conv3.1.running_mean f4 [64]
00000000: bb20 143c 954f 0680 0591 2f3c 8769 c282
00000010: e042 0b80 c2ed 1d80 da00 9a92 2011 5b06
00000020: dd89 4f80 a293 a32c 6856 fc84 03f1 15a9
00000030: 1334 2000 2197 4e0c 902d 0a00 9404 5480
00000040: c2f3 2faa d91a 6000 e6ed 1380 07bf 6200
00000050: ae96 64ac 750e 9ba0 2faf 3000 b3ae 9a8e
00000060: 33f2 c3af 954a 6a80 8606 07b8 1f07 0c00
00000070: 0bb5 9080 dc5e 3680 c9af 5580 4a38 2c00
00000080: 2562 4900 d871 260c 7a3a 9898 40d2 8d82
00000090: 3019 cb80 e827 dd80 be7a 6380 9ecb 4400
000000a0: 6ab7 6e9d 281d ff00 3cae 7299 c69b 1c80
000000b0: 7433 2939 36a8 a48b 28e9 ae00 4e33 7f15
000000c0: 777f 0200 fe9e 20a9 5530 409d 2aac f33b
000000d0: 6a00 0400 ceb3 0ca3 4c82 ca3a 7b01 0400
000000e0: 8892 1e2d f89b 3dba 262f 7fba f15e 5180
000000f0: 7900 fe3b be7e 0c01 279c b200 f6f6 5c92
0.009041007 -5.79562e-40 0.010715728 -2.8566308e-37 -1.03418e-39 -2.748521e-39 -9.718976e-28 4.1201904e-35
-7.30446e-39 4.649129e-12 -5.9324267e-36 -3.329369e-14 2.957417e-39 1.5915141e-31 9.347e-40 -7.715824e-39
-1.5627693e-13 8.825839e-39 -1.830216e-39 9.068406e-39 -3.2484393e-12 -2.6267588e-19 4.470948e-39 -3.813216e-30
-3.5642386e-10 -9.761318e-39 -3.2192584e-05 1.10458e-39 -1.3289257e-38 -4.993146e-39 -7.869077e-39 4.060955e-39
6.739199e-39 1.2822433e-31 -3.9350125e-24 -2.0838766e-37 -1.8651641e-38 -2.030996e-38 -9.135746e-39 6.317858e-39
-3.159386e-21 2.3428511e-38 -1.2546293e-23 -2.627275e-39 0.00016136264 -6.34236e-32 1.6063017e-38 5.1537312e-26
2.29397e-40 -3.566504e-14 -2.5435975e-21 0.007436295 3.6749e-40 -7.62749e-18 0.0015450208 3.67873e-40
9.013797e-12 -0.0007233019 -0.00097345037 -7.472734e-39 0.007751521 2.5804872e-38 1.6402735e-38 -6.9724163e-28

conv3.1.running_var f4 [64]
00000000: 8b11 9838 0400 0000 9e5c 1339 0400 0000
00000010: 0400 0000 0400 0000 0400 0000 0400 0000
00000020: 0400 0000 cb0e d71b 0400 0000 bb73 0813
00000030: 0400 0000 0400 0000 0400 0000 0400 0000
00000040: be0c 3f15 0400 0000 0400 0000 0400 0000
00000050: d997 ea18 0c7c 4402 0400 0000 0400 0000
00000060: 489d 2020 0400 0000 4877 6e30 0400 0000
00000070: 0400 0000 0400 0000 0400 0000 0400 0000
00000080: 0400 0000 0400 0000 0400 0000 0400 0000
00000090: 0400 0000 0400 0000 0400 0000 0400 0000
000000a0: 6337 0000 0400 0000 0400 0000 0400 0000
000000b0: 6e46 6834 0400 0000 0400 0000 0400 0000
000000c0: 0400 0000 e35d 1513 5714 0000 323a 8d39
000000d0: 0400 0000 fdd1 7607 656b 1539 0400 0000
000000e0: 41f3 0f1b c90a 1539 7c65 1c39 0400 0000
000000f0: ce8f eb38 0400 0000 0400 0000 0400 0000
7.2511924e-05 6e-45 0.00014053515 6e-45 6e-45 6e-45 6e-45 6e-45
6e-45 3.5578326e-22 6e-45 1.7222673e-27 6e-45 6e-45 6e-45 6e-45
3.8582195e-26 6e-45 6e-45 6e-45 6.064091e-24 1.4435406e-37 6e-45 6e-45
1.3604567e-19 6e-45 8.6753404e-10 6e-45 6e-45 6e-45 6e-45 6e-45
6e-45 6e-45 6e-45 6e-45 6e-45 6e-45 6e-45 6e-45
1.9869e-41 6e-45 6e-45 6e-45 2.1632306e-07 6e-45 6e-45 6e-45
6e-45 1.8852734e-27 7.297e-42 0.00026936975 6e-45 1.8568693e-34 0.00014249755 6e-45
1.1907282e-22 0.00014213765 0.00014915125 6e-45 0.00011232459 6e-45 6e-45 6e-45

conv3.3.mlp.0.weight f4 [4, 64, 1, 1]
00000000: 2cf1 0000 a54e 3600 35dc 1180 ab7b 0980
00000010: e71c 0880 3915 0100 5a14 3600 4f78 1e80
00000020: de4f 0900 1dcb 3b80 154f 0400 cc0c 3d80
00000030: 8205 2900 33a5 0080 e815 0e80 0400 0d80
00000040: f437 1880 ba73 0800 6f39 3f00 3dfc 0600
00000050: b1b2 2200 5090 0600 26f4 1280 f05c 1300
00000060: 07ba 2600 f83e 2380 077f 3200 90d7 3c80
00000070: 928f 1800 6905 1e00 a061 3980 441a 1780
00000080: e163 1780 b3ca 0900 2fdf 3280 6254 0f00
00000090: 6d25 1e00 84b5 2f00 f8c1 2380 183a 3800
000000a0: 78f3 1880 7082 3980 9108 1800 8da7 3800
000000b0: 4399 1780 c1bf 3000 ced5 3c00 7574 4200
000000c0: 4921 1680 0b51 2b80 cd1c 3180 b067 2a80
000000d0: 1844 1680 bb33 3300 ef29 0d80 2742 0580
000000e0: 11a4 0680 2839 4880 0c75 4a80 de49 0500
000000f0: 568b 1f80 bfe8 0180 3bcb 0400 3fa4 3580
00000100: 5fcc 35ac 64fa a020 0ade 5cac d51d 5c20
00000110: ddf1 021f ddcd d91f cd32 ce1f bf2b 5f20
00000120: 269f 7124 2919 141f d5aa c120 80ca fd1f
00000130: 4a5b f622 4351 a7a0 7088 b021 3763 8da3
00000140: 8b01 0520 5254 eb26 f6ac b3a1 6879 0e20
00000150: 34f1 3720 fff1 0220 8185 3c21 8614 0920
00000160: 32ac 4020 2ae2 ee1f 7c3a 6325 6aae 3c22
00000170: 175a 0120 7c8a c81f f147 1521 3e72 ed1f
00000180: 5155 e7a0 d64d 98a4 3b60 fc1f 1afc 8822
00000190: f138 a51e 4823 44a2 9e66 1121 6d40 80a1
000001a0: d7df 0320 8c1c f3a1 7c51 f21f 3a13 22a5
000001b0: 112d 8f27 6838 0a21 90c8 26a8 2603 ec9f
000001c0: 7124 ab22 5533 f71e 5466 c71e f4fb 8cab
000001d0: 47f9 231f 583a da1f 6a5d a0aa e1ea c020
000001e0: 45c6 6c20 fb00 bf2c 2ac9 0fad 032d fca9
000001f0: 70d9 31ac 7bff 271f 3edb c4a1 ab9b 7120
00000200: 05f5 1400 9178 0b80 5982 4580 3acb 4700
00000210: 0bde 0180 aba7 0900 f31d 0780 aa0d 2a00
00000220: 5b8f 2600 9c98 1800 7077 3200 b1be 3900
00000230: e128 1300 f204 0500 864f 2700 b014 0900
00000240: afa2 3600 e972 4680 4abc 0b80 6925 0500
00000250: 8422 0f00 f320 1500 d1e6 2400 bb18 3300
00000260: cf65 3780 22ca 0680 776f 0980 84fc 0000
00000270: e4d8 0100 ee45 0c80 8f6a 3700 8885 1d00
00000280: c087 0780 29dc 1600 4d11 0b00 b090 1900
00000290: 2818 2e00 3357 0c80 6f10 1500 988d 3800
000002a0: 0268 0600 67a6 1080 e082 2a80 397e 2200
000002b0: 5e41 1080 feb5 0400 480b 1d00 6f20 4600
000002c0: 876c 0900 f9dd 1800 1205 3100 d947 1580
000002d0: c3fe 1100 5383 3400 994f 3380 7445 1480
000002e0: 6cd5 3c00 53c9 2f80 38ea 2800 a81b 3000
000002f0: 8a24 3580 9f28 1d00 b4eb 1680 0fdb 0c00
00000300: e9e3 c90c 4e5c 8995 fe0e 800c 73de a881
00000310: a4c4 3d00 b5ac cb83 49e4 4080 d6e5 3682
00000320: b36c 1384 6fd4 4500 89aa b685 8911 1400
00000330: f934 ad85 01a2 3f85 74bc 0d05 06e0 1506
00000340: 895d 8500 9147 0a09 38be 0f06 2fb7 9e82
00000350: 809b 701e 13b6 0300 8beb 3106 6bbb b604
00000360: 74c5 2d80 1879 a281 88eb c005 9009 a107
00000370: 582f 5881 0101 aa06 a081 3011 1276 8c81
00000380: 72ab bd06 2c8a 5f82 14e8 aa84 e91e aa80
00000390: f771 c405 f06b 0786 76d5 c305 fdcc c786
000003a0: 1ff7 0d00 a4d7 0907 2695 0b84 eaaa 0085
000003b0: 7ff8 ce87 914b 1583 daf9 5289 c2ab 7a83
000003c0: de79 1f02 8e56 2180 ab7e 3080 407c 3c0a
000003d0: 9c42 b481 f360 7480 1404 cc0b d802 6886
000003e0: 908c 7583 b3c2 2a95 2749 288a 9e5b 2f05
000003f0: 9804 a30d 7414 1585 3d38 0c87 a169 9002
8.6516e-41 4.987329e-39 -1.640199e-39 -8.70883e-40 -7.45052e-40 9.9449e-41 4.966418e-39 -2.798223e-39
8.5517e-40 -5.491158e-39 3.95711e-40 -5.606556e-39 3.767231e-39 -5.9262e-41 -1.293555e-39 -1.193867e-39
-2.224124e-39 7.76199e-40 5.80624e-39 6.41499e-40 3.186509e-39 6.02783e-40 -1.740623e-39 1.778214e-39
3.556483e-39 -3.236831e-39 4.637344e-39 -5.587459e-39 2.255555e-39 2.757006e-39 -5.269645e-39 -2.121639e-39
-2.148046e-39 8.99234e-40 -4.671838e-39 1.407803e-39 2.768491e-39 4.381384e-39 -3.283825e-39 5.163628e-39
-2.291392e-39 -5.281415e-39 2.207125e-39 5.202894e-39 -2.167196e-39 4.476892e-39 5.586828e-39 6.10292e-39
-2.032321e-39 -3.977999e-39 -4.510271e-39 -3.894287e-39 -2.044808e-39 4.702168e-39 -1.208904e-39 -4.82908e-40
-6.09869e-40 -6.63266e-39 -6.837815e-39 4.85676e-40 -2.896885e-39 -1.75329e-40 4.40247e-40 -4.926202e-39
-2.5835096e-12 2.727075e-19 -3.1387137e-12 1.8644595e-19 2.7728635e-20 9.224365e-20 8.7328436e-20 1.8903309e-19
5.239335e-17 3.136103e-20 3.280852e-19 1.07484676e-19 6.677509e-18 -2.8344675e-19 1.1962339e-18 -1.532927e-17
1.1266049e-19 1.6329256e-15 -1.2175294e-18 1.2068038e-19 1.558051e-19 1.1091498e-19 6.387357e-19 1.1611142e-19
1.6320007e-19 1.0117108e-19 1.9708927e-16 2.5571085e-18 1.0956533e-19 8.49324e-20 5.0578377e-19 1.005624e-19
-3.918938e-19 -6.605135e-17 1.0688535e-19 3.7129797e-18 1.7493605e-20 -2.658163e-18 4.9263724e-19 -8.690671e-19
1.1170194e-19 -1.6473877e-18 1.0262579e-19 -1.4057774e-16 3.9739334e-15 4.683087e-19 -9.258341e-15 -9.9955096e-20
4.6388227e-18 2.6173373e-20 2.1112266e-20 -1.0017529e-12 3.472279e-20 9.242311e-20 -2.8486528e-13 3.2681495e-19
2.005558e-19 5.4286554e-12 -8.173276e-12 -1.11988564e-13 -2.5273915e-12 3.5574954e-20 -1.333951e-18 2.0465e-19
1.924606e-39 -1.053442e-39 -6.383409e-39 6.593224e-39 -1.7149e-40 8.86667e-40 -6.53592e-40 3.861993e-39
3.541175e-39 2.258798e-39 4.634621e-39 5.30303e-39 1.759539e-39 4.60952e-40 3.610112e-39 8.33941e-40
5.017477e-39 -6.469707e-39 -1.077736e-39 4.72598e-40 1.389914e-39 1.940365e-39 3.388879e-39 4.692482e-39
-5.087474e-39 -6.23525e-40 -8.66506e-40 9.0586e-41 1.69641e-40 -1.127112e-39 5.089178e-39 2.711131e-39
-6.91546e-40 2.09936e-39 1.016397e-39 2.347791e-39 4.233098e-39 -1.133307e-39 1.93444e-39 5.193582e-39
5.88324e-40 -1.529062e-39 -3.90404e-39 3.167687e-39 -1.492817e-39 4.32628e-40 2.667276e-39 6.44012e-39
8.65452e-40 2.28368e-39 4.501758e-39 -1.95432e-39 1.652595e-39 4.822556e-39 -4.712165e-39 -1.861625e-39
5.586691e-39 -4.38849e-39 3.757442e-39 4.418025e-39 -4.880389e-39 2.677801e-39 -2.104935e-39 1.18061e-39
3.1106122e-31 -5.547949e-26 1.9730546e-31 -6.203265e-38 5.672507e-39 -1.1970919e-36 -5.959365e-39 -1.3437208e-37
-1.732968e-36 6.412856e-39 -1.7177842e-35 1.843e-39 -1.6288301e-35 -9.010532e-36 6.6644015e-36 2.8188372e-35
1.2247675e-38 1.6644796e-33 2.703506e-35 -2.3321156e-37 1.2737651e-20 3.40822e-40 3.346305e-35 4.296011e-36
-4.20343e-39 -5.968316e-38 1.8142114e-35 2.4230208e-34 -3.9706902e-38 6.394837e-35 1.3923896e-28 -5.15973e-38
7.1345815e-35 -1.6423106e-37 -4.0179938e-36 -1.5623123e-38 1.8473615e-35 -2.5469978e-35 1.8416125e-35 -7.5156683e-35
1.282512e-39 1.0370106e-34 -1.6407857e-36 -6.049923e-36 -3.1141488e-34 -4.387391e-37 -2.539531e-33 -7.3665565e-37
1.1716449e-37 -3.061621e-39 -4.453544e-39 9.0752396e-33 -6.6217137e-38 -1.0687696e-38 7.858408e-32 -4.363644e-35
-7.2160387e-37 -3.4484817e-26 -8.102664e-33 8.245288e-36 1.00467565e-30 -7.009703e-36 -1.0548956e-34 2.1219526e-37
